node {
  name: "global_step"
  op: "Variable"
  attr {
    key: "_output_shapes"
    value {
      list {
        shape {
        }
      }
    }
  }
  attr {
    key: "container"
    value {
      s: ""
    }
  }
  attr {
    key: "dtype"
    value {
      type: DT_INT64
    }
  }
  attr {
    key: "shape"
    value {
      shape {
      }
    }
  }
  attr {
    key: "shared_name"
    value {
      s: ""
    }
  }
}
node {
  name: "global_step/Initializer/zeros"
  op: "Const"
  attr {
    key: "_class"
    value {
      list {
        s: "loc:@global_step"
      }
    }
  }
  attr {
    key: "_output_shapes"
    value {
      list {
        shape {
        }
      }
    }
  }
  attr {
    key: "dtype"
    value {
      type: DT_INT64
    }
  }
  attr {
    key: "value"
    value {
      tensor {
        dtype: DT_INT64
        tensor_shape {
        }
        int64_val: 0
      }
    }
  }
}
node {
  name: "global_step/Assign"
  op: "Assign"
  input: "global_step"
  input: "global_step/Initializer/zeros"
  attr {
    key: "T"
    value {
      type: DT_INT64
    }
  }
  attr {
    key: "_class"
    value {
      list {
        s: "loc:@global_step"
      }
    }
  }
  attr {
    key: "_output_shapes"
    value {
      list {
        shape {
        }
      }
    }
  }
  attr {
    key: "use_locking"
    value {
      b: true
    }
  }
  attr {
    key: "validate_shape"
    value {
      b: true
    }
  }
}
node {
  name: "global_step/read"
  op: "Identity"
  input: "global_step"
  attr {
    key: "T"
    value {
      type: DT_INT64
    }
  }
  attr {
    key: "_class"
    value {
      list {
        s: "loc:@global_step"
      }
    }
  }
  attr {
    key: "_output_shapes"
    value {
      list {
        shape {
        }
      }
    }
  }
}
node {
  name: "Const"
  op: "Const"
  attr {
    key: "_output_shapes"
    value {
      list {
        shape {
          dim {
            size: 3402
          }
        }
      }
    }
  }
  attr {
    key: "dtype"
    value {
      type: DT_FLOAT
    }
  }
  attr {
    key: "value"
    value {
      tensor {
        dtype: DT_FLOAT
        tensor_shape {
          dim {
            size: 3402
          }
        }
        tensor_content: "…"
      }
    }
  }
}
node {
  name: "Const_1"
  op: "Const"
  attr {
    key: "_output_shapes"
    value {
      list {
        shape {
          dim {
            size: 3402
          }
        }
      }
    }
  }
  attr {
    key: "dtype"
    value {
      type: DT_FLOAT
    }
  }
  attr {
    key: "value"
    value {
      tensor {
        dtype: DT_FLOAT
        tensor_shape {
          dim {
            size: 3402
          }
        }
        tensor_content: "…"
      }
    }
  }
}
node {
  name: "Const_2"
  op: "Const"
  attr {
    key: "_output_shapes"
    value {
      list {
        shape {
          dim {
            size: 3402
          }
        }
      }
    }
  }
  attr {
    key: "dtype"
    value {
      type: DT_FLOAT
    }
  }
  attr {
    key: "value"
    value {
      tensor {
        dtype: DT_FLOAT
        tensor_shape {
          dim {
            size: 3402
          }
        }
        tensor_content: "…"
      }
    }
  }
}
node {
  name: "Const_3"
  op: "Const"
  attr {
    key: "_output_shapes"
    value {
      list {
        shape {
          dim {
            size: 3402
          }
        }
      }
    }
  }
  attr {
    key: "dtype"
    value {
      type: DT_FLOAT
    }
  }
  attr {
    key: "value"
    value {
      tensor {
        dtype: DT_FLOAT
        tensor_shape {
          dim {
            size: 3402
          }
        }
        tensor_content: "…"
      }
    }
  }
}
node {
  name: "Const_4"
  op: "Const"
  attr {
    key: "_output_shapes"
    value {
      list {
        shape {
          dim {
            size: 3402
          }
        }
      }
    }
  }
  attr {
    key: "dtype"
    value {
      type: DT_FLOAT
    }
  }
  attr {
    key: "value"
    value {
      tensor {
        dtype: DT_FLOAT
        tensor_shape {
          dim {
            size: 3402
          }
        }
        tensor_content: "…"
      }
    }
  }
}
node {
  name: "SparseTensor/indices"
  op: "Const"
  attr {
    key: "_output_shapes"
    value {
      list {
        shape {
          dim {
            size: 3402
          }
          dim {
            size: 2
          }
        }
      }
    }
  }
  attr {
    key: "dtype"
    value {
      type: DT_INT64
    }
  }
  attr {
    key: "value"
    value {
      tensor {
        dtype: DT_INT64
        tensor_shape {
          dim {
            size: 3402
          }
          dim {
            size: 2
          }
        }
        tensor_content: "…"
      }
    }
  }
}
node {
  name: "SparseTensor/values"
  op: "Const"
  attr {
    key: "_output_shapes"
    value {
      list {
        shape {
          dim {
            size: 3402
          }
        }
      }
    }
  }
  attr {
    key: "dtype"
    value {
      type: DT_STRING
    }
  }
  attr {
    key: "value"
    value {
      tensor {
        dtype: DT_STRING
        tensor_shape {
          dim {
            size: 3402
          }
        }
        string_val: "Multi Family"
        string_val: "Single Family"
        string_val: "Condo"
        string_val: "Condo"
        string_val: "Condo"
        string_val: "Single Family"
        string_val: "Condo"
        string_val: "Single Family"
        string_val: "Condo"
        string_val: "Multi Family"
        string_val: "Condo"
        string_val: "Single Family"
        string_val: "Condo"
        string_val: "Condo"
        string_val: "Condo"
        string_val: "Townhouse"
        string_val: "Condo"
        string_val: "Condo"
        string_val: "Single Family"
        string_val: "Condo"
        string_val: "Condo"
        string_val: "Condo"
        string_val: "Multi Family"
        string_val: "Single Family"
        string_val: "Condo"
        string_val: "Single Family"
        string_val: "Condo"
        string_val: "Condo"
        string_val: "Condo"
        string_val: "Multi Family"
        string_val: "Condo"
        string_val: "Condo"
        string_val: "Condo"
        string_val: "Single Family"
        string_val: "Single Family"
        string_val: "Condo"
        string_val: "Condo"
        string_val: "Condo"
        string_val: "Condo"
        string_val: "Single Family"
        string_val: "Condo"
        string_val: "Condo"
        string_val: "Condo"
        string_val: "Single Family"
        string_val: "Multi Family"
        string_val: "Multi Family"
        string_val: "Condo"
        string_val: "Condo"
        string_val: "Multi Family"
        string_val: "Condo"
        string_val: "Condo"
        string_val: "Single Family"
        string_val: "Condo"
        string_val: "Single Family"
        string_val: "Multiple Occupancy"
        string_val: "Cooperative"
        string_val: "Condo"
        string_val: "Single Family"
        string_val: "Single Family"
        string_val: "Condo"
        string_val: "Condo"
        string_val: "Condo"
        string_val: "Condo"
        string_val: "Multi Family"
        string_val: "Condo"
        string_val: "Condo"
        string_val: "Condo"
        string_val: "Single Family"
        string_val: "Single Family"
        string_val: "Condo"
        string_val: "Multi Family"
        string_val: "Single Family"
        string_val: "Condo"
        string_val: "Condo"
        string_val: "Condo"
        string_val: "Condo"
        string_val: "Single Family"
        string_val: "Single Family"
        string_val: "Condo"
        string_val: "Multi Family"
        string_val: "Condo"
        string_val: "Single Family"
        string_val: "Condo"
        string_val: "Single Family"
        string_val: "Condo"
        string_val: "Condo"
        string_val: "Condo"
        string_val: "Multi Family"
        string_val: "Condo"
        string_val: "Condo"
        string_val: "Condo"
        string_val: "Condo"
        string_val: "Multiple Occupancy"
        string_val: "Single Family"
        string_val: "Multiple Occupancy"
        string_val: "Condo"
        string_val: "Single Family"
        string_val: "Single Family"
        string_val: "Condo"
        string_val: "Condo"
        string_val: "Condo"
        string_val: "Single Family"
        string_val: "Single Family"
        string_val: "Single Family"
        string_val: "Condo"
        string_val: "Multiple Occupancy"
        string_val: "Condo"
        string_val: "Condo"
        string_val: "Condo"
        string_val: "Condo"
        string_val: "Single Family"
        string_val: "Multi Family"
        string_val: "Condo"
        string_val: "Single Family"
        string_val: "Condo"
        string_val: "Condo"
        string_val: "Condo"
        string_val: "Multi Family"
        string_val: "Condo"
        string_val: "Condo"
        string_val: "Condo"
        string_val: "Condo"
        string_val: "Condo"
        string_val: "Single Family"
        string_val: "Single Family"
        string_val: "Condo"
        string_val: "Single Family"
        string_val: "Condo"
        string_val: "Condo"
        string_val: "Condo"
        string_val: "Single Family"
        string_val: "Condo"
        string_val: "Condo"
        string_val: "Single Family"
        string_val: "Condo"
        string_val: "Single Family"
        string_val: "Single Family"
        string_val: "Condo"
        string_val: "Condo"
        string_val: "Condo"
        string_val: "Condo"
        string_val: "Single Family"
        string_val: "Single Family"
        string_val: "Single Family"
        string_val: "Single Family"
        string_val: "Condo"
        string_val: "Single Family"
        string_val: "Condo"
        string_val: "Multi Family"
        string_val: "Condo"
        string_val: "Condo"
        string_val: "Single Family"
        string_val: "Condo"
        string_val: "Condo"
        string_val: "Condo"
        string_val: "Multiple Occupancy"
        string_val: "Multi Family"
        string_val: "Single Family"
        string_val: "Condo"
        string_val: "Condo"
        string_val: "Single Family"
        string_val: "Condo"
        string_val: "Multiple Occupancy"
        string_val: "Condo"
        string_val: "Condo"
        string_val: "Multiple Occupancy"
        string_val: "Condo"
        string_val: "Condo"
        string_val: "Condo"
        string_val: "Condo"
        string_val: "Condo"
        string_val: "Multiple Occupancy"
        string_val: "Multi Family"
        string_val: "Single Family"
        string_val: "Single Family"
        string_val: "Condo"
        string_val: "Condo"
        string_val: "Condo"
        string_val: "Condo"
        string_val: "Condo"
        string_val: "Single Family"
        string_val: "Single Family"
        string_val: "Condo"
        string_val: "Condo"
        string_val: "Single Family"
        string_val: "Single Family"
        string_val: "Condo"
        string_val: "Multi Family"
        string_val: "Single Family"
        string_val: "Condo"
        string_val: "Condo"
        string_val: "Condo"
        string_val: "Condo"
        string_val: "Single Family"
        string_val: "Condo"
        string_val: "Single Family"
        string_val: "Condo"
        string_val: "Multi Family"
        string_val: "Single Family"
        string_val: "Condo"
        string_val: "Condo"
        string_val: "Condo"
        string_val: "Condo"
        string_val: "Condo"
        string_val: "Condo"
        string_val: "Condo"
        string_val: "Condo"
        string_val: "Condo"
        string_val: "Single Family"
        string_val: "Condo"
        string_val: "Condo"
        string_val: "Condo"
        string_val: "Condo"
        string_val: "Condo"
        string_val: "Single Family"
        string_val: "Condo"
        string_val: "Single Family"
        string_val: "Multiple Occupancy"
        string_val: "Condo"
        string_val: "Condo"
        string_val: "Condo"
        string_val: "Condo"
        string_val: "Multi Family"
        string_val: "Single Family"
        string_val: "Condo"
        string_val: "Condo"
        string_val: "Condo"
        string_val: "Condo"
        string_val: "Condo"
        string_val: "Condo"
        string_val: "Condo"
        string_val: "Condo"
        string_val: "Condo"
        string_val: "Condo"
        string_val: "Multiple Occupancy"
        string_val: "Condo"
        string_val: "Single Family"
        string_val: "Single Family"
        string_val: "Condo"
        string_val: "Condo"
        string_val: "Single Family"
        string_val: "Condo"
        string_val: "Condo"
        string_val: "Single Family"
        string_val: "Condo"
        string_val: "Condo"
        string_val: "Multi Family"
        string_val: "Townhouse"
        string_val: "Single Family"
        string_val: "Condo"
        string_val: "Condo"
        string_val: "Condo"
        string_val: "Condo"
        string_val: "Condo"
        string_val: "Single Family"
        string_val: "Condo"
        string_val: "Single Family"
        string_val: "Condo"
        string_val: "Condo"
        string_val: "Condo"
        string_val: "Condo"
        string_val: "Condo"
        string_val: "Condo"
        string_val: "Single Family"
        string_val: "Apartment"
        string_val: "Condo"
        string_val: "Condo"
        string_val: "Single Family"
        string_val: "Condo"
        string_val: "Condo"
        string_val: "Condo"
        string_val: "Condo"
        string_val: "Multiple Occupancy"
        string_val: "Condo"
        string_val: "Condo"
        string_val: "Multiple Occupancy"
        string_val: "Condo"
        string_val: "Single Family"
        string_val: "Condo"
        string_val: "Condo"
        string_val: "Multi Family"
        string_val: "Condo"
        string_val: "Condo"
        string_val: "Single Family"
        string_val: "Condo"
        string_val: "Multiple Occupancy"
        string_val: "Single Family"
        string_val: "Condo"
        string_val: "Condo"
        string_val: "Single Family"
        string_val: "Single Family"
        string_val: "Condo"
        string_val: "Single Family"
        string_val: "Multi Family"
        string_val: "Multiple Occupancy"
        string_val: "Multi Family"
        string_val: "Condo"
        string_val: "Single Family"
        string_val: "Condo"
        string_val: "Condo"
        string_val: "Condo"
        string_val: "Condo"
        string_val: "Condo"
        string_val: "Condo"
        string_val: "Condo"
        string_val: "Single Family"
        string_val: "Condo"
        string_val: "Single Family"
        string_val: "Single Family"
        string_val: "Condo"
        string_val: "Condo"
        string_val: "Condo"
        string_val: "Condo"
        string_val: "Single Family"
        string_val: "Condo"
        string_val: "Single Family"
        string_val: "Single Family"
        string_val: "Condo"
        string_val: "Condo"
        string_val: "Single Family"
        string_val: "Condo"
        string_val: "Condo"
        string_val: "Townhouse"
        string_val: "Condo"
        string_val: "Single Family"
        string_val: "Single Family"
        string_val: "Condo"
        string_val: "Single Family"
        string_val: "Condo"
        string_val: "Single Family"
        string_val: "Single Family"
        string_val: "Single Family"
        string_val: "Condo"
        string_val: "Condo"
        string_val: "Condo"
        string_val: "Condo"
        string_val: "Condo"
        string_val: "Condo"
        string_val: "Single Family"
        string_val: "Condo"
        string_val: "Multi Family"
        string_val: "Single Family"
        string_val: "Single Family"
        string_val: "Condo"
        string_val: "Condo"
        string_val: "Condo"
        string_val: "Single Family"
        string_val: "Condo"
        string_val: "Condo"
        string_val: "Condo"
        string_val: "Multi Family"
        string_val: "Condo"
        string_val: "Condo"
        string_val: "Single Family"
        string_val: "Multi Family"
        string_val: "Single Family"
        string_val: "Condo"
        string_val: "Condo"
        string_val: "Condo"
        string_val: "Single Family"
        string_val: "Condo"
        string_val: "Single Family"
        string_val: "Condo"
        string_val: "Condo"
        string_val: "Condo"
        string_val: "Condo"
        string_val: "Multi Family"
        string_val: "Condo"
        string_val: "Condo"
        string_val: "Condo"
        string_val: "Condo"
        string_val: "Condo"
        string_val: "Condo"
        string_val: "Condo"
        string_val: "Condo"
        string_val: "Multiple Occupancy"
        string_val: "Condo"
        string_val: "Single Family"
        string_val: "Condo"
        string_val: "Single Family"
        string_val: "Single Family"
        string_val: "Condo"
        string_val: "Condo"
        string_val: "Single Family"
        string_val: "Condo"
        string_val: "Condo"
        string_val: "Condo"
        string_val: "Condo"
        string_val: "Condo"
        string_val: "Condo"
        string_val: "Condo"
        string_val: "Condo"
        string_val: "Condo"
        string_val: "Condo"
        string_val: "Condo"
        string_val: "Single Family"
        string_val: "Single Family"
        string_val: "Multi Family"
        string_val: "Single Family"
        string_val: "Condo"
        string_val: "Condo"
        string_val: "Condo"
        string_val: "Single Family"
        string_val: "Condo"
        string_val: "Condo"
        string_val: "Single Family"
        string_val: "Single Family"
        string_val: "Condo"
        string_val: "Condo"
        string_val: "Condo"
        string_val: "Single Family"
        string_val: "Condo"
        string_val: "Condo"
        string_val: "Condo"
        string_val: "Single Family"
        string_val: "Single Family"
        string_val: "Condo"
        string_val: "Single Family"
        string_val: "Single Family"
        string_val: "Multiple Occupancy"
        string_val: "Single Family"
        string_val: "Condo"
        string_val: "Single Family"
        string_val: "Condo"
        string_val: "Condo"
        string_val: "Condo"
        string_val: "Multi Family"
        string_val: "Condo"
        string_val: "Condo"
        string_val: "Condo"
        string_val: "Condo"
        string_val: "Condo"
        string_val: "Multi Family"
        string_val: "Single Family"
        string_val: "Condo"
        string_val: "Single Family"
        string_val: "Multiple Occupancy"
        string_val: "Single Family"
        string_val: "Condo"
        string_val: "Condo"
        string_val: "Single Family"
        string_val: "Condo"
        string_val: "Condo"
        string_val: "Single Family"
        string_val: "Apartment"
        string_val: "Single Family"
        string_val: "Condo"
        string_val: "Single Family"
        string_val: "Condo"
        string_val: "Condo"
        string_val: "Single Family"
        string_val: "Single Family"
        string_val: "Condo"
        string_val: "Single Family"
        string_val: "Condo"
        string_val: "Condo"
        string_val: "Single Family"
        string_val: "Condo"
        string_val: "Multiple Occupancy"
        string_val: "Condo"
        string_val: "Condo"
        string_val: "Condo"
        string_val: "Single Family"
        string_val: "Single Family"
        string_val: "Condo"
        string_val: "Single Family"
        string_val: "Multiple Occupancy"
        string_val: "Single Family"
        string_val: "Condo"
        string_val: "Single Family"
        string_val: "Condo"
        string_val: "Single Family"
        string_val: "Condo"
        string_val: "Condo"
        string_val: "Single Family"
        string_val: "Condo"
        string_val: "Single Family"
        string_val: "Single Family"
        string_val: "Condo"
        string_val: "Condo"
        string_val: "Single Family"
        string_val: "Condo"
        string_val: "Condo"
        string_val: "Condo"
        string_val: "Condo"
        string_val: "Single Family"
        string_val: "Single Family"
        string_val: "Condo"
        string_val: "Condo"
        string_val: "Condo"
        string_val: "Condo"
        string_val: "Condo"
        string_val: "Condo"
        string_val: "Single Family"
        string_val: "Single Family"
        string_val: "Single Family"
        string_val: "Single Family"
        string_val: "Multiple Occupancy"
        string_val: "Condo"
        string_val: "Condo"
        string_val: "Multi Family"
        string_val: "Single Family"
        string_val: "Condo"
        string_val: "Single Family"
        string_val: "Single Family"
        string_val: "Condo"
        string_val: "Multi Family"
        string_val: "Condo"
        string_val: "Multi Family"
        string_val: "Single Family"
        string_val: "Multi Family"
        string_val: "Condo"
        string_val: "Condo"
        string_val: "Single Family"
        string_val: "Condo"
        string_val: "Single Family"
        string_val: "Single Family"
        string_val: "Single Family"
        string_val: "Multiple Occupancy"
        string_val: "Condo"
        string_val: "Condo"
        string_val: "Multiple Occupancy"
        string_val: "Condo"
        string_val: "Condo"
        string_val: "Single Family"
        string_val: "Condo"
        string_val: "Single Family"
        string_val: "Condo"
        string_val: "Condo"
        string_val: "Condo"
        string_val: "Condo"
        string_val: "Condo"
        string_val: "Condo"
        string_val: "Single Family"
        string_val: "Condo"
        string_val: "Single Family"
        string_val: "Townhouse"
        string_val: "Condo"
        string_val: "Condo"
        string_val: "Single Family"
        string_val: "Multi Family"
        string_val: "Condo"
        string_val: "Condo"
        string_val: "Single Family"
        string_val: "Condo"
        string_val: "Condo"
        string_val: "Single Family"
        string_val: "Condo"
        string_val: "Condo"
        string_val: "Single Family"
        string_val: "Single Family"
        string_val: "Single Family"
        string_val: "Condo"
        string_val: "Single Family"
        string_val: "Condo"
        string_val: "Condo"
        string_val: "Single Family"
        string_val: "Single Family"
        string_val: "Condo"
        string_val: "Multi Family"
        string_val: "Condo"
        string_val: "Single Family"
        string_val: "Condo"
        string_val: "Single Family"
        string_val: "Multi Family"
        string_val: "Condo"
        string_val: "Condo"
        string_val: "Condo"
        string_val: "Condo"
        string_val: "Condo"
        string_val: "Condo"
        string_val: "Condo"
        string_val: "Single Family"
        string_val: "Condo"
        string_val: "Condo"
        string_val: "Condo"
        string_val: "Condo"
        string_val: "Condo"
        string_val: "Condo"
        string_val: "Condo"
        string_val: "Condo"
        string_val: "Condo"
        string_val: "Single Family"
        string_val: "Condo"
        string_val: "Condo"
        string_val: "Condo"
        string_val: "Condo"
        string_val: "Single Family"
        string_val: "Condo"
        string_val: "Single Family"
        string_val: "Single Family"
        string_val: "Condo"
        string_val: "Multi Family"
        string_val: "Single Family"
        string_val: "Single Family"
        string_val: "Condo"
        string_val: "Condo"
        string_val: "Condo"
        string_val: "Single Family"
        string_val: "Condo"
        string_val: "Condo"
        string_val: "Condo"
        string_val: "Multi Family"
        string_val: "Condo"
        string_val: "Single Family"
        string_val: "Condo"
        string_val: "Condo"
        string_val: "Condo"
        string_val: "Single Family"
        string_val: "Single Family"
        string_val: "Condo"
        string_val: "Condo"
        string_val: "Multiple Occupancy"
        string_val: "Condo"
        string_val: "Condo"
        string_val: "Condo"
        string_val: "Condo"
        string_val: "Condo"
        string_val: "Single Family"
        string_val: "Condo"
        string_val: "Condo"
        string_val: "Condo"
        string_val: "Condo"
        string_val: "Single Family"
        string_val: "Single Family"
        string_val: "Condo"
        string_val: "Single Family"
        string_val: "Condo"
        string_val: "Multi Family"
        string_val: "Single Family"
        string_val: "Single Family"
        string_val: "Condo"
        string_val: "Condo"
        string_val: "Condo"
        string_val: "Single Family"
        string_val: "Condo"
        string_val: "Condo"
        string_val: "Condo"
        string_val: "Condo"
        string_val: "Single Family"
        string_val: "Condo"
        string_val: "Single Family"
        string_val: "Condo"
        string_val: "Single Family"
        string_val: "Single Family"
        string_val: "Multi Family"
        string_val: "Condo"
        string_val: "Condo"
        string_val: "Condo"
        string_val: "Condo"
        string_val: "Single Family"
        string_val: "Single Family"
        string_val: "Single Family"
        string_val: "Condo"
        string_val: "Condo"
        string_val: "Condo"
        string_val: "Condo"
        string_val: "Single Family"
        string_val: "Condo"
        string_val: "Single Family"
        string_val: "Single Family"
        string_val: "Condo"
        string_val: "Condo"
        string_val: "Single Family"
        string_val: "Condo"
        string_val: "Multiple Occupancy"
        string_val: "Condo"
        string_val: "Multi Family"
        string_val: "Condo"
        string_val: "Condo"
        string_val: "Single Family"
        string_val: "Condo"
        string_val: "Condo"
        string_val: "Single Family"
        string_val: "Condo"
        string_val: "Condo"
        string_val: "Single Family"
        string_val: "Single Family"
        string_val: "Multiple Occupancy"
        string_val: "Condo"
        string_val: "Condo"
        string_val: "Condo"
        string_val: "Single Family"
        string_val: "Condo"
        string_val: "Condo"
        string_val: "Condo"
        string_val: "Condo"
        string_val: "Multi Family"
        string_val: "Condo"
        string_val: "Single Family"
        string_val: "Single Family"
        string_val: "Condo"
        string_val: "Single Family"
        string_val: "Single Family"
        string_val: "Condo"
        string_val: "Condo"
        string_val: "Condo"
        string_val: "Condo"
        string_val: "Condo"
        string_val: "Condo"
        string_val: "Condo"
        string_val: "Condo"
        string_val: "Condo"
        string_val: "Condo"
        string_val: "Single Family"
        string_val: "Single Family"
        string_val: "Condo"
        string_val: "Condo"
        string_val: "Condo"
        string_val: "Single Family"
        string_val: "Single Family"
        string_val: "Condo"
        string_val: "Condo"
        string_val: "Multi Family"
        string_val: "Condo"
        string_val: "Single Family"
        string_val: "Condo"
        string_val: "Single Family"
        string_val: "Single Family"
        string_val: "Condo"
        string_val: "Multi Family"
        string_val: "Condo"
        string_val: "Single Family"
        string_val: "Condo"
        string_val: "Condo"
        string_val: "Single Family"
        string_val: "Condo"
        string_val: "Condo"
        string_val: "Single Family"
        string_val: "Single Family"
        string_val: "Condo"
        string_val: "Condo"
        string_val: "Single Family"
        string_val: "Multi Family"
        string_val: "Single Family"
        string_val: "Condo"
        string_val: "Condo"
        string_val: "Condo"
        string_val: "Multi Family"
        string_val: "Condo"
        string_val: "Townhouse"
        string_val: "Condo"
        string_val: "Condo"
        string_val: "Multi Family"
        string_val: "Condo"
        string_val: "Condo"
        string_val: "Condo"
        string_val: "Condo"
        string_val: "Condo"
        string_val: "Condo"
        string_val: "Condo"
        string_val: "Condo"
        string_val: "Condo"
        string_val: "Condo"
        string_val: "Condo"
        string_val: "Condo"
        string_val: "Condo"
        string_val: "Single Family"
        string_val: "Condo"
        string_val: "Multiple Occupancy"
        string_val: "Condo"
        string_val: "Single Family"
        string_val: "Single Family"
        string_val: "Condo"
        string_val: "Condo"
        string_val: "Condo"
        string_val: "Condo"
        string_val: "Condo"
        string_val: "Multiple Occupancy"
        string_val: "Condo"
        string_val: "Single Family"
        string_val: "Apartment"
        string_val: "Single Family"
        string_val: "Condo"
        string_val: "Condo"
        string_val: "Condo"
        string_val: "Condo"
        string_val: "Single Family"
        string_val: "Single Family"
        string_val: "Condo"
        string_val: "Condo"
        string_val: "Condo"
        string_val: "Multi Family"
        string_val: "Condo"
        string_val: "Multiple Occupancy"
        string_val: "Single Family"
        string_val: "Condo"
        string_val: "Condo"
        string_val: "Condo"
        string_val: "Single Family"
        string_val: "Single Family"
        string_val: "Condo"
        string_val: "Condo"
        string_val: "Condo"
        string_val: "Condo"
        string_val: "Condo"
        string_val: "Condo"
        string_val: "Condo"
        string_val: "Condo"
        string_val: "Condo"
        string_val: "Condo"
        string_val: "Condo"
        string_val: "Condo"
        string_val: "Multiple Occupancy"
        string_val: "Condo"
        string_val: "Apartment"
        string_val: "Condo"
        string_val: "Condo"
        string_val: "Condo"
        string_val: "Single Family"
        string_val: "Condo"
        string_val: "Single Family"
        string_val: "Condo"
        string_val: "Condo"
        string_val: "Condo"
        string_val: "Condo"
        string_val: "Condo"
        string_val: "Condo"
        string_val: "Condo"
        string_val: "Condo"
        string_val: "Single Family"
        string_val: "Single Family"
        string_val: "Apartment"
        string_val: "Condo"
        string_val: "Condo"
        string_val: "Condo"
        string_val: "Condo"
        string_val: "Condo"
        string_val: "Single Family"
        string_val: "Condo"
        string_val: "Condo"
        string_val: "Single Family"
        string_val: "Multi Family"
        string_val: "Condo"
        string_val: "Condo"
        string_val: "Multi Family"
        string_val: "Condo"
        string_val: "Single Family"
        string_val: "Single Family"
        string_val: "Single Family"
        string_val: "Condo"
        string_val: "Condo"
        string_val: "Single Family"
        string_val: "Cooperative"
        string_val: "Condo"
        string_val: "Single Family"
        string_val: "Condo"
        string_val: "Condo"
        string_val: "Multiple Occupancy"
        string_val: "Condo"
        string_val: "Single Family"
        string_val: "Condo"
        string_val: "Condo"
        string_val: "Condo"
        string_val: "Condo"
        string_val: "Single Family"
        string_val: "Condo"
        string_val: "Condo"
        string_val: "Condo"
        string_val: "Condo"
        string_val: "Single Family"
        string_val: "Single Family"
        string_val: "Condo"
        string_val: "Single Family"
        string_val: "Multiple Occupancy"
        string_val: "Multi Family"
        string_val: "Condo"
        string_val: "Multiple Occupancy"
        string_val: "Multi Family"
        string_val: "Single Family"
        string_val: "Condo"
        string_val: "Condo"
        string_val: "Multi Family"
        string_val: "Single Family"
        string_val: "Single Family"
        string_val: "Condo"
        string_val: "Condo"
        string_val: "Single Family"
        string_val: "Single Family"
        string_val: "Single Family"
        string_val: "Condo"
        string_val: "Single Family"
        string_val: "Multi Family"
        string_val: "Condo"
        string_val: "Condo"
        string_val: "Single Family"
        string_val: "Single Family"
        string_val: "Townhouse"
        string_val: "Condo"
        string_val: "Condo"
        string_val: "Condo"
        string_val: "Condo"
        string_val: "Condo"
        string_val: "Single Family"
        string_val: "Condo"
        string_val: "Condo"
        string_val: "Condo"
        string_val: "Condo"
        string_val: "Single Family"
        string_val: "Single Family"
        string_val: "Multi Family"
        string_val: "Condo"
        string_val: "Multiple Occupancy"
        string_val: "Condo"
        string_val: "Condo"
        string_val: "Single Family"
        string_val: "Single Family"
        string_val: "Single Family"
        string_val: "Condo"
        string_val: "Condo"
        string_val: "Condo"
        string_val: "Condo"
        string_val: "Single Family"
        string_val: "Condo"
        string_val: "Multi Family"
        string_val: "Condo"
        string_val: "Single Family"
        string_val: "Condo"
        string_val: "Single Family"
        string_val: "Single Family"
        string_val: "Single Family"
        string_val: "Condo"
        string_val: "Condo"
        string_val: "Condo"
        string_val: "Condo"
        string_val: "Single Family"
        string_val: "Condo"
        string_val: "Condo"
        string_val: "Single Family"
        string_val: "Condo"
        string_val: "Single Family"
        string_val: "Condo"
        string_val: "Condo"
        string_val: "Single Family"
        string_val: "Condo"
        string_val: "Condo"
        string_val: "Condo"
        string_val: "Condo"
        string_val: "Condo"
        string_val: "Condo"
        string_val: "Single Family"
        string_val: "Condo"
        string_val: "Multi Family"
        string_val: "Condo"
        string_val: "Condo"
        string_val: "Condo"
        string_val: "Condo"
        string_val: "Condo"
        string_val: "Condo"
        string_val: "Single Family"
        string_val: "Condo"
        string_val: "Single Family"
        string_val: "Multiple Occupancy"
        string_val: "Condo"
        string_val: "Single Family"
        string_val: "Single Family"
        string_val: "Condo"
        string_val: "Condo"
        string_val: "Single Family"
        string_val: "Condo"
        string_val: "Condo"
        string_val: "Condo"
        string_val: "Multi Family"
        string_val: "Single Family"
        string_val: "Multi Family"
        string_val: "Multiple Occupancy"
        string_val: "Condo"
        string_val: "Condo"
        string_val: "Condo"
        string_val: "Condo"
        string_val: "Multi Family"
        string_val: "Condo"
        string_val: "Multiple Occupancy"
        string_val: "Multiple Occupancy"
        string_val: "Single Family"
        string_val: "Condo"
        string_val: "Multi Family"
        string_val: "Condo"
        string_val: "Condo"
        string_val: "Single Family"
        string_val: "Condo"
        string_val: "Condo"
        string_val: "Condo"
        string_val: "Condo"
        string_val: "Condo"
        string_val: "Condo"
        string_val: "Condo"
        string_val: "Single Family"
        string_val: "Condo"
        string_val: "Condo"
        string_val: "Condo"
        string_val: "Condo"
        string_val: "Apartment"
        string_val: "Single Family"
        string_val: "Condo"
        string_val: "Other"
        string_val: "Multi Family"
        string_val: "Single Family"
        string_val: "Condo"
        string_val: "Condo"
        string_val: "Single Family"
        string_val: "Condo"
        string_val: "Condo"
        string_val: "Single Family"
        string_val: "Condo"
        string_val: "Condo"
        string_val: "Condo"
        string_val: "Condo"
        string_val: "Single Family"
        string_val: "Condo"
        string_val: "Condo"
        string_val: "Apartment"
        string_val: "Condo"
        string_val: "Condo"
        string_val: "Single Family"
        string_val: "Single Family"
        string_val: "Condo"
        string_val: "Condo"
        string_val: "Condo"
        string_val: "Condo"
        string_val: "Single Family"
        string_val: "Condo"
        string_val: "Single Family"
        string_val: "Condo"
        string_val: "Single Family"
        string_val: "Single Family"
        string_val: "Single Family"
        string_val: "Multiple Occupancy"
        string_val: "Single Family"
        string_val: "Condo"
        string_val: "Condo"
        string_val: "Condo"
        string_val: "Single Family"
        string_val: "Condo"
        string_val: "Condo"
        string_val: "Single Family"
        string_val: "Condo"
        string_val: "Condo"
        string_val: "Condo"
        string_val: "Condo"
        string_val: "Multi Family"
        string_val: "Condo"
        string_val: "Single Family"
        string_val: "Condo"
        string_val: "Condo"
        string_val: "Single Family"
        string_val: "Condo"
        string_val: "Multi Family"
        string_val: "Condo"
        string_val: "Condo"
        string_val: "Condo"
        string_val: "Condo"
        string_val: "Single Family"
        string_val: "Condo"
        string_val: "Condo"
        string_val: "Single Family"
        string_val: "Condo"
        string_val: "Single Family"
        string_val: "Condo"
        string_val: "Condo"
        string_val: "Multi Family"
        string_val: "Condo"
        string_val: "Condo"
        string_val: "Condo"
        string_val: "Condo"
        string_val: "Condo"
        string_val: "Condo"
        string_val: "Condo"
        string_val: "Condo"
        string_val: "Single Family"
        string_val: "Single Family"
        string_val: "Condo"
        string_val: "Single Family"
        string_val: "Condo"
        string_val: "Miscellaneous"
        string_val: "Single Family"
        string_val: "Condo"
        string_val: "Condo"
        string_val: "Condo"
        string_val: "Condo"
        string_val: "Single Family"
        string_val: "Condo"
        string_val: "Condo"
        string_val: "Condo"
        string_val: "Single Family"
        string_val: "Condo"
        string_val: "Single Family"
        string_val: "Single Family"
        string_val: "Condo"
        string_val: "Condo"
        string_val: "Single Family"
        string_val: "Condo"
        string_val: "Condo"
        string_val: "Single Family"
        string_val: "Condo"
        string_val: "Multi Family"
        string_val: "Condo"
        string_val: "Multi Family"
        string_val: "Condo"
        string_val: "Apartment"
        string_val: "Single Family"
        string_val: "Condo"
        string_val: "Condo"
        string_val: "Condo"
        string_val: "Condo"
        string_val: "Single Family"
        string_val: "Single Family"
        string_val: "Condo"
        string_val: "Condo"
        string_val: "Condo"
        string_val: "Condo"
        string_val: "Condo"
        string_val: "Condo"
        string_val: "Condo"
        string_val: "Condo"
        string_val: "Single Family"
        string_val: "Single Family"
        string_val: "Condo"
        string_val: "Condo"
        string_val: "Condo"
        string_val: "Condo"
        string_val: "Cooperative"
        string_val: "Condo"
        string_val: "Multi Family"
        string_val: "Condo"
        string_val: "Multiple Occupancy"
        string_val: "Apartment"
        string_val: "Multi Family"
        string_val: "Condo"
        string_val: "Condo"
        string_val: "Condo"
        string_val: "Condo"
        string_val: "Single Family"
        string_val: "Single Family"
        string_val: "Multiple Occupancy"
        string_val: "Condo"
        string_val: "Condo"
        string_val: "Condo"
        string_val: "Multi Family"
        string_val: "Condo"
        string_val: "Condo"
        string_val: "Condo"
        string_val: "Condo"
        string_val: "Multi Family"
        string_val: "Apartment"
        string_val: "Condo"
        string_val: "Single Family"
        string_val: "Single Family"
        string_val: "Condo"
        string_val: "Single Family"
        string_val: "Condo"
        string_val: "Condo"
        string_val: "Single Family"
        string_val: "Single Family"
        string_val: "Condo"
        string_val: "Multi Family"
        string_val: "Multi Family"
        string_val: "Single Family"
        string_val: "Single Family"
        string_val: "Single Family"
        string_val: "Condo"
        string_val: "Condo"
        string_val: "Condo"
        string_val: "Single Family"
        string_val: "Single Family"
        string_val: "Single Family"
        string_val: "Condo"
        string_val: "Condo"
        string_val: "Single Family"
        string_val: "Single Family"
        string_val: "Condo"
        string_val: "Multi Family"
        string_val: "Single Family"
        string_val: "Condo"
        string_val: "Condo"
        string_val: "Single Family"
        string_val: "Condo"
        string_val: "Single Family"
        string_val: "Condo"
        string_val: "Condo"
        string_val: "Condo"
        string_val: "Condo"
        string_val: "Single Family"
        string_val: "Single Family"
        string_val: "Condo"
        string_val: "Multi Family"
        string_val: "Condo"
        string_val: "Single Family"
        string_val: "Condo"
        string_val: "Multi Family"
        string_val: "Multi Family"
        string_val: "Condo"
        string_val: "Single Family"
        string_val: "Condo"
        string_val: "Condo"
        string_val: "Multi Family"
        string_val: "Condo"
        string_val: "Condo"
        string_val: "Condo"
        string_val: "Condo"
        string_val: "Condo"
        string_val: "Condo"
        string_val: "Condo"
        string_val: "Condo"
        string_val: "Single Family"
        string_val: "Single Family"
        string_val: "Condo"
        string_val: "Single Family"
        string_val: "Condo"
        string_val: "Condo"
        string_val: "Condo"
        string_val: "Single Family"
        string_val: "Condo"
        string_val: "Condo"
        string_val: "Condo"
        string_val: "Condo"
        string_val: "Single Family"
        string_val: "Condo"
        string_val: "Condo"
        string_val: "Condo"
        string_val: "Single Family"
        string_val: "Condo"
        string_val: "Condo"
        string_val: "Condo"
        string_val: "Single Family"
        string_val: "Apartment"
        string_val: "Condo"
        string_val: "Multiple Occupancy"
        string_val: "Single Family"
        string_val: "Single Family"
        string_val: "Condo"
        string_val: "Condo"
        string_val: "Condo"
        string_val: "Single Family"
        string_val: "Condo"
        string_val: "Multiple Occupancy"
        string_val: "Condo"
        string_val: "Condo"
        string_val: "Condo"
        string_val: "Condo"
        string_val: "Single Family"
        string_val: "Condo"
        string_val: "Condo"
        string_val: "Condo"
        string_val: "Single Family"
        string_val: "Condo"
        string_val: "Single Family"
        string_val: "Condo"
        string_val: "Condo"
        string_val: "Condo"
        string_val: "Single Family"
        string_val: "Condo"
        string_val: "Multi Family"
        string_val: "Condo"
        string_val: "Single Family"
        string_val: "Condo"
        string_val: "Condo"
        string_val: "Condo"
        string_val: "Single Family"
        string_val: "Multiple Occupancy"
        string_val: "Condo"
        string_val: "Condo"
        string_val: "Condo"
        string_val: "Condo"
        string_val: "Single Family"
        string_val: "Condo"
        string_val: "Condo"
        string_val: "Condo"
        string_val: "Single Family"
        string_val: "Condo"
        string_val: "Multi Family"
        string_val: "Single Family"
        string_val: "Condo"
        string_val: "Condo"
        string_val: "Single Family"
        string_val: "Condo"
        string_val: "Condo"
        string_val: "Condo"
        string_val: "Condo"
        string_val: "Condo"
        string_val: "Condo"
        string_val: "Single Family"
        string_val: "Condo"
        string_val: "Single Family"
        string_val: "Single Family"
        string_val: "Multi Family"
        string_val: "Single Family"
        string_val: "Condo"
        string_val: "Condo"
        string_val: "Single Family"
        string_val: "Condo"
        string_val: "Condo"
        string_val: "Multi Family"
        string_val: "Condo"
        string_val: "Condo"
        string_val: "Condo"
        string_val: "Condo"
        string_val: "Condo"
        string_val: "Condo"
        string_val: "Condo"
        string_val: "Single Family"
        string_val: "Condo"
        string_val: "Condo"
        string_val: "Condo"
        string_val: "Condo"
        string_val: "Multiple Occupancy"
        string_val: "Condo"
        string_val: "Multi Family"
        string_val: "Condo"
        string_val: "Condo"
        string_val: "Apartment"
        string_val: "Single Family"
        string_val: "Multi Family"
        string_val: "Condo"
        string_val: "Condo"
        string_val: "Condo"
        string_val: "Condo"
        string_val: "Single Family"
        string_val: "Condo"
        string_val: "Condo"
        string_val: "Single Family"
        string_val: "Single Family"
        string_val: "Condo"
        string_val: "Condo"
        string_val: "Condo"
        string_val: "Condo"
        string_val: "Condo"
        string_val: "Single Family"
        string_val: "Multi Family"
        string_val: "Condo"
        string_val: "Condo"
        string_val: "Multi Family"
        string_val: "Condo"
        string_val: "Single Family"
        string_val: "Condo"
        string_val: "Condo"
        string_val: "Condo"
        string_val: "Condo"
        string_val: "Multi Family"
        string_val: "Single Family"
        string_val: "Condo"
        string_val: "Multiple Occupancy"
        string_val: "Condo"
        string_val: "Single Family"
        string_val: "Condo"
        string_val: "Condo"
        string_val: "Multi Family"
        string_val: "Single Family"
        string_val: "Condo"
        string_val: "Single Family"
        string_val: "Condo"
        string_val: "Condo"
        string_val: "Single Family"
        string_val: "Condo"
        string_val: "Multi Family"
        string_val: "Condo"
        string_val: "Condo"
        string_val: "Condo"
        string_val: "Condo"
        string_val: "Single Family"
        string_val: "Single Family"
        string_val: "Condo"
        string_val: "Condo"
        string_val: "Condo"
        string_val: "Condo"
        string_val: "Condo"
        string_val: "Condo"
        string_val: "Condo"
        string_val: "Single Family"
        string_val: "Single Family"
        string_val: "Condo"
        string_val: "Condo"
        string_val: "Condo"
        string_val: "Multi Family"
        string_val: "Condo"
        string_val: "Single Family"
        string_val: "Multi Family"
        string_val: "Condo"
        string_val: "Condo"
        string_val: "Single Family"
        string_val: "Condo"
        string_val: "Condo"
        string_val: "Single Family"
        string_val: "Single Family"
        string_val: "Single Family"
        string_val: "Condo"
        string_val: "Multi Family"
        string_val: "Condo"
        string_val: "Single Family"
        string_val: "Condo"
        string_val: "Condo"
        string_val: "Condo"
        string_val: "Condo"
        string_val: "Condo"
        string_val: "Condo"
        string_val: "Multiple Occupancy"
        string_val: "Condo"
        string_val: "Multi Family"
        string_val: "Condo"
        string_val: "Single Family"
        string_val: "Condo"
        string_val: "Miscellaneous"
        string_val: "Single Family"
        string_val: "Condo"
        string_val: "Condo"
        string_val: "Single Family"
        string_val: "Condo"
        string_val: "Single Family"
        string_val: "Single Family"
        string_val: "Multi Family"
        string_val: "Single Family"
        string_val: "Condo"
        string_val: "Single Family"
        string_val: "Condo"
        string_val: "Condo"
        string_val: "Single Family"
        string_val: "Condo"
        string_val: "Single Family"
        string_val: "Condo"
        string_val: "Single Family"
        string_val: "Condo"
        string_val: "Condo"
        string_val: "Condo"
        string_val: "Condo"
        string_val: "Condo"
        string_val: "Condo"
        string_val: "Single Family"
        string_val: "Condo"
        string_val: "Condo"
        string_val: "Condo"
        string_val: "Condo"
        string_val: "Single Family"
        string_val: "Single Family"
        string_val: "Single Family"
        string_val: "Single Family"
        string_val: "Condo"
        string_val: "Condo"
        string_val: "Single Family"
        string_val: "Condo"
        string_val: "Condo"
        string_val: "Multiple Occupancy"
        string_val: "Condo"
        string_val: "Condo"
        string_val: "Condo"
        string_val: "Single Family"
        string_val: "Single Family"
        string_val: "Condo"
        string_val: "Single Family"
        string_val: "Multi Family"
        string_val: "Condo"
        string_val: "Condo"
        string_val: "Apartment"
        string_val: "Single Family"
        string_val: "Condo"
        string_val: "Condo"
        string_val: "Single Family"
        string_val: "Single Family"
        string_val: "Single Family"
        string_val: "Condo"
        string_val: "Condo"
        string_val: "Condo"
        string_val: "Condo"
        string_val: "Condo"
        string_val: "Condo"
        string_val: "Condo"
        string_val: "Single Family"
        string_val: "Single Family"
        string_val: "Condo"
        string_val: "Multi Family"
        string_val: "Multiple Occupancy"
        string_val: "Single Family"
        string_val: "Single Family"
        string_val: "Condo"
        string_val: "Condo"
        string_val: "Condo"
        string_val: "Single Family"
        string_val: "Single Family"
        string_val: "Single Family"
        string_val: "Single Family"
        string_val: "Multi Family"
        string_val: "Single Family"
        string_val: "Condo"
        string_val: "Condo"
        string_val: "Condo"
        string_val: "Condo"
        string_val: "Condo"
        string_val: "Condo"
        string_val: "Condo"
        string_val: "Condo"
        string_val: "Condo"
        string_val: "Condo"
        string_val: "Condo"
        string_val: "Condo"
        string_val: "Condo"
        string_val: "Condo"
        string_val: "Single Family"
        string_val: "Condo"
        string_val: "Single Family"
        string_val: "Condo"
        string_val: "Condo"
        string_val: "Condo"
        string_val: "Condo"
        string_val: "Multiple Occupancy"
        string_val: "Multi Family"
        string_val: "Single Family"
        string_val: "Single Family"
        string_val: "Condo"
        string_val: "Single Family"
        string_val: "Single Family"
        string_val: "Single Family"
        string_val: "Condo"
        string_val: "Condo"
        string_val: "Condo"
        string_val: "Condo"
        string_val: "Condo"
        string_val: "Condo"
        string_val: "Condo"
        string_val: "Single Family"
        string_val: "Condo"
        string_val: "Multi Family"
        string_val: "Condo"
        string_val: "Condo"
        string_val: "Condo"
        string_val: "Condo"
        string_val: "Condo"
        string_val: "Condo"
        string_val: "Condo"
        string_val: "Condo"
        string_val: "Single Family"
        string_val: "Condo"
        string_val: "Single Family"
        string_val: "Single Family"
        string_val: "Condo"
        string_val: "Condo"
        string_val: "Condo"
        string_val: "Condo"
        string_val: "Multi Family"
        string_val: "Condo"
        string_val: "Condo"
        string_val: "Condo"
        string_val: "Condo"
        string_val: "Condo"
        string_val: "Condo"
        string_val: "Condo"
        string_val: "Condo"
        string_val: "Single Family"
        string_val: "Multiple Occupancy"
        string_val: "Condo"
        string_val: "Single Family"
        string_val: "Condo"
        string_val: "Condo"
        string_val: "Condo"
        string_val: "Condo"
        string_val: "Condo"
        string_val: "Condo"
        string_val: "Condo"
        string_val: "Condo"
        string_val: "Condo"
        string_val: "Single Family"
        string_val: "Condo"
        string_val: "Condo"
        string_val: "Condo"
        string_val: "Condo"
        string_val: "Condo"
        string_val: "Condo"
        string_val: "Multi Family"
        string_val: "Condo"
        string_val: "Condo"
        string_val: "Condo"
        string_val: "Condo"
        string_val: "Condo"
        string_val: "Single Family"
        string_val: "Condo"
        string_val: "Single Family"
        string_val: "Condo"
        string_val: "Multi Family"
        string_val: "Condo"
        string_val: "Condo"
        string_val: "Single Family"
        string_val: "Condo"
        string_val: "Condo"
        string_val: "Single Family"
        string_val: "Condo"
        string_val: "Condo"
        string_val: "Single Family"
        string_val: "Condo"
        string_val: "Single Family"
        string_val: "Condo"
        string_val: "Condo"
        string_val: "Condo"
        string_val: "Condo"
        string_val: "Single Family"
        string_val: "Single Family"
        string_val: "Condo"
        string_val: "Condo"
        string_val: "Single Family"
        string_val: "Condo"
        string_val: "Condo"
        string_val: "Condo"
        string_val: "Condo"
        string_val: "Condo"
        string_val: "Single Family"
        string_val: "Single Family"
        string_val: "Condo"
        string_val: "Condo"
        string_val: "Condo"
        string_val: "Single Family"
        string_val: "Single Family"
        string_val: "Condo"
        string_val: "Condo"
        string_val: "Condo"
        string_val: "Condo"
        string_val: "Condo"
        string_val: "Condo"
        string_val: "Single Family"
        string_val: "Multi Family"
        string_val: "Single Family"
        string_val: "Single Family"
        string_val: "Single Family"
        string_val: "Multiple Occupancy"
        string_val: "Condo"
        string_val: "Condo"
        string_val: "Single Family"
        string_val: "Condo"
        string_val: "Condo"
        string_val: "Condo"
        string_val: "Condo"
        string_val: "Condo"
        string_val: "Single Family"
        string_val: "Condo"
        string_val: "Condo"
        string_val: "Single Family"
        string_val: "Condo"
        string_val: "Single Family"
        string_val: "Condo"
        string_val: "Single Family"
        string_val: "Single Family"
        string_val: "Single Family"
        string_val: "Multi Family"
        string_val: "Condo"
        string_val: "Single Family"
        string_val: "Condo"
        string_val: "Condo"
        string_val: "Single Family"
        string_val: "Condo"
        string_val: "Condo"
        string_val: "Condo"
        string_val: "Condo"
        string_val: "Condo"
        string_val: "Multi Family"
        string_val: "Condo"
        string_val: "Single Family"
        string_val: "Single Family"
        string_val: "Single Family"
        string_val: "Condo"
        string_val: "Condo"
        string_val: "Condo"
        string_val: "Condo"
        string_val: "Single Family"
        string_val: "Multiple Occupancy"
        string_val: "Condo"
        string_val: "Condo"
        string_val: "Condo"
        string_val: "Condo"
        string_val: "Single Family"
        string_val: "Condo"
        string_val: "Condo"
        string_val: "Single Family"
        string_val: "Condo"
        string_val: "Multi Family"
        string_val: "Single Family"
        string_val: "Condo"
        string_val: "Condo"
        string_val: "Condo"
        string_val: "Condo"
        string_val: "Condo"
        string_val: "Condo"
        string_val: "Multi Family"
        string_val: "Single Family"
        string_val: "Single Family"
        string_val: "Condo"
        string_val: "Condo"
        string_val: "Condo"
        string_val: "Condo"
        string_val: "Single Family"
        string_val: "Single Family"
        string_val: "Condo"
        string_val: "Condo"
        string_val: "Single Family"
        string_val: "Condo"
        string_val: "Condo"
        string_val: "Single Family"
        string_val: "Condo"
        string_val: "Condo"
        string_val: "Condo"
        string_val: "Condo"
        string_val: "Condo"
        string_val: "Single Family"
        string_val: "Apartment"
        string_val: "Condo"
        string_val: "Condo"
        string_val: "Single Family"
        string_val: "Single Family"
        string_val: "Condo"
        string_val: "Single Family"
        string_val: "Condo"
        string_val: "Condo"
        string_val: "Condo"
        string_val: "Condo"
        string_val: "Single Family"
        string_val: "Condo"
        string_val: "Multi Family"
        string_val: "Multi Family"
        string_val: "Single Family"
        string_val: "Condo"
        string_val: "Condo"
        string_val: "Condo"
        string_val: "Condo"
        string_val: "Condo"
        string_val: "Condo"
        string_val: "Condo"
        string_val: "Single Family"
        string_val: "Condo"
        string_val: "Single Family"
        string_val: "Condo"
        string_val: "Condo"
        string_val: "Multiple Occupancy"
        string_val: "Condo"
        string_val: "Condo"
        string_val: "Condo"
        string_val: "Condo"
        string_val: "Condo"
        string_val: "Multi Family"
        string_val: "Condo"
        string_val: "Condo"
        string_val: "Condo"
        string_val: "Condo"
        string_val: "Single Family"
        string_val: "Condo"
        string_val: "Condo"
        string_val: "Multi Family"
        string_val: "Multi Family"
        string_val: "Single Family"
        string_val: "Condo"
        string_val: "Condo"
        string_val: "Condo"
        string_val: "Condo"
        string_val: "Multi Family"
        string_val: "Single Family"
        string_val: "Multiple Occupancy"
        string_val: "Condo"
        string_val: "Single Family"
        string_val: "Condo"
        string_val: "Single Family"
        string_val: "Condo"
        string_val: "Single Family"
        string_val: "Single Family"
        string_val: "Multi Family"
        string_val: "Single Family"
        string_val: "Single Family"
        string_val: "Condo"
        string_val: "Condo"
        string_val: "Single Family"
        string_val: "Condo"
        string_val: "Condo"
        string_val: "Condo"
        string_val: "Condo"
        string_val: "Condo"
        string_val: "Single Family"
        string_val: "Condo"
        string_val: "Condo"
        string_val: "Single Family"
        string_val: "Condo"
        string_val: "Single Family"
        string_val: "Condo"
        string_val: "Condo"
        string_val: "Condo"
        string_val: "Condo"
        string_val: "Condo"
        string_val: "Single Family"
        string_val: "Single Family"
        string_val: "Condo"
        string_val: "Condo"
        string_val: "Condo"
        string_val: "Apartment"
        string_val: "Single Family"
        string_val: "Condo"
        string_val: "Condo"
        string_val: "Single Family"
        string_val: "Condo"
        string_val: "Single Family"
        string_val: "Condo"
        string_val: "Condo"
        string_val: "Single Family"
        string_val: "Condo"
        string_val: "Condo"
        string_val: "Multiple Occupancy"
        string_val: "Single Family"
        string_val: "Condo"
        string_val: "Condo"
        string_val: "Condo"
        string_val: "Multi Family"
        string_val: "Condo"
        string_val: "Condo"
        string_val: "Condo"
        string_val: "Multi Family"
        string_val: "Single Family"
        string_val: "Condo"
        string_val: "Condo"
        string_val: "Single Family"
        string_val: "Condo"
        string_val: "Single Family"
        string_val: "Condo"
        string_val: "Condo"
        string_val: "Single Family"
        string_val: "Single Family"
        string_val: "Mobile / Manufactured"
        string_val: "Condo"
        string_val: "Multi Family"
        string_val: "Condo"
        string_val: "Multi Family"
        string_val: "Condo"
        string_val: "Single Family"
        string_val: "Single Family"
        string_val: "Single Family"
        string_val: "Condo"
        string_val: "Single Family"
        string_val: "Multi Family"
        string_val: "Condo"
        string_val: "Single Family"
        string_val: "Single Family"
        string_val: "Condo"
        string_val: "Condo"
        string_val: "Condo"
        string_val: "Condo"
        string_val: "Multi Family"
        string_val: "Single Family"
        string_val: "Condo"
        string_val: "Condo"
        string_val: "Condo"
        string_val: "Condo"
        string_val: "Condo"
        string_val: "Single Family"
        string_val: "Condo"
        string_val: "Multiple Occupancy"
        string_val: "Single Family"
        string_val: "Single Family"
        string_val: "Condo"
        string_val: "Condo"
        string_val: "Condo"
        string_val: "Multi Family"
        string_val: "Single Family"
        string_val: "Multi Family"
        string_val: "Condo"
        string_val: "Condo"
        string_val: "Condo"
        string_val: "Single Family"
        string_val: "Condo"
        string_val: "Condo"
        string_val: "Multi Family"
        string_val: "Single Family"
        string_val: "Condo"
        string_val: "Condo"
        string_val: "Condo"
        string_val: "Single Family"
        string_val: "Single Family"
        string_val: "Condo"
        string_val: "Single Family"
        string_val: "Single Family"
        string_val: "Apartment"
        string_val: "Single Family"
        string_val: "Single Family"
        string_val: "Condo"
        string_val: "Multi Family"
        string_val: "Condo"
        string_val: "Condo"
        string_val: "Condo"
        string_val: "Condo"
        string_val: "Single Family"
        string_val: "Single Family"
        string_val: "Condo"
        string_val: "Single Family"
        string_val: "Condo"
        string_val: "Single Family"
        string_val: "Condo"
        string_val: "Single Family"
        string_val: "Multi Family"
        string_val: "Condo"
        string_val: "Single Family"
        string_val: "Condo"
        string_val: "Condo"
        string_val: "Condo"
        string_val: "Multiple Occupancy"
        string_val: "Condo"
        string_val: "Multiple Occupancy"
        string_val: "Condo"
        string_val: "Condo"
        string_val: "Condo"
        string_val: "Single Family"
        string_val: "Condo"
        string_val: "Single Family"
        string_val: "Condo"
        string_val: "Multi Family"
        string_val: "Single Family"
        string_val: "Other"
        string_val: "Single Family"
        string_val: "Single Family"
        string_val: "Condo"
        string_val: "Multiple Occupancy"
        string_val: "Single Family"
        string_val: "Multi Family"
        string_val: "Single Family"
        string_val: "Condo"
        string_val: "Single Family"
        string_val: "Condo"
        string_val: "Condo"
        string_val: "Single Family"
        string_val: "Single Family"
        string_val: "Single Family"
        string_val: "Condo"
        string_val: "Condo"
        string_val: "Single Family"
        string_val: "Single Family"
        string_val: "Condo"
        string_val: "Single Family"
        string_val: "Condo"
        string_val: "Multi Family"
        string_val: "Apartment"
        string_val: "Condo"
        string_val: "Condo"
        string_val: "Single Family"
        string_val: "Single Family"
        string_val: "Condo"
        string_val: "Condo"
        string_val: "Single Family"
        string_val: "Condo"
        string_val: "Condo"
        string_val: "Condo"
        string_val: "Multiple Occupancy"
        string_val: "Multi Family"
        string_val: "Single Family"
        string_val: "Single Family"
        string_val: "Condo"
        string_val: "Single Family"
        string_val: "Single Family"
        string_val: "Single Family"
        string_val: "Condo"
        string_val: "Condo"
        string_val: "Condo"
        string_val: "Condo"
        string_val: "Single Family"
        string_val: "Single Family"
        string_val: "Condo"
        string_val: "Condo"
        string_val: "Single Family"
        string_val: "Condo"
        string_val: "Single Family"
        string_val: "Multiple Occupancy"
        string_val: "Condo"
        string_val: "Multiple Occupancy"
        string_val: "Single Family"
        string_val: "Condo"
        string_val: "Condo"
        string_val: "Condo"
        string_val: "Condo"
        string_val: "Condo"
        string_val: "Condo"
        string_val: "Single Family"
        string_val: "Condo"
        string_val: "Condo"
        string_val: "Condo"
        string_val: "Single Family"
        string_val: "Multi Family"
        string_val: "Condo"
        string_val: "Single Family"
        string_val: "Condo"
        string_val: "Single Family"
        string_val: "Multi Family"
        string_val: "Condo"
        string_val: "Single Family"
        string_val: "Condo"
        string_val: "Single Family"
        string_val: "Condo"
        string_val: "Multiple Occupancy"
        string_val: "Single Family"
        string_val: "Condo"
        string_val: "Condo"
        string_val: "Condo"
        string_val: "Single Family"
        string_val: "Condo"
        string_val: "Single Family"
        string_val: "Multiple Occupancy"
        string_val: "Single Family"
        string_val: "Multi Family"
        string_val: "Condo"
        string_val: "Condo"
        string_val: "Single Family"
        string_val: "Single Family"
        string_val: "Single Family"
        string_val: "Single Family"
        string_val: "Single Family"
        string_val: "Condo"
        string_val: "Condo"
        string_val: "Single Family"
        string_val: "Condo"
        string_val: "Condo"
        string_val: "Single Family"
        string_val: "Condo"
        string_val: "Condo"
        string_val: "Single Family"
        string_val: "Condo"
        string_val: "Condo"
        string_val: "Condo"
        string_val: "Condo"
        string_val: "Multi Family"
        string_val: "Condo"
        string_val: "Single Family"
        string_val: "Single Family"
        string_val: "Townhouse"
        string_val: "Condo"
        string_val: "Single Family"
        string_val: "Condo"
        string_val: "Condo"
        string_val: "Condo"
        string_val: "Condo"
        string_val: "Condo"
        string_val: "Condo"
        string_val: "Condo"
        string_val: "Condo"
        string_val: "Multi Family"
        string_val: "Condo"
        string_val: "Condo"
        string_val: "Condo"
        string_val: "Condo"
        string_val: "Condo"
        string_val: "Condo"
        string_val: "Condo"
        string_val: "Multi Family"
        string_val: "Condo"
        string_val: "Single Family"
        string_val: "Condo"
        string_val: "Condo"
        string_val: "Condo"
        string_val: "Condo"
        string_val: "Single Family"
        string_val: "Single Family"
        string_val: "Condo"
        string_val: "Multi Family"
        string_val: "Condo"
        string_val: "Condo"
        string_val: "Condo"
        string_val: "Multi Family"
        string_val: "Condo"
        string_val: "Condo"
        string_val: "Condo"
        string_val: "Single Family"
        string_val: "Condo"
        string_val: "Multi Family"
        string_val: "Multi Family"
        string_val: "Single Family"
        string_val: "Condo"
        string_val: "Single Family"
        string_val: "Condo"
        string_val: "Condo"
        string_val: "Condo"
        string_val: "Condo"
        string_val: "Single Family"
        string_val: "Single Family"
        string_val: "Condo"
        string_val: "Condo"
        string_val: "Condo"
        string_val: "Single Family"
        string_val: "Condo"
        string_val: "Condo"
        string_val: "Condo"
        string_val: "Condo"
        string_val: "Multiple Occupancy"
        string_val: "Multiple Occupancy"
        string_val: "Multiple Occupancy"
        string_val: "Single Family"
        string_val: "Condo"
        string_val: "Multi Family"
        string_val: "Condo"
        string_val: "Condo"
        string_val: "Condo"
        string_val: "Single Family"
        string_val: "Single Family"
        string_val: "Condo"
        string_val: "Condo"
        string_val: "Condo"
        string_val: "Condo"
        string_val: "Multiple Occupancy"
        string_val: "Condo"
        string_val: "Condo"
        string_val: "Single Family"
        string_val: "Condo"
        string_val: "Condo"
        string_val: "Single Family"
        string_val: "Condo"
        string_val: "Multi Family"
        string_val: "Condo"
        string_val: "Single Family"
        string_val: "Townhouse"
        string_val: "Condo"
        string_val: "Condo"
        string_val: "Single Family"
        string_val: "Condo"
        string_val: "Condo"
        string_val: "Single Family"
        string_val: "Multi Family"
        string_val: "Single Family"
        string_val: "Condo"
        string_val: "Condo"
        string_val: "Condo"
        string_val: "Condo"
        string_val: "Single Family"
        string_val: "Condo"
        string_val: "Single Family"
        string_val: "Condo"
        string_val: "Single Family"
        string_val: "Condo"
        string_val: "Single Family"
        string_val: "Single Family"
        string_val: "Multiple Occupancy"
        string_val: "Single Family"
        string_val: "Single Family"
        string_val: "Condo"
        string_val: "Condo"
        string_val: "Single Family"
        string_val: "Single Family"
        string_val: "Condo"
        string_val: "Condo"
        string_val: "Condo"
        string_val: "Condo"
        string_val: "Condo"
        string_val: "Condo"
        string_val: "Single Family"
        string_val: "Single Family"
        string_val: "Single Family"
        string_val: "Condo"
        string_val: "Single Family"
        string_val: "Multi Family"
        string_val: "Multi Family"
        string_val: "Condo"
        string_val: "Single Family"
        string_val: "Condo"
        string_val: "Condo"
        string_val: "Multi Family"
        string_val: "Townhouse"
        string_val: "Condo"
        string_val: "Condo"
        string_val: "Multiple Occupancy"
        string_val: "Multiple Occupancy"
        string_val: "Condo"
        string_val: "Single Family"
        string_val: "Multi Family"
        string_val: "Single Family"
        string_val: "Condo"
        string_val: "Single Family"
        string_val: "Single Family"
        string_val: "Condo"
        string_val: "Condo"
        string_val: "Condo"
        string_val: "Condo"
        string_val: "Condo"
        string_val: "Apartment"
        string_val: "Condo"
        string_val: "Condo"
        string_val: "Condo"
        string_val: "Condo"
        string_val: "Multi Family"
        string_val: "Condo"
        string_val: "Condo"
        string_val: "Single Family"
        string_val: "Single Family"
        string_val: "Condo"
        string_val: "Condo"
        string_val: "Condo"
        string_val: "Single Family"
        string_val: "Condo"
        string_val: "Condo"
        string_val: "Condo"
        string_val: "Single Family"
        string_val: "Condo"
        string_val: "Condo"
        string_val: "Single Family"
        string_val: "Condo"
        string_val: "Condo"
        string_val: "Single Family"
        string_val: "Condo"
        string_val: "Single Family"
        string_val: "Single Family"
        string_val: "Condo"
        string_val: "Condo"
        string_val: "Multi Family"
        string_val: "Condo"
        string_val: "Condo"
        string_val: "Multiple Occupancy"
        string_val: "Multi Family"
        string_val: "Condo"
        string_val: "Condo"
        string_val: "Condo"
        string_val: "Condo"
        string_val: "Condo"
        string_val: "Multiple Occupancy"
        string_val: "Single Family"
        string_val: "Single Family"
        string_val: "Condo"
        string_val: "Condo"
        string_val: "Condo"
        string_val: "Condo"
        string_val: "Single Family"
        string_val: "Multi Family"
        string_val: "Single Family"
        string_val: "Condo"
        string_val: "Apartment"
        string_val: "Single Family"
        string_val: "Single Family"
        string_val: "Single Family"
        string_val: "Condo"
        string_val: "Condo"
        string_val: "Condo"
        string_val: "Single Family"
        string_val: "Condo"
        string_val: "Condo"
        string_val: "Condo"
        string_val: "Condo"
        string_val: "Condo"
        string_val: "Condo"
        string_val: "Single Family"
        string_val: "Single Family"
        string_val: "Multiple Occupancy"
        string_val: "Single Family"
        string_val: "Single Family"
        string_val: "Condo"
        string_val: "Condo"
        string_val: "Condo"
        string_val: "Condo"
        string_val: "Multi Family"
        string_val: "Single Family"
        string_val: "Single Family"
        string_val: "Condo"
        string_val: "Condo"
        string_val: "Single Family"
        string_val: "Condo"
        string_val: "Single Family"
        string_val: "Condo"
        string_val: "Condo"
        string_val: "Condo"
        string_val: "Condo"
        string_val: "Single Family"
        string_val: "Condo"
        string_val: "Condo"
        string_val: "Single Family"
        string_val: "Condo"
        string_val: "Single Family"
        string_val: "Condo"
        string_val: "Condo"
        string_val: "Condo"
        string_val: "Condo"
        string_val: "Condo"
        string_val: "Condo"
        string_val: "Condo"
        string_val: "Condo"
        string_val: "Multi Family"
        string_val: "Condo"
        string_val: "Single Family"
        string_val: "Single Family"
        string_val: "Condo"
        string_val: "Condo"
        string_val: "Condo"
        string_val: "Condo"
        string_val: "Single Family"
        string_val: "Condo"
        string_val: "Condo"
        string_val: "Condo"
        string_val: "Multi Family"
        string_val: "Single Family"
        string_val: "Condo"
        string_val: "Single Family"
        string_val: "Condo"
        string_val: "Condo"
        string_val: "Condo"
        string_val: "Multi Family"
        string_val: "Condo"
        string_val: "Single Family"
        string_val: "Condo"
        string_val: "Condo"
        string_val: "Condo"
        string_val: "Single Family"
        string_val: "Condo"
        string_val: "Condo"
        string_val: "Condo"
        string_val: "Single Family"
        string_val: "Condo"
        string_val: "Condo"
        string_val: "Condo"
        string_val: "Condo"
        string_val: "Condo"
        string_val: "Condo"
        string_val: "Condo"
        string_val: "Single Family"
        string_val: "Single Family"
        string_val: "Condo"
        string_val: "Single Family"
        string_val: "Condo"
        string_val: "Multiple Occupancy"
        string_val: "Condo"
        string_val: "Condo"
        string_val: "Multi Family"
        string_val: "Condo"
        string_val: "Single Family"
        string_val: "Single Family"
        string_val: "Condo"
        string_val: "Single Family"
        string_val: "Condo"
        string_val: "Condo"
        string_val: "Condo"
        string_val: "Condo"
        string_val: "Condo"
        string_val: "Multi Family"
        string_val: "Condo"
        string_val: "Condo"
        string_val: "Condo"
        string_val: "Single Family"
        string_val: "Condo"
        string_val: "Single Family"
        string_val: "Condo"
        string_val: "Condo"
        string_val: "Condo"
        string_val: "Condo"
        string_val: "Multi Family"
        string_val: "Single Family"
        string_val: "Condo"
        string_val: "Condo"
        string_val: "Condo"
        string_val: "Condo"
        string_val: "Single Family"
        string_val: "Condo"
        string_val: "Multi Family"
        string_val: "Single Family"
        string_val: "Single Family"
        string_val: "Condo"
        string_val: "Condo"
        string_val: "Condo"
        string_val: "Condo"
        string_val: "Townhouse"
        string_val: "Condo"
        string_val: "Condo"
        string_val: "Condo"
        string_val: "Single Family"
        string_val: "Condo"
        string_val: "Single Family"
        string_val: "Condo"
        string_val: "Condo"
        string_val: "Condo"
        string_val: "Multiple Occupancy"
        string_val: "Condo"
        string_val: "Condo"
        string_val: "Condo"
        string_val: "Condo"
        string_val: "Condo"
        string_val: "Condo"
        string_val: "Condo"
        string_val: "Multi Family"
        string_val: "Condo"
        string_val: "Apartment"
        string_val: "Condo"
        string_val: "Condo"
        string_val: "Condo"
        string_val: "Single Family"
        string_val: "Condo"
        string_val: "Single Family"
        string_val: "Condo"
        string_val: "Condo"
        string_val: "Condo"
        string_val: "Single Family"
        string_val: "Condo"
        string_val: "Single Family"
        string_val: "Single Family"
        string_val: "Condo"
        string_val: "Condo"
        string_val: "Condo"
        string_val: "Condo"
        string_val: "Condo"
        string_val: "Condo"
        string_val: "Multi Family"
        string_val: "Condo"
        string_val: "Condo"
        string_val: "Multi Family"
        string_val: "Multi Family"
        string_val: "Multi Family"
        string_val: "Multi Family"
        string_val: "Multiple Occupancy"
        string_val: "Single Family"
        string_val: "Condo"
        string_val: "Multi Family"
        string_val: "Condo"
        string_val: "Condo"
        string_val: "Multi Family"
        string_val: "Condo"
        string_val: "Multiple Occupancy"
        string_val: "Multi Family"
        string_val: "Single Family"
        string_val: "Single Family"
        string_val: "Condo"
        string_val: "Condo"
        string_val: "Single Family"
        string_val: "Condo"
        string_val: "Single Family"
        string_val: "Condo"
        string_val: "Single Family"
        string_val: "Condo"
        string_val: "Condo"
        string_val: "Condo"
        string_val: "Condo"
        string_val: "Single Family"
        string_val: "Multiple Occupancy"
        string_val: "Condo"
        string_val: "Single Family"
        string_val: "Multiple Occupancy"
        string_val: "Single Family"
        string_val: "Single Family"
        string_val: "Single Family"
        string_val: "Condo"
        string_val: "Condo"
        string_val: "Single Family"
        string_val: "Single Family"
        string_val: "Condo"
        string_val: "Condo"
        string_val: "Multi Family"
        string_val: "Condo"
        string_val: "Condo"
        string_val: "Single Family"
        string_val: "Condo"
        string_val: "Condo"
        string_val: "Condo"
        string_val: "Single Family"
        string_val: "Condo"
        string_val: "Condo"
        string_val: "Multi Family"
        string_val: "Condo"
        string_val: "Condo"
        string_val: "Single Family"
        string_val: "Condo"
        string_val: "Single Family"
        string_val: "Single Family"
        string_val: "Condo"
        string_val: "Condo"
        string_val: "Single Family"
        string_val: "Condo"
        string_val: "Single Family"
        string_val: "Condo"
        string_val: "Condo"
        string_val: "Condo"
        string_val: "Condo"
        string_val: "Single Family"
        string_val: "Single Family"
        string_val: "Condo"
        string_val: "Condo"
        string_val: "Apartment"
        string_val: "Condo"
        string_val: "Condo"
        string_val: "Condo"
        string_val: "Condo"
        string_val: "Single Family"
        string_val: "Condo"
        string_val: "Condo"
        string_val: "Condo"
        string_val: "Condo"
        string_val: "Single Family"
        string_val: "Condo"
        string_val: "Condo"
        string_val: "Condo"
        string_val: "Condo"
        string_val: "Single Family"
        string_val: "Condo"
        string_val: "Condo"
        string_val: "Condo"
        string_val: "Single Family"
        string_val: "Condo"
        string_val: "Single Family"
        string_val: "Condo"
        string_val: "Condo"
        string_val: "Single Family"
        string_val: "Condo"
        string_val: "Condo"
        string_val: "Condo"
        string_val: "Condo"
        string_val: "Single Family"
        string_val: "Condo"
        string_val: "Single Family"
        string_val: "Single Family"
        string_val: "Multiple Occupancy"
        string_val: "Single Family"
        string_val: "Condo"
        string_val: "Condo"
        string_val: "Condo"
        string_val: "Condo"
        string_val: "Single Family"
        string_val: "Condo"
        string_val: "Multiple Occupancy"
        string_val: "Condo"
        string_val: "Condo"
        string_val: "Single Family"
        string_val: "Apartment"
        string_val: "Condo"
        string_val: "Miscellaneous"
        string_val: "Condo"
        string_val: "Condo"
        string_val: "Condo"
        string_val: "Condo"
        string_val: "Single Family"
        string_val: "Multi Family"
        string_val: "Single Family"
        string_val: "Condo"
        string_val: "Single Family"
        string_val: "Condo"
        string_val: "Condo"
        string_val: "Condo"
        string_val: "Condo"
        string_val: "Single Family"
        string_val: "Single Family"
        string_val: "Single Family"
        string_val: "Multi Family"
        string_val: "Single Family"
        string_val: "Condo"
        string_val: "Condo"
        string_val: "Single Family"
        string_val: "Multi Family"
        string_val: "Single Family"
        string_val: "Single Family"
        string_val: "Condo"
        string_val: "Single Family"
        string_val: "Condo"
        string_val: "Condo"
        string_val: "Single Family"
        string_val: "Single Family"
        string_val: "Single Family"
        string_val: "Single Family"
        string_val: "Condo"
        string_val: "Condo"
        string_val: "Condo"
        string_val: "Condo"
        string_val: "Condo"
        string_val: "Condo"
        string_val: "Multi Family"
        string_val: "Condo"
        string_val: "Multi Family"
        string_val: "Condo"
        string_val: "Single Family"
        string_val: "Condo"
        string_val: "Single Family"
        string_val: "Condo"
        string_val: "Multiple Occupancy"
        string_val: "Condo"
        string_val: "Single Family"
        string_val: "Single Family"
        string_val: "Single Family"
        string_val: "Condo"
        string_val: "Single Family"
        string_val: "Condo"
        string_val: "Condo"
        string_val: "Single Family"
        string_val: "Condo"
        string_val: "Single Family"
        string_val: "Condo"
        string_val: "Condo"
        string_val: "Condo"
        string_val: "Condo"
        string_val: "Condo"
        string_val: "Condo"
        string_val: "Condo"
        string_val: "Condo"
        string_val: "Condo"
        string_val: "Single Family"
        string_val: "Condo"
        string_val: "Condo"
        string_val: "Single Family"
        string_val: "Single Family"
        string_val: "Single Family"
        string_val: "Condo"
        string_val: "Single Family"
        string_val: "Condo"
        string_val: "Single Family"
        string_val: "Single Family"
        string_val: "Multi Family"
        string_val: "Condo"
        string_val: "Single Family"
        string_val: "Condo"
        string_val: "Single Family"
        string_val: "Condo"
        string_val: "Condo"
        string_val: "Single Family"
        string_val: "Condo"
        string_val: "Single Family"
        string_val: "Single Family"
        string_val: "Townhouse"
        string_val: "Condo"
        string_val: "Single Family"
        string_val: "Condo"
        string_val: "Single Family"
        string_val: "Condo"
        string_val: "Condo"
        string_val: "Single Family"
        string_val: "Single Family"
        string_val: "Condo"
        string_val: "Multi Family"
        string_val: "Condo"
        string_val: "Apartment"
        string_val: "Multi Family"
        string_val: "Condo"
        string_val: "Multiple Occupancy"
        string_val: "Single Family"
        string_val: "Single Family"
        string_val: "Single Family"
        string_val: "Single Family"
        string_val: "Condo"
        string_val: "Multiple Occupancy"
        string_val: "Condo"
        string_val: "Condo"
        string_val: "Single Family"
        string_val: "Condo"
        string_val: "Condo"
        string_val: "Condo"
        string_val: "Condo"
        string_val: "Condo"
        string_val: "Condo"
        string_val: "Single Family"
        string_val: "Condo"
        string_val: "Condo"
        string_val: "Condo"
        string_val: "Single Family"
        string_val: "Multi Family"
        string_val: "Condo"
        string_val: "Condo"
        string_val: "Condo"
        string_val: "Single Family"
        string_val: "Single Family"
        string_val: "Condo"
        string_val: "Condo"
        string_val: "Single Family"
        string_val: "Multi Family"
        string_val: "Condo"
        string_val: "Single Family"
        string_val: "Single Family"
        string_val: "Multiple Occupancy"
        string_val: "Condo"
        string_val: "Multi Family"
        string_val: "Single Family"
        string_val: "Single Family"
        string_val: "Multi Family"
        string_val: "Condo"
        string_val: "Single Family"
        string_val: "Condo"
        string_val: "Single Family"
        string_val: "Condo"
        string_val: "Townhouse"
        string_val: "Condo"
        string_val: "Condo"
        string_val: "Condo"
        string_val: "Single Family"
        string_val: "Condo"
        string_val: "Condo"
        string_val: "Condo"
        string_val: "Condo"
        string_val: "Condo"
        string_val: "Condo"
        string_val: "Single Family"
        string_val: "Single Family"
        string_val: "Multi Family"
        string_val: "Condo"
        string_val: "Condo"
        string_val: "Condo"
        string_val: "Condo"
        string_val: "Single Family"
        string_val: "Condo"
        string_val: "Condo"
        string_val: "Condo"
        string_val: "Multi Family"
        string_val: "Single Family"
        string_val: "Condo"
        string_val: "Condo"
        string_val: "Condo"
        string_val: "Condo"
        string_val: "Condo"
        string_val: "Condo"
        string_val: "Condo"
        string_val: "Condo"
        string_val: "Single Family"
        string_val: "Condo"
        string_val: "Condo"
        string_val: "Multi Family"
        string_val: "Condo"
        string_val: "Condo"
        string_val: "Single Family"
        string_val: "Condo"
        string_val: "Single Family"
        string_val: "Single Family"
        string_val: "Single Family"
        string_val: "Condo"
        string_val: "Condo"
        string_val: "Single Family"
        string_val: "Single Family"
        string_val: "Condo"
        string_val: "Condo"
        string_val: "Condo"
        string_val: "Condo"
        string_val: "Multiple Occupancy"
        string_val: "Single Family"
        string_val: "Single Family"
        string_val: "Condo"
        string_val: "Condo"
        string_val: "Condo"
        string_val: "Single Family"
        string_val: "Multiple Occupancy"
        string_val: "Condo"
        string_val: "Condo"
        string_val: "Condo"
        string_val: "Condo"
        string_val: "Condo"
        string_val: "Multi Family"
        string_val: "Single Family"
        string_val: "Townhouse"
        string_val: "Condo"
        string_val: "Condo"
        string_val: "Condo"
        string_val: "Condo"
        string_val: "Single Family"
        string_val: "Single Family"
        string_val: "Multi Family"
        string_val: "Condo"
        string_val: "Condo"
        string_val: "Condo"
        string_val: "Condo"
        string_val: "Single Family"
        string_val: "Condo"
        string_val: "Single Family"
        string_val: "Condo"
        string_val: "Condo"
        string_val: "Multi Family"
        string_val: "Single Family"
        string_val: "Multi Family"
        string_val: "Single Family"
        string_val: "Condo"
        string_val: "Single Family"
        string_val: "Condo"
        string_val: "Condo"
        string_val: "Condo"
        string_val: "Single Family"
        string_val: "Single Family"
        string_val: "Single Family"
        string_val: "Single Family"
        string_val: "Single Family"
        string_val: "Single Family"
        string_val: "Condo"
        string_val: "Condo"
        string_val: "Single Family"
        string_val: "Condo"
        string_val: "Single Family"
        string_val: "Condo"
        string_val: "Single Family"
        string_val: "Condo"
        string_val: "Condo"
        string_val: "Condo"
        string_val: "Condo"
        string_val: "Condo"
        string_val: "Condo"
        string_val: "Single Family"
        string_val: "Condo"
        string_val: "Condo"
        string_val: "Single Family"
        string_val: "Condo"
        string_val: "Condo"
        string_val: "Apartment"
        string_val: "Condo"
        string_val: "Condo"
        string_val: "Single Family"
        string_val: "Condo"
        string_val: "Multi Family"
        string_val: "Condo"
        string_val: "Single Family"
        string_val: "Single Family"
        string_val: "Condo"
        string_val: "Condo"
        string_val: "Single Family"
        string_val: "Condo"
        string_val: "Single Family"
        string_val: "Condo"
        string_val: "Single Family"
        string_val: "Single Family"
        string_val: "Condo"
        string_val: "Single Family"
        string_val: "Single Family"
        string_val: "Condo"
        string_val: "Condo"
        string_val: "Condo"
        string_val: "Condo"
        string_val: "Condo"
        string_val: "Condo"
        string_val: "Single Family"
        string_val: "Condo"
        string_val: "Condo"
        string_val: "Condo"
        string_val: "Condo"
        string_val: "Condo"
        string_val: "Condo"
        string_val: "Single Family"
        string_val: "Single Family"
        string_val: "Condo"
        string_val: "Apartment"
        string_val: "Condo"
        string_val: "Condo"
        string_val: "Single Family"
        string_val: "Single Family"
        string_val: "Single Family"
        string_val: "Multiple Occupancy"
        string_val: "Condo"
        string_val: "Condo"
        string_val: "Condo"
        string_val: "Condo"
        string_val: "Multiple Occupancy"
        string_val: "Single Family"
        string_val: "Condo"
        string_val: "Single Family"
        string_val: "Multi Family"
        string_val: "Condo"
        string_val: "Condo"
        string_val: "Single Family"
        string_val: "Single Family"
        string_val: "Condo"
        string_val: "Condo"
        string_val: "Condo"
        string_val: "Single Family"
        string_val: "Condo"
        string_val: "Multi Family"
        string_val: "Single Family"
        string_val: "Single Family"
        string_val: "Condo"
        string_val: "Condo"
        string_val: "Single Family"
        string_val: "Condo"
        string_val: "Single Family"
        string_val: "Condo"
        string_val: "Multi Family"
        string_val: "Condo"
        string_val: "Condo"
        string_val: "Condo"
        string_val: "Single Family"
        string_val: "Condo"
        string_val: "Single Family"
        string_val: "Condo"
        string_val: "Single Family"
        string_val: "Condo"
        string_val: "Single Family"
        string_val: "Condo"
        string_val: "Condo"
        string_val: "Condo"
        string_val: "Condo"
        string_val: "Multiple Occupancy"
        string_val: "Single Family"
        string_val: "Single Family"
        string_val: "Condo"
        string_val: "Single Family"
        string_val: "Condo"
        string_val: "Condo"
        string_val: "Single Family"
        string_val: "Single Family"
        string_val: "Condo"
        string_val: "Single Family"
        string_val: "Condo"
        string_val: "Multi Family"
        string_val: "Condo"
        string_val: "Single Family"
        string_val: "Condo"
        string_val: "Condo"
        string_val: "Condo"
        string_val: "Condo"
        string_val: "Condo"
        string_val: "Condo"
        string_val: "Condo"
        string_val: "Condo"
        string_val: "Condo"
        string_val: "Condo"
        string_val: "Condo"
        string_val: "Condo"
        string_val: "Single Family"
        string_val: "Condo"
        string_val: "Condo"
        string_val: "Condo"
        string_val: "Condo"
        string_val: "Single Family"
        string_val: "Condo"
        string_val: "Condo"
        string_val: "Single Family"
        string_val: "Single Family"
        string_val: "Condo"
        string_val: "Condo"
        string_val: "Condo"
        string_val: "Single Family"
        string_val: "Condo"
        string_val: "Single Family"
        string_val: "Condo"
        string_val: "Condo"
        string_val: "Single Family"
        string_val: "Single Family"
        string_val: "Single Family"
        string_val: "Condo"
        string_val: "Condo"
        string_val: "Condo"
        string_val: "Condo"
        string_val: "Condo"
        string_val: "Multiple Occupancy"
        string_val: "Single Family"
        string_val: "Condo"
        string_val: "Single Family"
        string_val: "Single Family"
        string_val: "Single Family"
        string_val: "Single Family"
        string_val: "Condo"
        string_val: "Single Family"
        string_val: "Multi Family"
        string_val: "Condo"
        string_val: "Condo"
        string_val: "Condo"
        string_val: "Single Family"
        string_val: "Townhouse"
        string_val: "Single Family"
        string_val: "Condo"
        string_val: "Condo"
        string_val: "Condo"
        string_val: "Condo"
        string_val: "Condo"
        string_val: "Single Family"
        string_val: "Condo"
        string_val: "Condo"
        string_val: "Condo"
        string_val: "Single Family"
        string_val: "Single Family"
        string_val: "Condo"
        string_val: "Condo"
        string_val: "Condo"
        string_val: "Condo"
        string_val: "Single Family"
        string_val: "Condo"
        string_val: "Single Family"
        string_val: "Condo"
        string_val: "Single Family"
        string_val: "Single Family"
        string_val: "Single Family"
        string_val: "Multi Family"
        string_val: "Condo"
        string_val: "Multi Family"
        string_val: "Condo"
        string_val: "Condo"
        string_val: "Condo"
        string_val: "Condo"
        string_val: "Single Family"
        string_val: "Condo"
        string_val: "Condo"
        string_val: "Single Family"
        string_val: "Condo"
        string_val: "Condo"
        string_val: "Single Family"
        string_val: "Condo"
        string_val: "Condo"
        string_val: "Single Family"
        string_val: "Condo"
        string_val: "Condo"
        string_val: "Multi Family"
        string_val: "Condo"
        string_val: "Condo"
        string_val: "Condo"
        string_val: "Multi Family"
        string_val: "Single Family"
        string_val: "Single Family"
        string_val: "Multiple Occupancy"
        string_val: "Multi Family"
        string_val: "Multi Family"
        string_val: "Condo"
        string_val: "Condo"
        string_val: "Condo"
        string_val: "Condo"
        string_val: "Condo"
        string_val: "Condo"
        string_val: "Condo"
        string_val: "Condo"
        string_val: "Condo"
        string_val: "Single Family"
        string_val: "Single Family"
        string_val: "Condo"
        string_val: "Condo"
        string_val: "Condo"
        string_val: "Condo"
        string_val: "Condo"
        string_val: "Condo"
        string_val: "Single Family"
        string_val: "Condo"
        string_val: "Single Family"
        string_val: "Condo"
        string_val: "Townhouse"
        string_val: "Condo"
        string_val: "Condo"
        string_val: "Single Family"
        string_val: "Condo"
        string_val: "Multiple Occupancy"
        string_val: "Condo"
        string_val: "Condo"
        string_val: "Multi Family"
        string_val: "Single Family"
        string_val: "Condo"
        string_val: "Condo"
        string_val: "Single Family"
        string_val: "Condo"
        string_val: "Condo"
        string_val: "Single Family"
        string_val: "Condo"
        string_val: "Condo"
        string_val: "Multi Family"
        string_val: "Multi Family"
        string_val: "Condo"
        string_val: "Condo"
        string_val: "Multi Family"
        string_val: "Condo"
        string_val: "Condo"
        string_val: "Single Family"
        string_val: "Multi Family"
        string_val: "Single Family"
        string_val: "Single Family"
        string_val: "Single Family"
        string_val: "Condo"
        string_val: "Condo"
        string_val: "Single Family"
        string_val: "Single Family"
        string_val: "Single Family"
        string_val: "Single Family"
        string_val: "Single Family"
        string_val: "Condo"
        string_val: "Condo"
        string_val: "Single Family"
        string_val: "Single Family"
        string_val: "Single Family"
        string_val: "Condo"
        string_val: "Multi Family"
        string_val: "Single Family"
        string_val: "Single Family"
        string_val: "Condo"
        string_val: "Single Family"
        string_val: "Condo"
        string_val: "Single Family"
        string_val: "Condo"
        string_val: "Condo"
        string_val: "Condo"
        string_val: "Multi Family"
        string_val: "Condo"
        string_val: "Single Family"
        string_val: "Condo"
        string_val: "Multi Family"
        string_val: "Condo"
        string_val: "Condo"
        string_val: "Condo"
        string_val: "Condo"
        string_val: "Multi Family"
        string_val: "Single Family"
        string_val: "Condo"
        string_val: "Single Family"
        string_val: "Condo"
        string_val: "Condo"
        string_val: "Condo"
        string_val: "Multi Family"
        string_val: "Multiple Occupancy"
        string_val: "Condo"
        string_val: "Condo"
        string_val: "Condo"
        string_val: "Condo"
        string_val: "Single Family"
        string_val: "Single Family"
        string_val: "Single Family"
        string_val: "Multi Family"
        string_val: "Condo"
        string_val: "Condo"
        string_val: "Condo"
        string_val: "Multi Family"
        string_val: "Condo"
        string_val: "Condo"
        string_val: "Multi Family"
        string_val: "Condo"
        string_val: "Condo"
        string_val: "Condo"
        string_val: "Condo"
        string_val: "Condo"
        string_val: "Condo"
        string_val: "Condo"
        string_val: "Condo"
        string_val: "Condo"
        string_val: "Multiple Occupancy"
        string_val: "Condo"
        string_val: "Single Family"
        string_val: "Single Family"
        string_val: "Multiple Occupancy"
        string_val: "Single Family"
        string_val: "Condo"
        string_val: "Condo"
        string_val: "Condo"
        string_val: "Condo"
        string_val: "Condo"
        string_val: "Condo"
        string_val: "Condo"
        string_val: "Apartment"
        string_val: "Single Family"
        string_val: "Condo"
        string_val: "Single Family"
        string_val: "Condo"
        string_val: "Multi Family"
        string_val: "Single Family"
        string_val: "Single Family"
        string_val: "Multi Family"
        string_val: "Single Family"
        string_val: "Condo"
        string_val: "Condo"
        string_val: "Condo"
        string_val: "Condo"
        string_val: "Condo"
        string_val: "Condo"
        string_val: "Condo"
        string_val: "Multiple Occupancy"
        string_val: "Condo"
        string_val: "Condo"
        string_val: "Single Family"
        string_val: "Condo"
        string_val: "Condo"
        string_val: "Condo"
        string_val: "Condo"
        string_val: "Condo"
        string_val: "Condo"
        string_val: "Condo"
        string_val: "Condo"
        string_val: "Condo"
        string_val: "Condo"
        string_val: "Condo"
        string_val: "Single Family"
        string_val: "Condo"
        string_val: "Condo"
        string_val: "Multi Family"
        string_val: "Condo"
        string_val: "Multi Family"
        string_val: "Condo"
        string_val: "Single Family"
        string_val: "Condo"
        string_val: "Single Family"
        string_val: "Condo"
        string_val: "Single Family"
        string_val: "Condo"
        string_val: "Single Family"
        string_val: "Condo"
        string_val: "Condo"
        string_val: "Condo"
        string_val: "Condo"
        string_val: "Condo"
        string_val: "Single Family"
        string_val: "Single Family"
        string_val: "Condo"
        string_val: "Condo"
        string_val: "Condo"
        string_val: "Condo"
        string_val: "Condo"
        string_val: "Single Family"
        string_val: "Single Family"
        string_val: "Condo"
        string_val: "Single Family"
        string_val: "Single Family"
        string_val: "Condo"
        string_val: "Multi Family"
        string_val: "Condo"
        string_val: "Single Family"
        string_val: "Condo"
        string_val: "Condo"
        string_val: "Single Family"
        string_val: "Condo"
        string_val: "Townhouse"
        string_val: "Single Family"
        string_val: "Condo"
        string_val: "Single Family"
        string_val: "Single Family"
        string_val: "Condo"
        string_val: "Condo"
        string_val: "Multi Family"
        string_val: "Condo"
        string_val: "Condo"
        string_val: "Condo"
        string_val: "Condo"
        string_val: "Multi Family"
        string_val: "Condo"
        string_val: "Condo"
        string_val: "Condo"
        string_val: "Condo"
        string_val: "Condo"
        string_val: "Condo"
        string_val: "Multi Family"
        string_val: "Condo"
        string_val: "Condo"
        string_val: "Single Family"
        string_val: "Condo"
        string_val: "Condo"
        string_val: "Single Family"
        string_val: "Condo"
        string_val: "Condo"
        string_val: "Single Family"
        string_val: "Condo"
        string_val: "Condo"
        string_val: "Condo"
        string_val: "Condo"
        string_val: "Condo"
        string_val: "Single Family"
        string_val: "Condo"
        string_val: "Single Family"
        string_val: "Condo"
        string_val: "Single Family"
        string_val: "Condo"
        string_val: "Condo"
        string_val: "Condo"
        string_val: "Condo"
        string_val: "Condo"
        string_val: "Condo"
        string_val: "Condo"
        string_val: "Single Family"
        string_val: "Condo"
        string_val: "Single Family"
        string_val: "Condo"
        string_val: "Condo"
        string_val: "Condo"
        string_val: "Single Family"
        string_val: "Condo"
        string_val: "Single Family"
        string_val: "Condo"
        string_val: "Single Family"
        string_val: "Single Family"
        string_val: "Condo"
        string_val: "Condo"
        string_val: "Single Family"
        string_val: "Single Family"
        string_val: "Condo"
        string_val: "Condo"
        string_val: "Single Family"
        string_val: "Single Family"
        string_val: "Single Family"
        string_val: "Condo"
        string_val: "Condo"
        string_val: "Single Family"
        string_val: "Condo"
        string_val: "Condo"
        string_val: "Single Family"
        string_val: "Multiple Occupancy"
        string_val: "Single Family"
        string_val: "Condo"
        string_val: "Condo"
        string_val: "Multiple Occupancy"
        string_val: "Condo"
        string_val: "Single Family"
        string_val: "Single Family"
        string_val: "Condo"
        string_val: "Condo"
        string_val: "Condo"
        string_val: "Condo"
        string_val: "Condo"
        string_val: "Condo"
        string_val: "Multi Family"
        string_val: "Condo"
        string_val: "Condo"
        string_val: "Condo"
        string_val: "Multiple Occupancy"
        string_val: "Condo"
        string_val: "Condo"
        string_val: "Condo"
        string_val: "Condo"
        string_val: "Condo"
        string_val: "Condo"
        string_val: "Single Family"
        string_val: "Single Family"
        string_val: "Condo"
        string_val: "Condo"
        string_val: "Condo"
        string_val: "Condo"
        string_val: "Condo"
        string_val: "Single Family"
        string_val: "Multi Family"
        string_val: "Condo"
        string_val: "Condo"
        string_val: "Multi Family"
        string_val: "Condo"
        string_val: "Condo"
        string_val: "Condo"
        string_val: "Condo"
        string_val: "Single Family"
        string_val: "Single Family"
        string_val: "Multi Family"
        string_val: "Single Family"
        string_val: "Apartment"
        string_val: "Townhouse"
        string_val: "Condo"
        string_val: "Condo"
        string_val: "Condo"
        string_val: "Condo"
        string_val: "Condo"
        string_val: "Condo"
        string_val: "Condo"
        string_val: "Multiple Occupancy"
        string_val: "Single Family"
        string_val: "Condo"
        string_val: "Condo"
        string_val: "Condo"
        string_val: "Condo"
        string_val: "Single Family"
        string_val: "Condo"
        string_val: "Condo"
        string_val: "Condo"
        string_val: "Condo"
        string_val: "Condo"
        string_val: "Condo"
        string_val: "Single Family"
        string_val: "Single Family"
        string_val: "Multiple Occupancy"
        string_val: "Single Family"
        string_val: "Single Family"
        string_val: "Condo"
        string_val: "Condo"
        string_val: "Single Family"
        string_val: "Condo"
        string_val: "Condo"
        string_val: "Condo"
        string_val: "Multiple Occupancy"
        string_val: "Condo"
        string_val: "Single Family"
        string_val: "Multi Family"
        string_val: "Condo"
        string_val: "Condo"
        string_val: "Single Family"
        string_val: "Condo"
        string_val: "Single Family"
        string_val: "Single Family"
        string_val: "Condo"
        string_val: "Multiple Occupancy"
        string_val: "Condo"
        string_val: "Condo"
        string_val: "Condo"
        string_val: "Single Family"
        string_val: "Single Family"
        string_val: "Condo"
        string_val: "Condo"
        string_val: "Condo"
        string_val: "Single Family"
        string_val: "Condo"
        string_val: "Condo"
        string_val: "Condo"
        string_val: "Single Family"
        string_val: "Single Family"
        string_val: "Condo"
        string_val: "Condo"
        string_val: "Multi Family"
        string_val: "Single Family"
        string_val: "Single Family"
        string_val: "Condo"
        string_val: "Condo"
        string_val: "Condo"
        string_val: "Condo"
        string_val: "Single Family"
        string_val: "Condo"
        string_val: "Condo"
        string_val: "Single Family"
        string_val: "Single Family"
        string_val: "Condo"
        string_val: "Multi Family"
        string_val: "Condo"
        string_val: "Condo"
        string_val: "Condo"
        string_val: "Condo"
        string_val: "Condo"
        string_val: "Single Family"
        string_val: "Condo"
        string_val: "Condo"
        string_val: "Multi Family"
        string_val: "Condo"
        string_val: "Condo"
        string_val: "Condo"
        string_val: "Condo"
        string_val: "Condo"
        string_val: "Condo"
        string_val: "Condo"
        string_val: "Condo"
        string_val: "Condo"
        string_val: "Single Family"
        string_val: "Condo"
        string_val: "Condo"
        string_val: "Condo"
        string_val: "Single Family"
        string_val: "Condo"
        string_val: "Single Family"
        string_val: "Multiple Occupancy"
        string_val: "Condo"
        string_val: "Single Family"
        string_val: "Condo"
        string_val: "Single Family"
      }
    }
  }
}
node {
  name: "SparseTensor/shape"
  op: "Const"
  attr {
    key: "_output_shapes"
    value {
      list {
        shape {
          dim {
            size: 2
          }
        }
      }
    }
  }
  attr {
    key: "dtype"
    value {
      type: DT_INT64
    }
  }
  attr {
    key: "value"
    value {
      tensor {
        dtype: DT_INT64
        tensor_shape {
          dim {
            size: 2
          }
        }
        tensor_content: "J\r\000\000\000\000\000\000\001\000\000\000\000\000\000\000"
      }
    }
  }
}
node {
  name: "Const_5"
  op: "Const"
  attr {
    key: "_output_shapes"
    value {
      list {
        shape {
          dim {
            size: 3402
          }
        }
      }
    }
  }
  attr {
    key: "dtype"
    value {
      type: DT_FLOAT
    }
  }
  attr {
    key: "value"
    value {
      tensor {
        dtype: DT_FLOAT
        tensor_shape {
          dim {
            size: 3402
          }
        }
        tensor_content: "…"
      }
    }
  }
}
node {
  name: "linear/linear/bucketize"
  op: "Bucketize"
  input: "Const_2"
  attr {
    key: "T"
    value {
      type: DT_FLOAT
    }
  }
  attr {
    key: "_output_shapes"
    value {
      list {
        shape {
          unknown_rank: true
        }
      }
    }
  }
  attr {
    key: "boundaries"
    value {
      list {
        f: 0.0
        f: 200.0
        f: 400.0
        f: 600.0
        f: 800.0
        f: 1000.0
        f: 1200.0
        f: 1400.0
        f: 1600.0
        f: 1800.0
        f: 2000.0
        f: 2200.0
        f: 2400.0
        f: 2600.0
        f: 2800.0
        f: 3000.0
        f: 3200.0
        f: 3400.0
        f: 3600.0
        f: 3800.0
        f: 4000.0
        f: 4200.0
        f: 4400.0
        f: 4600.0
        f: 4800.0
        f: 5000.0
        f: 5200.0
        f: 5400.0
        f: 5600.0
        f: 5800.0
      }
    }
  }
}
node {
  name: "linear/linear/shape"
  op: "Shape"
  input: "linear/linear/bucketize"
  attr {
    key: "T"
    value {
      type: DT_INT32
    }
  }
  attr {
    key: "_output_shapes"
    value {
      list {
        shape {
          dim {
            size: -1
          }
        }
      }
    }
  }
  attr {
    key: "out_type"
    value {
      type: DT_INT32
    }
  }
}
node {
  name: "linear/linear/strided_slice/stack"
  op: "Const"
  attr {
    key: "_output_shapes"
    value {
      list {
        shape {
          dim {
            size: 1
          }
        }
      }
    }
  }
  attr {
    key: "dtype"
    value {
      type: DT_INT32
    }
  }
  attr {
    key: "value"
    value {
      tensor {
        dtype: DT_INT32
        tensor_shape {
          dim {
            size: 1
          }
        }
        int_val: 0
      }
    }
  }
}
node {
  name: "linear/linear/strided_slice/stack_1"
  op: "Const"
  attr {
    key: "_output_shapes"
    value {
      list {
        shape {
          dim {
            size: 1
          }
        }
      }
    }
  }
  attr {
    key: "dtype"
    value {
      type: DT_INT32
    }
  }
  attr {
    key: "value"
    value {
      tensor {
        dtype: DT_INT32
        tensor_shape {
          dim {
            size: 1
          }
        }
        int_val: 1
      }
    }
  }
}
node {
  name: "linear/linear/strided_slice/stack_2"
  op: "Const"
  attr {
    key: "_output_shapes"
    value {
      list {
        shape {
          dim {
            size: 1
          }
        }
      }
    }
  }
  attr {
    key: "dtype"
    value {
      type: DT_INT32
    }
  }
  attr {
    key: "value"
    value {
      tensor {
        dtype: DT_INT32
        tensor_shape {
          dim {
            size: 1
          }
        }
        int_val: 1
      }
    }
  }
}
node {
  name: "linear/linear/strided_slice"
  op: "StridedSlice"
  input: "linear/linear/shape"
  input: "linear/linear/strided_slice/stack"
  input: "linear/linear/strided_slice/stack_1"
  input: "linear/linear/strided_slice/stack_2"
  attr {
    key: "Index"
    value {
      type: DT_INT32
    }
  }
  attr {
    key: "T"
    value {
      type: DT_INT32
    }
  }
  attr {
    key: "_output_shapes"
    value {
      list {
        shape {
        }
      }
    }
  }
  attr {
    key: "begin_mask"
    value {
      i: 0
    }
  }
  attr {
    key: "ellipsis_mask"
    value {
      i: 0
    }
  }
  attr {
    key: "end_mask"
    value {
      i: 0
    }
  }
  attr {
    key: "new_axis_mask"
    value {
      i: 0
    }
  }
  attr {
    key: "shrink_axis_mask"
    value {
      i: 1
    }
  }
}
node {
  name: "linear/linear/range/start"
  op: "Const"
  attr {
    key: "_output_shapes"
    value {
      list {
        shape {
        }
      }
    }
  }
  attr {
    key: "dtype"
    value {
      type: DT_INT32
    }
  }
  attr {
    key: "value"
    value {
      tensor {
        dtype: DT_INT32
        tensor_shape {
        }
        int_val: 0
      }
    }
  }
}
node {
  name: "linear/linear/range/delta"
  op: "Const"
  attr {
    key: "_output_shapes"
    value {
      list {
        shape {
        }
      }
    }
  }
  attr {
    key: "dtype"
    value {
      type: DT_INT32
    }
  }
  attr {
    key: "value"
    value {
      tensor {
        dtype: DT_INT32
        tensor_shape {
        }
        int_val: 1
      }
    }
  }
}
node {
  name: "linear/linear/range"
  op: "Range"
  input: "linear/linear/range/start"
  input: "linear/linear/strided_slice"
  input: "linear/linear/range/delta"
  attr {
    key: "Tidx"
    value {
      type: DT_INT32
    }
  }
  attr {
    key: "_output_shapes"
    value {
      list {
        shape {
          dim {
            size: -1
          }
        }
      }
    }
  }
}
node {
  name: "linear/linear/zeros/shape"
  op: "Pack"
  input: "linear/linear/strided_slice"
  attr {
    key: "N"
    value {
      i: 1
    }
  }
  attr {
    key: "T"
    value {
      type: DT_INT32
    }
  }
  attr {
    key: "_output_shapes"
    value {
      list {
        shape {
          dim {
            size: 1
          }
        }
      }
    }
  }
  attr {
    key: "axis"
    value {
      i: 0
    }
  }
}
node {
  name: "linear/linear/zeros/Const"
  op: "Const"
  attr {
    key: "_output_shapes"
    value {
      list {
        shape {
        }
      }
    }
  }
  attr {
    key: "dtype"
    value {
      type: DT_INT32
    }
  }
  attr {
    key: "value"
    value {
      tensor {
        dtype: DT_INT32
        tensor_shape {
        }
        int_val: 0
      }
    }
  }
}
node {
  name: "linear/linear/zeros"
  op: "Fill"
  input: "linear/linear/zeros/shape"
  input: "linear/linear/zeros/Const"
  attr {
    key: "T"
    value {
      type: DT_INT32
    }
  }
  attr {
    key: "_output_shapes"
    value {
      list {
        shape {
          dim {
            size: -1
          }
        }
      }
    }
  }
}
node {
  name: "linear/linear/reshape/shape"
  op: "Const"
  attr {
    key: "_output_shapes"
    value {
      list {
        shape {
          dim {
            size: 1
          }
        }
      }
    }
  }
  attr {
    key: "dtype"
    value {
      type: DT_INT32
    }
  }
  attr {
    key: "value"
    value {
      tensor {
        dtype: DT_INT32
        tensor_shape {
          dim {
            size: 1
          }
        }
        int_val: -1
      }
    }
  }
}
node {
  name: "linear/linear/reshape"
  op: "Reshape"
  input: "linear/linear/bucketize"
  input: "linear/linear/reshape/shape"
  attr {
    key: "T"
    value {
      type: DT_INT32
    }
  }
  attr {
    key: "Tshape"
    value {
      type: DT_INT32
    }
  }
  attr {
    key: "_output_shapes"
    value {
      list {
        shape {
          dim {
            size: -1
          }
        }
      }
    }
  }
}
node {
  name: "linear/linear/pack"
  op: "Pack"
  input: "linear/linear/range"
  input: "linear/linear/zeros"
  attr {
    key: "N"
    value {
      i: 2
    }
  }
  attr {
    key: "T"
    value {
      type: DT_INT32
    }
  }
  attr {
    key: "_output_shapes"
    value {
      list {
        shape {
          dim {
            size: 2
          }
          dim {
            size: -1
          }
        }
      }
    }
  }
  attr {
    key: "axis"
    value {
      i: 0
    }
  }
}
node {
  name: "linear/linear/transpose/Rank"
  op: "Rank"
  input: "linear/linear/pack"
  attr {
    key: "T"
    value {
      type: DT_INT32
    }
  }
  attr {
    key: "_output_shapes"
    value {
      list {
        shape {
        }
      }
    }
  }
}
node {
  name: "linear/linear/transpose/sub/y"
  op: "Const"
  attr {
    key: "_output_shapes"
    value {
      list {
        shape {
        }
      }
    }
  }
  attr {
    key: "dtype"
    value {
      type: DT_INT32
    }
  }
  attr {
    key: "value"
    value {
      tensor {
        dtype: DT_INT32
        tensor_shape {
        }
        int_val: 1
      }
    }
  }
}
node {
  name: "linear/linear/transpose/sub"
  op: "Sub"
  input: "linear/linear/transpose/Rank"
  input: "linear/linear/transpose/sub/y"
  attr {
    key: "T"
    value {
      type: DT_INT32
    }
  }
  attr {
    key: "_output_shapes"
    value {
      list {
        shape {
        }
      }
    }
  }
}
node {
  name: "linear/linear/transpose/Range/start"
  op: "Const"
  attr {
    key: "_output_shapes"
    value {
      list {
        shape {
        }
      }
    }
  }
  attr {
    key: "dtype"
    value {
      type: DT_INT32
    }
  }
  attr {
    key: "value"
    value {
      tensor {
        dtype: DT_INT32
        tensor_shape {
        }
        int_val: 0
      }
    }
  }
}
node {
  name: "linear/linear/transpose/Range/delta"
  op: "Const"
  attr {
    key: "_output_shapes"
    value {
      list {
        shape {
        }
      }
    }
  }
  attr {
    key: "dtype"
    value {
      type: DT_INT32
    }
  }
  attr {
    key: "value"
    value {
      tensor {
        dtype: DT_INT32
        tensor_shape {
        }
        int_val: 1
      }
    }
  }
}
node {
  name: "linear/linear/transpose/Range"
  op: "Range"
  input: "linear/linear/transpose/Range/start"
  input: "linear/linear/transpose/Rank"
  input: "linear/linear/transpose/Range/delta"
  attr {
    key: "Tidx"
    value {
      type: DT_INT32
    }
  }
  attr {
    key: "_output_shapes"
    value {
      list {
        shape {
          dim {
            size: 2
          }
        }
      }
    }
  }
}
node {
  name: "linear/linear/transpose/sub_1"
  op: "Sub"
  input: "linear/linear/transpose/sub"
  input: "linear/linear/transpose/Range"
  attr {
    key: "T"
    value {
      type: DT_INT32
    }
  }
  attr {
    key: "_output_shapes"
    value {
      list {
        shape {
          dim {
            size: 2
          }
        }
      }
    }
  }
}
node {
  name: "linear/linear/transpose"
  op: "Transpose"
  input: "linear/linear/pack"
  input: "linear/linear/transpose/sub_1"
  attr {
    key: "T"
    value {
      type: DT_INT32
    }
  }
  attr {
    key: "Tperm"
    value {
      type: DT_INT32
    }
  }
  attr {
    key: "_output_shapes"
    value {
      list {
        shape {
          dim {
            size: -1
          }
          dim {
            size: 2
          }
        }
      }
    }
  }
}
node {
  name: "linear/linear/ToInt64"
  op: "Cast"
  input: "linear/linear/transpose"
  attr {
    key: "DstT"
    value {
      type: DT_INT64
    }
  }
  attr {
    key: "SrcT"
    value {
      type: DT_INT32
    }
  }
  attr {
    key: "_output_shapes"
    value {
      list {
        shape {
          dim {
            size: -1
          }
          dim {
            size: 2
          }
        }
      }
    }
  }
}
node {
  name: "linear/linear/pack_1/1"
  op: "Const"
  attr {
    key: "_output_shapes"
    value {
      list {
        shape {
        }
      }
    }
  }
  attr {
    key: "dtype"
    value {
      type: DT_INT32
    }
  }
  attr {
    key: "value"
    value {
      tensor {
        dtype: DT_INT32
        tensor_shape {
        }
        int_val: 1
      }
    }
  }
}
node {
  name: "linear/linear/pack_1"
  op: "Pack"
  input: "linear/linear/strided_slice"
  input: "linear/linear/pack_1/1"
  attr {
    key: "N"
    value {
      i: 2
    }
  }
  attr {
    key: "T"
    value {
      type: DT_INT32
    }
  }
  attr {
    key: "_output_shapes"
    value {
      list {
        shape {
          dim {
            size: 2
          }
        }
      }
    }
  }
  attr {
    key: "axis"
    value {
      i: 0
    }
  }
}
node {
  name: "linear/linear/ToInt64_1"
  op: "Cast"
  input: "linear/linear/pack_1"
  attr {
    key: "DstT"
    value {
      type: DT_INT64
    }
  }
  attr {
    key: "SrcT"
    value {
      type: DT_INT32
    }
  }
  attr {
    key: "_output_shapes"
    value {
      list {
        shape {
          dim {
            size: 2
          }
        }
      }
    }
  }
}
node {
  name: "linear/size_bucketized/weights/part_0"
  op: "Variable"
  attr {
    key: "_output_shapes"
    value {
      list {
        shape {
          dim {
            size: 31
          }
          dim {
            size: 1
          }
        }
      }
    }
  }
  attr {
    key: "container"
    value {
      s: ""
    }
  }
  attr {
    key: "dtype"
    value {
      type: DT_FLOAT
    }
  }
  attr {
    key: "shape"
    value {
      shape {
        dim {
          size: 31
        }
        dim {
          size: 1
        }
      }
    }
  }
  attr {
    key: "shared_name"
    value {
      s: ""
    }
  }
}
node {
  name: "linear/size_bucketized/weights/part_0/Initializer/zeros"
  op: "Const"
  attr {
    key: "_class"
    value {
      list {
        s: "loc:@linear/size_bucketized/weights/part_0"
      }
    }
  }
  attr {
    key: "_output_shapes"
    value {
      list {
        shape {
          dim {
            size: 31
          }
          dim {
            size: 1
          }
        }
      }
    }
  }
  attr {
    key: "dtype"
    value {
      type: DT_FLOAT
    }
  }
  attr {
    key: "value"
    value {
      tensor {
        dtype: DT_FLOAT
        tensor_shape {
          dim {
            size: 31
          }
          dim {
            size: 1
          }
        }
        float_val: 0.0
      }
    }
  }
}
node {
  name: "linear/size_bucketized/weights/part_0/Assign"
  op: "Assign"
  input: "linear/size_bucketized/weights/part_0"
  input: "linear/size_bucketized/weights/part_0/Initializer/zeros"
  attr {
    key: "T"
    value {
      type: DT_FLOAT
    }
  }
  attr {
    key: "_class"
    value {
      list {
        s: "loc:@linear/size_bucketized/weights/part_0"
      }
    }
  }
  attr {
    key: "_output_shapes"
    value {
      list {
        shape {
          dim {
            size: 31
          }
          dim {
            size: 1
          }
        }
      }
    }
  }
  attr {
    key: "use_locking"
    value {
      b: true
    }
  }
  attr {
    key: "validate_shape"
    value {
      b: true
    }
  }
}
node {
  name: "linear/size_bucketized/weights/part_0/read"
  op: "Identity"
  input: "linear/size_bucketized/weights/part_0"
  attr {
    key: "T"
    value {
      type: DT_FLOAT
    }
  }
  attr {
    key: "_class"
    value {
      list {
        s: "loc:@linear/size_bucketized/weights/part_0"
      }
    }
  }
  attr {
    key: "_output_shapes"
    value {
      list {
        shape {
          dim {
            size: 31
          }
          dim {
            size: 1
          }
        }
      }
    }
  }
}
node {
  name: "linear/linear/size_bucketized/size_bucketized_weights/Slice/begin"
  op: "Const"
  attr {
    key: "_output_shapes"
    value {
      list {
        shape {
          dim {
            size: 1
          }
        }
      }
    }
  }
  attr {
    key: "dtype"
    value {
      type: DT_INT32
    }
  }
  attr {
    key: "value"
    value {
      tensor {
        dtype: DT_INT32
        tensor_shape {
          dim {
            size: 1
          }
        }
        int_val: 0
      }
    }
  }
}
node {
  name: "linear/linear/size_bucketized/size_bucketized_weights/Slice/size"
  op: "Const"
  attr {
    key: "_output_shapes"
    value {
      list {
        shape {
          dim {
            size: 1
          }
        }
      }
    }
  }
  attr {
    key: "dtype"
    value {
      type: DT_INT32
    }
  }
  attr {
    key: "value"
    value {
      tensor {
        dtype: DT_INT32
        tensor_shape {
          dim {
            size: 1
          }
        }
        int_val: 1
      }
    }
  }
}
node {
  name: "linear/linear/size_bucketized/size_bucketized_weights/Slice"
  op: "Slice"
  input: "linear/linear/ToInt64_1"
  input: "linear/linear/size_bucketized/size_bucketized_weights/Slice/begin"
  input: "linear/linear/size_bucketized/size_bucketized_weights/Slice/size"
  attr {
    key: "Index"
    value {
      type: DT_INT32
    }
  }
  attr {
    key: "T"
    value {
      type: DT_INT64
    }
  }
  attr {
    key: "_output_shapes"
    value {
      list {
        shape {
          dim {
            size: 1
          }
        }
      }
    }
  }
}
node {
  name: "linear/linear/size_bucketized/size_bucketized_weights/Const"
  op: "Const"
  attr {
    key: "_output_shapes"
    value {
      list {
        shape {
          dim {
            size: 1
          }
        }
      }
    }
  }
  attr {
    key: "dtype"
    value {
      type: DT_INT32
    }
  }
  attr {
    key: "value"
    value {
      tensor {
        dtype: DT_INT32
        tensor_shape {
          dim {
            size: 1
          }
        }
        int_val: 0
      }
    }
  }
}
node {
  name: "linear/linear/size_bucketized/size_bucketized_weights/Prod"
  op: "Prod"
  input: "linear/linear/size_bucketized/size_bucketized_weights/Slice"
  input: "linear/linear/size_bucketized/size_bucketized_weights/Const"
  attr {
    key: "T"
    value {
      type: DT_INT64
    }
  }
  attr {
    key: "Tidx"
    value {
      type: DT_INT32
    }
  }
  attr {
    key: "_output_shapes"
    value {
      list {
        shape {
        }
      }
    }
  }
  attr {
    key: "keep_dims"
    value {
      b: false
    }
  }
}
node {
  name: "linear/linear/size_bucketized/size_bucketized_weights/Gather/indices"
  op: "Const"
  attr {
    key: "_output_shapes"
    value {
      list {
        shape {
        }
      }
    }
  }
  attr {
    key: "dtype"
    value {
      type: DT_INT32
    }
  }
  attr {
    key: "value"
    value {
      tensor {
        dtype: DT_INT32
        tensor_shape {
        }
        int_val: 1
      }
    }
  }
}
node {
  name: "linear/linear/size_bucketized/size_bucketized_weights/Gather"
  op: "Gather"
  input: "linear/linear/ToInt64_1"
  input: "linear/linear/size_bucketized/size_bucketized_weights/Gather/indices"
  attr {
    key: "Tindices"
    value {
      type: DT_INT32
    }
  }
  attr {
    key: "Tparams"
    value {
      type: DT_INT64
    }
  }
  attr {
    key: "_output_shapes"
    value {
      list {
        shape {
        }
      }
    }
  }
  attr {
    key: "validate_indices"
    value {
      b: true
    }
  }
}
node {
  name: "linear/linear/size_bucketized/size_bucketized_weights/SparseReshape/new_shape"
  op: "Pack"
  input: "linear/linear/size_bucketized/size_bucketized_weights/Prod"
  input: "linear/linear/size_bucketized/size_bucketized_weights/Gather"
  attr {
    key: "N"
    value {
      i: 2
    }
  }
  attr {
    key: "T"
    value {
      type: DT_INT64
    }
  }
  attr {
    key: "_output_shapes"
    value {
      list {
        shape {
          dim {
            size: 2
          }
        }
      }
    }
  }
  attr {
    key: "axis"
    value {
      i: 0
    }
  }
}
node {
  name: "linear/linear/size_bucketized/size_bucketized_weights/SparseReshape"
  op: "SparseReshape"
  input: "linear/linear/ToInt64"
  input: "linear/linear/ToInt64_1"
  input: "linear/linear/size_bucketized/size_bucketized_weights/SparseReshape/new_shape"
  attr {
    key: "_output_shapes"
    value {
      list {
        shape {
          dim {
            size: -1
          }
          dim {
            size: 2
          }
        }
        shape {
          dim {
            size: 2
          }
        }
      }
    }
  }
}
node {
  name: "linear/linear/size_bucketized/size_bucketized_weights/SparseReshape/Identity"
  op: "Identity"
  input: "linear/linear/reshape"
  attr {
    key: "T"
    value {
      type: DT_INT32
    }
  }
  attr {
    key: "_output_shapes"
    value {
      list {
        shape {
          dim {
            size: -1
          }
        }
      }
    }
  }
}
node {
  name: "linear/linear/size_bucketized/size_bucketized_weights/GreaterEqual/y"
  op: "Const"
  attr {
    key: "_output_shapes"
    value {
      list {
        shape {
        }
      }
    }
  }
  attr {
    key: "dtype"
    value {
      type: DT_INT32
    }
  }
  attr {
    key: "value"
    value {
      tensor {
        dtype: DT_INT32
        tensor_shape {
        }
        int_val: 0
      }
    }
  }
}
node {
  name: "linear/linear/size_bucketized/size_bucketized_weights/GreaterEqual"
  op: "GreaterEqual"
  input: "linear/linear/size_bucketized/size_bucketized_weights/SparseReshape/Identity"
  input: "linear/linear/size_bucketized/size_bucketized_weights/GreaterEqual/y"
  attr {
    key: "T"
    value {
      type: DT_INT32
    }
  }
  attr {
    key: "_output_shapes"
    value {
      list {
        shape {
          dim {
            size: -1
          }
        }
      }
    }
  }
}
node {
  name: "linear/linear/size_bucketized/size_bucketized_weights/Where"
  op: "Where"
  input: "linear/linear/size_bucketized/size_bucketized_weights/GreaterEqual"
  attr {
    key: "_output_shapes"
    value {
      list {
        shape {
          dim {
            size: -1
          }
          dim {
            size: 1
          }
        }
      }
    }
  }
}
node {
  name: "linear/linear/size_bucketized/size_bucketized_weights/Reshape/shape"
  op: "Const"
  attr {
    key: "_output_shapes"
    value {
      list {
        shape {
          dim {
            size: 1
          }
        }
      }
    }
  }
  attr {
    key: "dtype"
    value {
      type: DT_INT32
    }
  }
  attr {
    key: "value"
    value {
      tensor {
        dtype: DT_INT32
        tensor_shape {
          dim {
            size: 1
          }
        }
        int_val: -1
      }
    }
  }
}
node {
  name: "linear/linear/size_bucketized/size_bucketized_weights/Reshape"
  op: "Reshape"
  input: "linear/linear/size_bucketized/size_bucketized_weights/Where"
  input: "linear/linear/size_bucketized/size_bucketized_weights/Reshape/shape"
  attr {
    key: "T"
    value {
      type: DT_INT64
    }
  }
  attr {
    key: "Tshape"
    value {
      type: DT_INT32
    }
  }
  attr {
    key: "_output_shapes"
    value {
      list {
        shape {
          dim {
            size: -1
          }
        }
      }
    }
  }
}
node {
  name: "linear/linear/size_bucketized/size_bucketized_weights/Gather_1"
  op: "Gather"
  input: "linear/linear/size_bucketized/size_bucketized_weights/SparseReshape"
  input: "linear/linear/size_bucketized/size_bucketized_weights/Reshape"
  attr {
    key: "Tindices"
    value {
      type: DT_INT64
    }
  }
  attr {
    key: "Tparams"
    value {
      type: DT_INT64
    }
  }
  attr {
    key: "_output_shapes"
    value {
      list {
        shape {
          dim {
            size: -1
          }
          dim {
            size: 2
          }
        }
      }
    }
  }
  attr {
    key: "validate_indices"
    value {
      b: true
    }
  }
}
node {
  name: "linear/linear/size_bucketized/size_bucketized_weights/Gather_2"
  op: "Gather"
  input: "linear/linear/size_bucketized/size_bucketized_weights/SparseReshape/Identity"
  input: "linear/linear/size_bucketized/size_bucketized_weights/Reshape"
  attr {
    key: "Tindices"
    value {
      type: DT_INT64
    }
  }
  attr {
    key: "Tparams"
    value {
      type: DT_INT32
    }
  }
  attr {
    key: "_output_shapes"
    value {
      list {
        shape {
          dim {
            size: -1
          }
        }
      }
    }
  }
  attr {
    key: "validate_indices"
    value {
      b: true
    }
  }
}
node {
  name: "linear/linear/size_bucketized/size_bucketized_weights/Identity"
  op: "Identity"
  input: "linear/linear/size_bucketized/size_bucketized_weights/SparseReshape:1"
  attr {
    key: "T"
    value {
      type: DT_INT64
    }
  }
  attr {
    key: "_output_shapes"
    value {
      list {
        shape {
          dim {
            size: 2
          }
        }
      }
    }
  }
}
node {
  name: "linear/linear/size_bucketized/size_bucketized_weights/SparseFillEmptyRows/Const"
  op: "Const"
  attr {
    key: "_output_shapes"
    value {
      list {
        shape {
        }
      }
    }
  }
  attr {
    key: "dtype"
    value {
      type: DT_INT32
    }
  }
  attr {
    key: "value"
    value {
      tensor {
        dtype: DT_INT32
        tensor_shape {
        }
        int_val: 0
      }
    }
  }
}
node {
  name: "linear/linear/size_bucketized/size_bucketized_weights/SparseFillEmptyRows/strided_slice/stack"
  op: "Const"
  attr {
    key: "_output_shapes"
    value {
      list {
        shape {
          dim {
            size: 1
          }
        }
      }
    }
  }
  attr {
    key: "dtype"
    value {
      type: DT_INT32
    }
  }
  attr {
    key: "value"
    value {
      tensor {
        dtype: DT_INT32
        tensor_shape {
          dim {
            size: 1
          }
        }
        int_val: 0
      }
    }
  }
}
node {
  name: "linear/linear/size_bucketized/size_bucketized_weights/SparseFillEmptyRows/strided_slice/stack_1"
  op: "Const"
  attr {
    key: "_output_shapes"
    value {
      list {
        shape {
          dim {
            size: 1
          }
        }
      }
    }
  }
  attr {
    key: "dtype"
    value {
      type: DT_INT32
    }
  }
  attr {
    key: "value"
    value {
      tensor {
        dtype: DT_INT32
        tensor_shape {
          dim {
            size: 1
          }
        }
        int_val: 1
      }
    }
  }
}
node {
  name: "linear/linear/size_bucketized/size_bucketized_weights/SparseFillEmptyRows/strided_slice/stack_2"
  op: "Const"
  attr {
    key: "_output_shapes"
    value {
      list {
        shape {
          dim {
            size: 1
          }
        }
      }
    }
  }
  attr {
    key: "dtype"
    value {
      type: DT_INT32
    }
  }
  attr {
    key: "value"
    value {
      tensor {
        dtype: DT_INT32
        tensor_shape {
          dim {
            size: 1
          }
        }
        int_val: 1
      }
    }
  }
}
node {
  name: "linear/linear/size_bucketized/size_bucketized_weights/SparseFillEmptyRows/strided_slice"
  op: "StridedSlice"
  input: "linear/linear/size_bucketized/size_bucketized_weights/Identity"
  input: "linear/linear/size_bucketized/size_bucketized_weights/SparseFillEmptyRows/strided_slice/stack"
  input: "linear/linear/size_bucketized/size_bucketized_weights/SparseFillEmptyRows/strided_slice/stack_1"
  input: "linear/linear/size_bucketized/size_bucketized_weights/SparseFillEmptyRows/strided_slice/stack_2"
  attr {
    key: "Index"
    value {
      type: DT_INT32
    }
  }
  attr {
    key: "T"
    value {
      type: DT_INT64
    }
  }
  attr {
    key: "_output_shapes"
    value {
      list {
        shape {
        }
      }
    }
  }
  attr {
    key: "begin_mask"
    value {
      i: 0
    }
  }
  attr {
    key: "ellipsis_mask"
    value {
      i: 0
    }
  }
  attr {
    key: "end_mask"
    value {
      i: 0
    }
  }
  attr {
    key: "new_axis_mask"
    value {
      i: 0
    }
  }
  attr {
    key: "shrink_axis_mask"
    value {
      i: 1
    }
  }
}
node {
  name: "linear/linear/size_bucketized/size_bucketized_weights/SparseFillEmptyRows/Cast"
  op: "Cast"
  input: "linear/linear/size_bucketized/size_bucketized_weights/SparseFillEmptyRows/strided_slice"
  attr {
    key: "DstT"
    value {
      type: DT_INT32
    }
  }
  attr {
    key: "SrcT"
    value {
      type: DT_INT64
    }
  }
  attr {
    key: "_output_shapes"
    value {
      list {
        shape {
        }
      }
    }
  }
}
node {
  name: "linear/linear/size_bucketized/size_bucketized_weights/SparseFillEmptyRows/range/start"
  op: "Const"
  attr {
    key: "_output_shapes"
    value {
      list {
        shape {
        }
      }
    }
  }
  attr {
    key: "dtype"
    value {
      type: DT_INT32
    }
  }
  attr {
    key: "value"
    value {
      tensor {
        dtype: DT_INT32
        tensor_shape {
        }
        int_val: 0
      }
    }
  }
}
node {
  name: "linear/linear/size_bucketized/size_bucketized_weights/SparseFillEmptyRows/range/delta"
  op: "Const"
  attr {
    key: "_output_shapes"
    value {
      list {
        shape {
        }
      }
    }
  }
  attr {
    key: "dtype"
    value {
      type: DT_INT32
    }
  }
  attr {
    key: "value"
    value {
      tensor {
        dtype: DT_INT32
        tensor_shape {
        }
        int_val: 1
      }
    }
  }
}
node {
  name: "linear/linear/size_bucketized/size_bucketized_weights/SparseFillEmptyRows/range"
  op: "Range"
  input: "linear/linear/size_bucketized/size_bucketized_weights/SparseFillEmptyRows/range/start"
  input: "linear/linear/size_bucketized/size_bucketized_weights/SparseFillEmptyRows/Cast"
  input: "linear/linear/size_bucketized/size_bucketized_weights/SparseFillEmptyRows/range/delta"
  attr {
    key: "Tidx"
    value {
      type: DT_INT32
    }
  }
  attr {
    key: "_output_shapes"
    value {
      list {
        shape {
          dim {
            size: -1
          }
        }
      }
    }
  }
}
node {
  name: "linear/linear/size_bucketized/size_bucketized_weights/SparseFillEmptyRows/Cast_1"
  op: "Cast"
  input: "linear/linear/size_bucketized/size_bucketized_weights/SparseFillEmptyRows/range"
  attr {
    key: "DstT"
    value {
      type: DT_INT64
    }
  }
  attr {
    key: "SrcT"
    value {
      type: DT_INT32
    }
  }
  attr {
    key: "_output_shapes"
    value {
      list {
        shape {
          dim {
            size: -1
          }
        }
      }
    }
  }
}
node {
  name: "linear/linear/size_bucketized/size_bucketized_weights/SparseFillEmptyRows/strided_slice_1/stack"
  op: "Const"
  attr {
    key: "_output_shapes"
    value {
      list {
        shape {
          dim {
            size: 2
          }
        }
      }
    }
  }
  attr {
    key: "dtype"
    value {
      type: DT_INT32
    }
  }
  attr {
    key: "value"
    value {
      tensor {
        dtype: DT_INT32
        tensor_shape {
          dim {
            size: 2
          }
        }
        tensor_content: "\000\000\000\000\000\000\000\000"
      }
    }
  }
}
node {
  name: "linear/linear/size_bucketized/size_bucketized_weights/SparseFillEmptyRows/strided_slice_1/stack_1"
  op: "Const"
  attr {
    key: "_output_shapes"
    value {
      list {
        shape {
          dim {
            size: 2
          }
        }
      }
    }
  }
  attr {
    key: "dtype"
    value {
      type: DT_INT32
    }
  }
  attr {
    key: "value"
    value {
      tensor {
        dtype: DT_INT32
        tensor_shape {
          dim {
            size: 2
          }
        }
        tensor_content: "\000\000\000\000\001\000\000\000"
      }
    }
  }
}
node {
  name: "linear/linear/size_bucketized/size_bucketized_weights/SparseFillEmptyRows/strided_slice_1/stack_2"
  op: "Const"
  attr {
    key: "_output_shapes"
    value {
      list {
        shape {
          dim {
            size: 2
          }
        }
      }
    }
  }
  attr {
    key: "dtype"
    value {
      type: DT_INT32
    }
  }
  attr {
    key: "value"
    value {
      tensor {
        dtype: DT_INT32
        tensor_shape {
          dim {
            size: 2
          }
        }
        tensor_content: "\001\000\000\000\001\000\000\000"
      }
    }
  }
}
node {
  name: "linear/linear/size_bucketized/size_bucketized_weights/SparseFillEmptyRows/strided_slice_1"
  op: "StridedSlice"
  input: "linear/linear/size_bucketized/size_bucketized_weights/Gather_1"
  input: "linear/linear/size_bucketized/size_bucketized_weights/SparseFillEmptyRows/strided_slice_1/stack"
  input: "linear/linear/size_bucketized/size_bucketized_weights/SparseFillEmptyRows/strided_slice_1/stack_1"
  input: "linear/linear/size_bucketized/size_bucketized_weights/SparseFillEmptyRows/strided_slice_1/stack_2"
  attr {
    key: "Index"
    value {
      type: DT_INT32
    }
  }
  attr {
    key: "T"
    value {
      type: DT_INT64
    }
  }
  attr {
    key: "_output_shapes"
    value {
      list {
        shape {
          dim {
            size: -1
          }
        }
      }
    }
  }
  attr {
    key: "begin_mask"
    value {
      i: 1
    }
  }
  attr {
    key: "ellipsis_mask"
    value {
      i: 0
    }
  }
  attr {
    key: "end_mask"
    value {
      i: 1
    }
  }
  attr {
    key: "new_axis_mask"
    value {
      i: 0
    }
  }
  attr {
    key: "shrink_axis_mask"
    value {
      i: 2
    }
  }
}
node {
  name: "linear/linear/size_bucketized/size_bucketized_weights/SparseFillEmptyRows/ListDiff"
  op: "ListDiff"
  input: "linear/linear/size_bucketized/size_bucketized_weights/SparseFillEmptyRows/Cast_1"
  input: "linear/linear/size_bucketized/size_bucketized_weights/SparseFillEmptyRows/strided_slice_1"
  attr {
    key: "T"
    value {
      type: DT_INT64
    }
  }
  attr {
    key: "_output_shapes"
    value {
      list {
        shape {
          dim {
            size: -1
          }
        }
        shape {
          dim {
            size: -1
          }
        }
      }
    }
  }
  attr {
    key: "out_idx"
    value {
      type: DT_INT32
    }
  }
}
node {
  name: "linear/linear/size_bucketized/size_bucketized_weights/SparseFillEmptyRows/strided_slice_2/stack"
  op: "Const"
  attr {
    key: "_output_shapes"
    value {
      list {
        shape {
          dim {
            size: 1
          }
        }
      }
    }
  }
  attr {
    key: "dtype"
    value {
      type: DT_INT32
    }
  }
  attr {
    key: "value"
    value {
      tensor {
        dtype: DT_INT32
        tensor_shape {
          dim {
            size: 1
          }
        }
        int_val: 0
      }
    }
  }
}
node {
  name: "linear/linear/size_bucketized/size_bucketized_weights/SparseFillEmptyRows/strided_slice_2/stack_1"
  op: "Const"
  attr {
    key: "_output_shapes"
    value {
      list {
        shape {
          dim {
            size: 1
          }
        }
      }
    }
  }
  attr {
    key: "dtype"
    value {
      type: DT_INT32
    }
  }
  attr {
    key: "value"
    value {
      tensor {
        dtype: DT_INT32
        tensor_shape {
          dim {
            size: 1
          }
        }
        int_val: 1
      }
    }
  }
}
node {
  name: "linear/linear/size_bucketized/size_bucketized_weights/SparseFillEmptyRows/strided_slice_2/stack_2"
  op: "Const"
  attr {
    key: "_output_shapes"
    value {
      list {
        shape {
          dim {
            size: 1
          }
        }
      }
    }
  }
  attr {
    key: "dtype"
    value {
      type: DT_INT32
    }
  }
  attr {
    key: "value"
    value {
      tensor {
        dtype: DT_INT32
        tensor_shape {
          dim {
            size: 1
          }
        }
        int_val: 1
      }
    }
  }
}
node {
  name: "linear/linear/size_bucketized/size_bucketized_weights/SparseFillEmptyRows/strided_slice_2"
  op: "StridedSlice"
  input: "linear/linear/size_bucketized/size_bucketized_weights/Identity"
  input: "linear/linear/size_bucketized/size_bucketized_weights/SparseFillEmptyRows/strided_slice_2/stack"
  input: "linear/linear/size_bucketized/size_bucketized_weights/SparseFillEmptyRows/strided_slice_2/stack_1"
  input: "linear/linear/size_bucketized/size_bucketized_weights/SparseFillEmptyRows/strided_slice_2/stack_2"
  attr {
    key: "Index"
    value {
      type: DT_INT32
    }
  }
  attr {
    key: "T"
    value {
      type: DT_INT64
    }
  }
  attr {
    key: "_output_shapes"
    value {
      list {
        shape {
        }
      }
    }
  }
  attr {
    key: "begin_mask"
    value {
      i: 0
    }
  }
  attr {
    key: "ellipsis_mask"
    value {
      i: 0
    }
  }
  attr {
    key: "end_mask"
    value {
      i: 0
    }
  }
  attr {
    key: "new_axis_mask"
    value {
      i: 0
    }
  }
  attr {
    key: "shrink_axis_mask"
    value {
      i: 1
    }
  }
}
node {
  name: "linear/linear/size_bucketized/size_bucketized_weights/SparseFillEmptyRows/ExpandDims/dim"
  op: "Const"
  attr {
    key: "_output_shapes"
    value {
      list {
        shape {
        }
      }
    }
  }
  attr {
    key: "dtype"
    value {
      type: DT_INT32
    }
  }
  attr {
    key: "value"
    value {
      tensor {
        dtype: DT_INT32
        tensor_shape {
        }
        int_val: -1
      }
    }
  }
}
node {
  name: "linear/linear/size_bucketized/size_bucketized_weights/SparseFillEmptyRows/ExpandDims"
  op: "ExpandDims"
  input: "linear/linear/size_bucketized/size_bucketized_weights/SparseFillEmptyRows/strided_slice_2"
  input: "linear/linear/size_bucketized/size_bucketized_weights/SparseFillEmptyRows/ExpandDims/dim"
  attr {
    key: "T"
    value {
      type: DT_INT64
    }
  }
  attr {
    key: "Tdim"
    value {
      type: DT_INT32
    }
  }
  attr {
    key: "_output_shapes"
    value {
      list {
        shape {
          dim {
            size: 1
          }
        }
      }
    }
  }
}
node {
  name: "linear/linear/size_bucketized/size_bucketized_weights/SparseFillEmptyRows/SparseToDense/sparse_values"
  op: "Const"
  attr {
    key: "_output_shapes"
    value {
      list {
        shape {
        }
      }
    }
  }
  attr {
    key: "dtype"
    value {
      type: DT_BOOL
    }
  }
  attr {
    key: "value"
    value {
      tensor {
        dtype: DT_BOOL
        tensor_shape {
        }
        bool_val: true
      }
    }
  }
}
node {
  name: "linear/linear/size_bucketized/size_bucketized_weights/SparseFillEmptyRows/SparseToDense/default_value"
  op: "Const"
  attr {
    key: "_output_shapes"
    value {
      list {
        shape {
        }
      }
    }
  }
  attr {
    key: "dtype"
    value {
      type: DT_BOOL
    }
  }
  attr {
    key: "value"
    value {
      tensor {
        dtype: DT_BOOL
        tensor_shape {
        }
        bool_val: false
      }
    }
  }
}
node {
  name: "linear/linear/size_bucketized/size_bucketized_weights/SparseFillEmptyRows/SparseToDense"
  op: "SparseToDense"
  input: "linear/linear/size_bucketized/size_bucketized_weights/SparseFillEmptyRows/ListDiff"
…
  op: "Identity"
  input: "save/ShardedFilename"
  input: "^save/save"
  attr {
    key: "T"
    value {
      type: DT_STRING
    }
  }
  attr {
    key: "_class"
    value {
      list {
        s: "loc:@save/ShardedFilename"
      }
    }
  }
  attr {
    key: "_output_shapes"
    value {
      list {
        shape {
        }
      }
    }
  }
}
node {
  name: "save/ShardedFilespec"
  op: "ShardedFilespec"
  input: "save/Const"
  input: "save/num_shards"
  input: "^save/control_dependency"
  attr {
    key: "_output_shapes"
    value {
      list {
        shape {
        }
      }
    }
  }
}
node {
  name: "save/RestoreV2/tensor_names"
  op: "Const"
  attr {
    key: "_output_shapes"
    value {
      list {
        shape {
          dim {
            size: 1
          }
        }
      }
    }
  }
  attr {
    key: "dtype"
    value {
      type: DT_STRING
    }
  }
  attr {
    key: "value"
    value {
      tensor {
        dtype: DT_STRING
        tensor_shape {
          dim {
            size: 1
          }
        }
        string_val: "beta1_power"
      }
    }
  }
}
node {
  name: "save/RestoreV2/shape_and_slices"
  op: "Const"
  attr {
    key: "_output_shapes"
    value {
      list {
        shape {
          dim {
            size: 1
          }
        }
      }
    }
  }
  attr {
    key: "dtype"
    value {
      type: DT_STRING
    }
  }
  attr {
    key: "value"
    value {
      tensor {
        dtype: DT_STRING
        tensor_shape {
          dim {
            size: 1
          }
        }
        string_val: ""
      }
    }
  }
}
node {
  name: "save/RestoreV2"
  op: "RestoreV2"
  input: "save/Const"
  input: "save/RestoreV2/tensor_names"
  input: "save/RestoreV2/shape_and_slices"
  attr {
    key: "_output_shapes"
    value {
      list {
        shape {
          unknown_rank: true
        }
      }
    }
  }
  attr {
    key: "dtypes"
    value {
      list {
        type: DT_FLOAT
      }
    }
  }
}
node {
  name: "save/Assign"
  op: "Assign"
  input: "beta1_power"
  input: "save/RestoreV2"
  attr {
    key: "T"
    value {
      type: DT_FLOAT
    }
  }
  attr {
    key: "_class"
    value {
      list {
        s: "loc:@linear/size_bucketized/weights/part_0"
      }
    }
  }
  attr {
    key: "_output_shapes"
    value {
      list {
        shape {
        }
      }
    }
  }
  attr {
    key: "use_locking"
    value {
      b: true
    }
  }
  attr {
    key: "validate_shape"
    value {
      b: true
    }
  }
}
node {
  name: "save/RestoreV2_1/tensor_names"
  op: "Const"
  attr {
    key: "_output_shapes"
    value {
      list {
        shape {
          dim {
            size: 1
          }
        }
      }
    }
  }
  attr {
    key: "dtype"
    value {
      type: DT_STRING
    }
  }
  attr {
    key: "value"
    value {
      tensor {
        dtype: DT_STRING
        tensor_shape {
          dim {
            size: 1
          }
        }
        string_val: "beta2_power"
      }
    }
  }
}
node {
  name: "save/RestoreV2_1/shape_and_slices"
  op: "Const"
  attr {
    key: "_output_shapes"
    value {
      list {
        shape {
          dim {
            size: 1
          }
        }
      }
    }
  }
  attr {
    key: "dtype"
    value {
      type: DT_STRING
    }
  }
  attr {
    key: "value"
    value {
      tensor {
        dtype: DT_STRING
        tensor_shape {
          dim {
            size: 1
          }
        }
        string_val: ""
      }
    }
  }
}
node {
  name: "save/RestoreV2_1"
  op: "RestoreV2"
  input: "save/Const"
  input: "save/RestoreV2_1/tensor_names"
  input: "save/RestoreV2_1/shape_and_slices"
  attr {
    key: "_output_shapes"
    value {
      list {
        shape {
          unknown_rank: true
        }
      }
    }
  }
  attr {
    key: "dtypes"
    value {
      list {
        type: DT_FLOAT
      }
    }
  }
}
node {
  name: "save/Assign_1"
  op: "Assign"
  input: "beta2_power"
  input: "save/RestoreV2_1"
  attr {
    key: "T"
    value {
      type: DT_FLOAT
    }
  }
  attr {
    key: "_class"
    value {
      list {
        s: "loc:@linear/size_bucketized/weights/part_0"
      }
    }
  }
  attr {
    key: "_output_shapes"
    value {
      list {
        shape {
        }
      }
    }
  }
  attr {
    key: "use_locking"
    value {
      b: true
    }
  }
  attr {
    key: "validate_shape"
    value {
      b: true
    }
  }
}
node {
  name: "save/RestoreV2_2/tensor_names"
  op: "Const"
  attr {
    key: "_output_shapes"
    value {
      list {
        shape {
          dim {
            size: 1
          }
        }
      }
    }
  }
  attr {
    key: "dtype"
    value {
      type: DT_STRING
    }
  }
  attr {
    key: "value"
    value {
      tensor {
        dtype: DT_STRING
        tensor_shape {
          dim {
            size: 1
          }
        }
        string_val: "global_step"
      }
    }
  }
}
node {
  name: "save/RestoreV2_2/shape_and_slices"
  op: "Const"
  attr {
    key: "_output_shapes"
    value {
      list {
        shape {
          dim {
            size: 1
          }
        }
      }
    }
  }
  attr {
    key: "dtype"
    value {
      type: DT_STRING
    }
  }
  attr {
    key: "value"
    value {
      tensor {
        dtype: DT_STRING
        tensor_shape {
          dim {
            size: 1
          }
        }
        string_val: ""
      }
    }
  }
}
node {
  name: "save/RestoreV2_2"
  op: "RestoreV2"
  input: "save/Const"
  input: "save/RestoreV2_2/tensor_names"
  input: "save/RestoreV2_2/shape_and_slices"
  attr {
    key: "_output_shapes"
    value {
      list {
        shape {
          unknown_rank: true
        }
      }
    }
  }
  attr {
    key: "dtypes"
    value {
      list {
        type: DT_INT64
      }
    }
  }
}
node {
  name: "save/Assign_2"
  op: "Assign"
  input: "global_step"
  input: "save/RestoreV2_2"
  attr {
    key: "T"
    value {
      type: DT_INT64
    }
  }
  attr {
    key: "_class"
    value {
      list {
        s: "loc:@global_step"
      }
    }
  }
  attr {
    key: "_output_shapes"
    value {
      list {
        shape {
        }
      }
    }
  }
  attr {
    key: "use_locking"
    value {
      b: true
    }
  }
  attr {
    key: "validate_shape"
    value {
      b: true
    }
  }
}
node {
  name: "save/RestoreV2_3/tensor_names"
  op: "Const"
  attr {
    key: "_output_shapes"
    value {
      list {
        shape {
          dim {
            size: 1
          }
        }
      }
    }
  }
  attr {
    key: "dtype"
    value {
      type: DT_STRING
    }
  }
  attr {
    key: "value"
    value {
      tensor {
        dtype: DT_STRING
        tensor_shape {
          dim {
            size: 1
          }
        }
        string_val: "linear/avg/weight"
      }
    }
  }
}
node {
  name: "save/RestoreV2_3/shape_and_slices"
  op: "Const"
  attr {
    key: "_output_shapes"
    value {
      list {
        shape {
          dim {
            size: 1
          }
        }
      }
    }
  }
  attr {
    key: "dtype"
    value {
      type: DT_STRING
    }
  }
  attr {
    key: "value"
    value {
      tensor {
        dtype: DT_STRING
        tensor_shape {
          dim {
            size: 1
          }
        }
        string_val: "1 1 0,1:0,1"
      }
    }
  }
}
node {
  name: "save/RestoreV2_3"
  op: "RestoreV2"
  input: "save/Const"
  input: "save/RestoreV2_3/tensor_names"
  input: "save/RestoreV2_3/shape_and_slices"
  attr {
    key: "_output_shapes"
    value {
      list {
        shape {
          unknown_rank: true
        }
      }
    }
  }
  attr {
    key: "dtypes"
    value {
      list {
        type: DT_FLOAT
      }
    }
  }
}
node {
  name: "save/Assign_3"
  op: "Assign"
  input: "linear/avg/weight/part_0"
  input: "save/RestoreV2_3"
  attr {
    key: "T"
    value {
      type: DT_FLOAT
    }
  }
  attr {
    key: "_class"
    value {
      list {
        s: "loc:@linear/avg/weight/part_0"
      }
    }
  }
  attr {
    key: "_output_shapes"
    value {
      list {
        shape {
          dim {
            size: 1
          }
          dim {
            size: 1
          }
        }
      }
    }
  }
  attr {
    key: "use_locking"
    value {
      b: true
    }
  }
  attr {
    key: "validate_shape"
    value {
      b: true
    }
  }
}
node {
  name: "save/RestoreV2_4/tensor_names"
  op: "Const"
  attr {
    key: "_output_shapes"
    value {
      list {
        shape {
          dim {
            size: 1
          }
        }
      }
    }
  }
  attr {
    key: "dtype"
    value {
      type: DT_STRING
    }
  }
  attr {
    key: "value"
    value {
      tensor {
        dtype: DT_STRING
        tensor_shape {
          dim {
            size: 1
          }
        }
        string_val: "linear/avg/weight/Adam"
      }
    }
  }
}
node {
  name: "save/RestoreV2_4/shape_and_slices"
  op: "Const"
  attr {
    key: "_output_shapes"
    value {
      list {
        shape {
          dim {
            size: 1
          }
        }
      }
    }
  }
  attr {
    key: "dtype"
    value {
      type: DT_STRING
    }
  }
  attr {
    key: "value"
    value {
      tensor {
        dtype: DT_STRING
        tensor_shape {
          dim {
            size: 1
          }
        }
        string_val: "1 1 0,1:0,1"
      }
    }
  }
}
node {
  name: "save/RestoreV2_4"
  op: "RestoreV2"
  input: "save/Const"
  input: "save/RestoreV2_4/tensor_names"
  input: "save/RestoreV2_4/shape_and_slices"
  attr {
    key: "_output_shapes"
    value {
      list {
        shape {
          unknown_rank: true
        }
      }
    }
  }
  attr {
    key: "dtypes"
    value {
      list {
        type: DT_FLOAT
      }
    }
  }
}
node {
  name: "save/Assign_4"
  op: "Assign"
  input: "linear/avg/weight/part_0/Adam"
  input: "save/RestoreV2_4"
  attr {
    key: "T"
    value {
      type: DT_FLOAT
    }
  }
  attr {
    key: "_class"
    value {
      list {
        s: "loc:@linear/avg/weight/part_0"
      }
    }
  }
  attr {
    key: "_output_shapes"
    value {
      list {
        shape {
          dim {
            size: 1
          }
          dim {
            size: 1
          }
        }
      }
    }
  }
  attr {
    key: "use_locking"
    value {
      b: true
    }
  }
  attr {
    key: "validate_shape"
    value {
      b: true
    }
  }
}
node {
  name: "save/RestoreV2_5/tensor_names"
  op: "Const"
  attr {
    key: "_output_shapes"
    value {
      list {
        shape {
          dim {
            size: 1
          }
        }
      }
    }
  }
  attr {
    key: "dtype"
    value {
      type: DT_STRING
    }
  }
  attr {
    key: "value"
    value {
      tensor {
        dtype: DT_STRING
        tensor_shape {
          dim {
            size: 1
          }
        }
        string_val: "linear/avg/weight/Adam_1"
      }
    }
  }
}
node {
  name: "save/RestoreV2_5/shape_and_slices"
  op: "Const"
  attr {
    key: "_output_shapes"
    value {
      list {
        shape {
          dim {
            size: 1
          }
        }
      }
    }
  }
  attr {
    key: "dtype"
    value {
      type: DT_STRING
    }
  }
  attr {
    key: "value"
    value {
      tensor {
        dtype: DT_STRING
        tensor_shape {
          dim {
            size: 1
          }
        }
        string_val: "1 1 0,1:0,1"
      }
    }
  }
}
node {
  name: "save/RestoreV2_5"
  op: "RestoreV2"
  input: "save/Const"
  input: "save/RestoreV2_5/tensor_names"
  input: "save/RestoreV2_5/shape_and_slices"
  attr {
    key: "_output_shapes"
    value {
      list {
        shape {
          unknown_rank: true
        }
      }
    }
  }
  attr {
    key: "dtypes"
    value {
      list {
        type: DT_FLOAT
      }
    }
  }
}
node {
  name: "save/Assign_5"
  op: "Assign"
  input: "linear/avg/weight/part_0/Adam_1"
  input: "save/RestoreV2_5"
  attr {
    key: "T"
    value {
      type: DT_FLOAT
    }
  }
  attr {
    key: "_class"
    value {
      list {
        s: "loc:@linear/avg/weight/part_0"
      }
    }
  }
  attr {
    key: "_output_shapes"
    value {
      list {
        shape {
          dim {
            size: 1
          }
          dim {
            size: 1
          }
        }
      }
    }
  }
  attr {
    key: "use_locking"
    value {
      b: true
    }
  }
  attr {
    key: "validate_shape"
    value {
      b: true
    }
  }
}
node {
  name: "save/RestoreV2_6/tensor_names"
  op: "Const"
  attr {
    key: "_output_shapes"
    value {
      list {
        shape {
          dim {
            size: 1
          }
        }
      }
    }
  }
  attr {
    key: "dtype"
    value {
      type: DT_STRING
    }
  }
  attr {
    key: "value"
    value {
      tensor {
        dtype: DT_STRING
        tensor_shape {
          dim {
            size: 1
          }
        }
        string_val: "linear/bathroom/weight"
      }
    }
  }
}
node {
  name: "save/RestoreV2_6/shape_and_slices"
  op: "Const"
  attr {
    key: "_output_shapes"
    value {
      list {
        shape {
          dim {
            size: 1
          }
        }
      }
    }
  }
  attr {
    key: "dtype"
    value {
      type: DT_STRING
    }
  }
  attr {
    key: "value"
    value {
      tensor {
        dtype: DT_STRING
        tensor_shape {
          dim {
            size: 1
          }
        }
        string_val: "1 1 0,1:0,1"
      }
    }
  }
}
node {
  name: "save/RestoreV2_6"
  op: "RestoreV2"
  input: "save/Const"
  input: "save/RestoreV2_6/tensor_names"
  input: "save/RestoreV2_6/shape_and_slices"
  attr {
    key: "_output_shapes"
    value {
      list {
        shape {
          unknown_rank: true
        }
      }
    }
  }
  attr {
    key: "dtypes"
    value {
      list {
        type: DT_FLOAT
      }
    }
  }
}
node {
  name: "save/Assign_6"
  op: "Assign"
  input: "linear/bathroom/weight/part_0"
  input: "save/RestoreV2_6"
  attr {
    key: "T"
    value {
      type: DT_FLOAT
    }
  }
  attr {
    key: "_class"
    value {
      list {
        s: "loc:@linear/bathroom/weight/part_0"
      }
    }
  }
  attr {
    key: "_output_shapes"
    value {
      list {
        shape {
          dim {
            size: 1
          }
          dim {
            size: 1
          }
        }
      }
    }
  }
  attr {
    key: "use_locking"
    value {
      b: true
    }
  }
  attr {
    key: "validate_shape"
    value {
      b: true
    }
  }
}
node {
  name: "save/RestoreV2_7/tensor_names"
  op: "Const"
  attr {
    key: "_output_shapes"
    value {
      list {
        shape {
          dim {
            size: 1
          }
        }
      }
    }
  }
  attr {
    key: "dtype"
    value {
      type: DT_STRING
    }
  }
  attr {
    key: "value"
    value {
      tensor {
        dtype: DT_STRING
        tensor_shape {
          dim {
            size: 1
          }
        }
        string_val: "linear/bathroom/weight/Adam"
      }
    }
  }
}
node {
  name: "save/RestoreV2_7/shape_and_slices"
  op: "Const"
  attr {
    key: "_output_shapes"
    value {
      list {
        shape {
          dim {
            size: 1
          }
        }
      }
    }
  }
  attr {
    key: "dtype"
    value {
      type: DT_STRING
    }
  }
  attr {
    key: "value"
    value {
      tensor {
        dtype: DT_STRING
        tensor_shape {
          dim {
            size: 1
          }
        }
        string_val: "1 1 0,1:0,1"
      }
    }
  }
}
node {
  name: "save/RestoreV2_7"
  op: "RestoreV2"
  input: "save/Const"
  input: "save/RestoreV2_7/tensor_names"
  input: "save/RestoreV2_7/shape_and_slices"
  attr {
    key: "_output_shapes"
    value {
      list {
        shape {
          unknown_rank: true
        }
      }
    }
  }
  attr {
    key: "dtypes"
    value {
      list {
        type: DT_FLOAT
      }
    }
  }
}
node {
  name: "save/Assign_7"
  op: "Assign"
  input: "linear/bathroom/weight/part_0/Adam"
  input: "save/RestoreV2_7"
  attr {
    key: "T"
    value {
      type: DT_FLOAT
    }
  }
  attr {
    key: "_class"
    value {
      list {
        s: "loc:@linear/bathroom/weight/part_0"
      }
    }
  }
  attr {
    key: "_output_shapes"
    value {
      list {
        shape {
          dim {
            size: 1
          }
          dim {
            size: 1
          }
        }
      }
    }
  }
  attr {
    key: "use_locking"
    value {
      b: true
    }
  }
  attr {
    key: "validate_shape"
    value {
      b: true
    }
  }
}
node {
  name: "save/RestoreV2_8/tensor_names"
  op: "Const"
  attr {
    key: "_output_shapes"
    value {
      list {
        shape {
          dim {
            size: 1
          }
        }
      }
    }
  }
  attr {
    key: "dtype"
    value {
      type: DT_STRING
    }
  }
  attr {
    key: "value"
    value {
      tensor {
        dtype: DT_STRING
        tensor_shape {
          dim {
            size: 1
          }
        }
        string_val: "linear/bathroom/weight/Adam_1"
      }
    }
  }
}
node {
  name: "save/RestoreV2_8/shape_and_slices"
  op: "Const"
  attr {
    key: "_output_shapes"
    value {
      list {
        shape {
          dim {
            size: 1
          }
        }
      }
    }
  }
  attr {
    key: "dtype"
    value {
      type: DT_STRING
    }
  }
  attr {
    key: "value"
    value {
      tensor {
        dtype: DT_STRING
        tensor_shape {
          dim {
            size: 1
          }
        }
        string_val: "1 1 0,1:0,1"
      }
    }
  }
}
node {
  name: "save/RestoreV2_8"
  op: "RestoreV2"
  input: "save/Const"
  input: "save/RestoreV2_8/tensor_names"
  input: "save/RestoreV2_8/shape_and_slices"
  attr {
    key: "_output_shapes"
    value {
      list {
        shape {
          unknown_rank: true
        }
      }
    }
  }
  attr {
    key: "dtypes"
    value {
      list {
        type: DT_FLOAT
      }
    }
  }
}
node {
  name: "save/Assign_8"
  op: "Assign"
  input: "linear/bathroom/weight/part_0/Adam_1"
  input: "save/RestoreV2_8"
  attr {
    key: "T"
    value {
      type: DT_FLOAT
    }
  }
  attr {
    key: "_class"
    value {
      list {
        s: "loc:@linear/bathroom/weight/part_0"
      }
    }
  }
  attr {
    key: "_output_shapes"
    value {
      list {
        shape {
          dim {
            size: 1
          }
          dim {
            size: 1
          }
        }
      }
    }
  }
  attr {
    key: "use_locking"
    value {
      b: true
    }
  }
  attr {
    key: "validate_shape"
    value {
      b: true
    }
  }
}
node {
  name: "save/RestoreV2_9/tensor_names"
  op: "Const"
  attr {
    key: "_output_shapes"
    value {
      list {
        shape {
          dim {
            size: 1
          }
        }
      }
    }
  }
  attr {
    key: "dtype"
    value {
      type: DT_STRING
    }
  }
  attr {
    key: "value"
    value {
      tensor {
        dtype: DT_STRING
        tensor_shape {
          dim {
            size: 1
          }
        }
        string_val: "linear/bedroom/weight"
      }
    }
  }
}
node {
  name: "save/RestoreV2_9/shape_and_slices"
  op: "Const"
  attr {
    key: "_output_shapes"
    value {
      list {
        shape {
          dim {
            size: 1
          }
        }
      }
    }
  }
  attr {
    key: "dtype"
    value {
      type: DT_STRING
    }
  }
  attr {
    key: "value"
    value {
      tensor {
        dtype: DT_STRING
        tensor_shape {
          dim {
            size: 1
          }
        }
        string_val: "1 1 0,1:0,1"
      }
    }
  }
}
node {
  name: "save/RestoreV2_9"
  op: "RestoreV2"
  input: "save/Const"
  input: "save/RestoreV2_9/tensor_names"
  input: "save/RestoreV2_9/shape_and_slices"
  attr {
    key: "_output_shapes"
    value {
      list {
        shape {
          unknown_rank: true
        }
      }
    }
  }
  attr {
    key: "dtypes"
    value {
      list {
        type: DT_FLOAT
      }
    }
  }
}
node {
  name: "save/Assign_9"
  op: "Assign"
  input: "linear/bedroom/weight/part_0"
  input: "save/RestoreV2_9"
  attr {
    key: "T"
    value {
      type: DT_FLOAT
    }
  }
  attr {
    key: "_class"
    value {
      list {
        s: "loc:@linear/bedroom/weight/part_0"
      }
    }
  }
  attr {
    key: "_output_shapes"
    value {
      list {
        shape {
          dim {
            size: 1
          }
          dim {
            size: 1
          }
        }
      }
    }
  }
  attr {
    key: "use_locking"
    value {
      b: true
    }
  }
  attr {
    key: "validate_shape"
    value {
      b: true
    }
  }
}
node {
  name: "save/RestoreV2_10/tensor_names"
  op: "Const"
  attr {
    key: "_output_shapes"
    value {
      list {
        shape {
          dim {
            size: 1
          }
        }
      }
    }
  }
  attr {
    key: "dtype"
    value {
      type: DT_STRING
    }
  }
  attr {
    key: "value"
    value {
      tensor {
        dtype: DT_STRING
        tensor_shape {
          dim {
            size: 1
          }
        }
        string_val: "linear/bedroom/weight/Adam"
      }
    }
  }
}
node {
  name: "save/RestoreV2_10/shape_and_slices"
  op: "Const"
  attr {
    key: "_output_shapes"
    value {
      list {
        shape {
          dim {
            size: 1
          }
        }
      }
    }
  }
  attr {
    key: "dtype"
    value {
      type: DT_STRING
    }
  }
  attr {
    key: "value"
    value {
      tensor {
        dtype: DT_STRING
        tensor_shape {
          dim {
            size: 1
          }
        }
        string_val: "1 1 0,1:0,1"
      }
    }
  }
}
node {
  name: "save/RestoreV2_10"
  op: "RestoreV2"
  input: "save/Const"
  input: "save/RestoreV2_10/tensor_names"
  input: "save/RestoreV2_10/shape_and_slices"
  attr {
    key: "_output_shapes"
    value {
      list {
        shape {
          unknown_rank: true
        }
      }
    }
  }
  attr {
    key: "dtypes"
    value {
      list {
        type: DT_FLOAT
      }
    }
  }
}
node {
  name: "save/Assign_10"
  op: "Assign"
  input: "linear/bedroom/weight/part_0/Adam"
  input: "save/RestoreV2_10"
  attr {
    key: "T"
    value {
      type: DT_FLOAT
    }
  }
  attr {
    key: "_class"
    value {
      list {
        s: "loc:@linear/bedroom/weight/part_0"
      }
    }
  }
  attr {
    key: "_output_shapes"
    value {
      list {
        shape {
          dim {
            size: 1
          }
          dim {
            size: 1
          }
        }
      }
    }
  }
  attr {
    key: "use_locking"
    value {
      b: true
    }
  }
  attr {
    key: "validate_shape"
    value {
      b: true
    }
  }
}
node {
  name: "save/RestoreV2_11/tensor_names"
  op: "Const"
  attr {
    key: "_output_shapes"
    value {
      list {
        shape {
          dim {
            size: 1
          }
        }
      }
    }
  }
  attr {
    key: "dtype"
    value {
      type: DT_STRING
    }
  }
  attr {
    key: "value"
    value {
      tensor {
        dtype: DT_STRING
        tensor_shape {
          dim {
            size: 1
          }
        }
        string_val: "linear/bedroom/weight/Adam_1"
      }
    }
  }
}
node {
  name: "save/RestoreV2_11/shape_and_slices"
  op: "Const"
  attr {
    key: "_output_shapes"
    value {
      list {
        shape {
          dim {
            size: 1
          }
        }
      }
    }
  }
  attr {
    key: "dtype"
    value {
      type: DT_STRING
    }
  }
  attr {
    key: "value"
    value {
      tensor {
        dtype: DT_STRING
        tensor_shape {
          dim {
            size: 1
          }
        }
        string_val: "1 1 0,1:0,1"
      }
    }
  }
}
node {
  name: "save/RestoreV2_11"
  op: "RestoreV2"
  input: "save/Const"
  input: "save/RestoreV2_11/tensor_names"
  input: "save/RestoreV2_11/shape_and_slices"
  attr {
    key: "_output_shapes"
    value {
      list {
        shape {
          unknown_rank: true
        }
      }
    }
  }
  attr {
    key: "dtypes"
    value {
      list {
        type: DT_FLOAT
      }
    }
  }
}
node {
  name: "save/Assign_11"
  op: "Assign"
  input: "linear/bedroom/weight/part_0/Adam_1"
  input: "save/RestoreV2_11"
  attr {
    key: "T"
    value {
      type: DT_FLOAT
    }
  }
  attr {
    key: "_class"
    value {
      list {
        s: "loc:@linear/bedroom/weight/part_0"
      }
    }
  }
  attr {
    key: "_output_shapes"
    value {
      list {
        shape {
          dim {
            size: 1
          }
          dim {
            size: 1
          }
        }
      }
    }
  }
  attr {
    key: "use_locking"
    value {
      b: true
    }
  }
  attr {
    key: "validate_shape"
    value {
      b: true
    }
  }
}
node {
  name: "save/RestoreV2_12/tensor_names"
  op: "Const"
  attr {
    key: "_output_shapes"
    value {
      list {
        shape {
          dim {
            size: 1
          }
        }
      }
    }
  }
  attr {
    key: "dtype"
    value {
      type: DT_STRING
    }
  }
  attr {
    key: "value"
    value {
      tensor {
        dtype: DT_STRING
        tensor_shape {
          dim {
            size: 1
          }
        }
        string_val: "linear/bias_weight"
      }
    }
  }
}
node {
  name: "save/RestoreV2_12/shape_and_slices"
  op: "Const"
  attr {
    key: "_output_shapes"
    value {
      list {
        shape {
          dim {
            size: 1
          }
        }
      }
    }
  }
  attr {
    key: "dtype"
    value {
      type: DT_STRING
    }
  }
  attr {
    key: "value"
    value {
      tensor {
        dtype: DT_STRING
        tensor_shape {
          dim {
            size: 1
          }
        }
        string_val: "1 0,1"
      }
    }
  }
}
node {
  name: "save/RestoreV2_12"
  op: "RestoreV2"
  input: "save/Const"
  input: "save/RestoreV2_12/tensor_names"
  input: "save/RestoreV2_12/shape_and_slices"
  attr {
    key: "_output_shapes"
    value {
      list {
        shape {
          unknown_rank: true
        }
      }
    }
  }
  attr {
    key: "dtypes"
    value {
      list {
        type: DT_FLOAT
      }
    }
  }
}
node {
  name: "save/Assign_12"
  op: "Assign"
  input: "linear/bias_weight/part_0"
  input: "save/RestoreV2_12"
  attr {
    key: "T"
    value {
      type: DT_FLOAT
    }
  }
  attr {
    key: "_class"
    value {
      list {
        s: "loc:@linear/bias_weight/part_0"
      }
    }
  }
  attr {
    key: "_output_shapes"
    value {
      list {
        shape {
          dim {
            size: 1
          }
        }
      }
    }
  }
  attr {
    key: "use_locking"
    value {
      b: true
    }
  }
  attr {
    key: "validate_shape"
    value {
      b: true
    }
  }
}
node {
  name: "save/RestoreV2_13/tensor_names"
  op: "Const"
  attr {
    key: "_output_shapes"
    value {
      list {
        shape {
          dim {
            size: 1
          }
        }
      }
    }
  }
  attr {
    key: "dtype"
    value {
      type: DT_STRING
    }
  }
  attr {
    key: "value"
    value {
      tensor {
        dtype: DT_STRING
        tensor_shape {
          dim {
            size: 1
          }
        }
        string_val: "linear/bias_weight/Adam"
      }
    }
  }
}
node {
  name: "save/RestoreV2_13/shape_and_slices"
  op: "Const"
  attr {
    key: "_output_shapes"
    value {
      list {
        shape {
          dim {
            size: 1
          }
        }
      }
    }
  }
  attr {
    key: "dtype"
    value {
      type: DT_STRING
    }
  }
  attr {
    key: "value"
    value {
      tensor {
        dtype: DT_STRING
        tensor_shape {
          dim {
            size: 1
          }
        }
        string_val: "1 0,1"
      }
    }
  }
}
node {
  name: "save/RestoreV2_13"
  op: "RestoreV2"
  input: "save/Const"
  input: "save/RestoreV2_13/tensor_names"
  input: "save/RestoreV2_13/shape_and_slices"
  attr {
    key: "_output_shapes"
    value {
      list {
        shape {
          unknown_rank: true
        }
      }
    }
  }
  attr {
    key: "dtypes"
    value {
      list {
        type: DT_FLOAT
      }
    }
  }
}
node {
  name: "save/Assign_13"
  op: "Assign"
  input: "linear/bias_weight/part_0/Adam"
  input: "save/RestoreV2_13"
  attr {
    key: "T"
    value {
      type: DT_FLOAT
    }
  }
  attr {
    key: "_class"
    value {
      list {
        s: "loc:@linear/bias_weight/part_0"
      }
    }
  }
  attr {
    key: "_output_shapes"
    value {
      list {
        shape {
          dim {
            size: 1
          }
        }
      }
    }
  }
  attr {
    key: "use_locking"
    value {
      b: true
    }
  }
  attr {
    key: "validate_shape"
    value {
      b: true
    }
  }
}
node {
  name: "save/RestoreV2_14/tensor_names"
  op: "Const"
  attr {
    key: "_output_shapes"
    value {
      list {
        shape {
          dim {
            size: 1
          }
        }
      }
    }
  }
  attr {
    key: "dtype"
    value {
      type: DT_STRING
    }
  }
  attr {
    key: "value"
    value {
      tensor {
        dtype: DT_STRING
        tensor_shape {
          dim {
            size: 1
          }
        }
        string_val: "linear/bias_weight/Adam_1"
      }
    }
  }
}
node {
  name: "save/RestoreV2_14/shape_and_slices"
  op: "Const"
  attr {
    key: "_output_shapes"
    value {
      list {
        shape {
          dim {
            size: 1
          }
        }
      }
    }
  }
  attr {
    key: "dtype"
    value {
      type: DT_STRING
    }
  }
  attr {
    key: "value"
    value {
      tensor {
        dtype: DT_STRING
        tensor_shape {
          dim {
            size: 1
          }
        }
        string_val: "1 0,1"
      }
    }
  }
}
node {
  name: "save/RestoreV2_14"
  op: "RestoreV2"
  input: "save/Const"
  input: "save/RestoreV2_14/tensor_names"
  input: "save/RestoreV2_14/shape_and_slices"
  attr {
    key: "_output_shapes"
    value {
      list {
        shape {
          unknown_rank: true
        }
      }
    }
  }
  attr {
    key: "dtypes"
    value {
      list {
        type: DT_FLOAT
      }
    }
  }
}
node {
  name: "save/Assign_14"
  op: "Assign"
  input: "linear/bias_weight/part_0/Adam_1"
  input: "save/RestoreV2_14"
  attr {
    key: "T"
    value {
      type: DT_FLOAT
    }
  }
  attr {
    key: "_class"
    value {
      list {
        s: "loc:@linear/bias_weight/part_0"
      }
    }
  }
  attr {
    key: "_output_shapes"
    value {
      list {
        shape {
          dim {
            size: 1
          }
        }
      }
    }
  }
  attr {
    key: "use_locking"
    value {
      b: true
    }
  }
  attr {
    key: "validate_shape"
    value {
      b: true
    }
  }
}
node {
  name: "save/RestoreV2_15/tensor_names"
  op: "Const"
  attr {
    key: "_output_shapes"
    value {
      list {
        shape {
          dim {
            size: 1
          }
        }
      }
    }
  }
  attr {
    key: "dtype"
    value {
      type: DT_STRING
    }
  }
  attr {
    key: "value"
    value {
      tensor {
        dtype: DT_STRING
        tensor_shape {
          dim {
            size: 1
          }
        }
        string_val: "linear/property_type/weights"
      }
    }
  }
}
node {
  name: "save/RestoreV2_15/shape_and_slices"
  op: "Const"
  attr {
    key: "_output_shapes"
    value {
      list {
        shape {
          dim {
            size: 1
          }
        }
      }
    }
  }
  attr {
    key: "dtype"
    value {
      type: DT_STRING
    }
  }
  attr {
    key: "value"
    value {
      tensor {
        dtype: DT_STRING
        tensor_shape {
          dim {
            size: 1
          }
        }
        string_val: "100 1 0,100:0,1"
      }
    }
  }
}
node {
  name: "save/RestoreV2_15"
  op: "RestoreV2"
  input: "save/Const"
  input: "save/RestoreV2_15/tensor_names"
  input: "save/RestoreV2_15/shape_and_slices"
  attr {
    key: "_output_shapes"
    value {
      list {
        shape {
          unknown_rank: true
        }
      }
    }
  }
  attr {
    key: "dtypes"
    value {
      list {
        type: DT_FLOAT
      }
    }
  }
}
node {
  name: "save/Assign_15"
  op: "Assign"
  input: "linear/property_type/weights/part_0"
  input: "save/RestoreV2_15"
  attr {
    key: "T"
    value {
      type: DT_FLOAT
    }
  }
  attr {
    key: "_class"
    value {
      list {
        s: "loc:@linear/property_type/weights/part_0"
      }
    }
  }
  attr {
    key: "_output_shapes"
    value {
      list {
        shape {
          dim {
            size: 100
          }
          dim {
            size: 1
          }
        }
      }
    }
  }
  attr {
    key: "use_locking"
    value {
      b: true
    }
  }
  attr {
    key: "validate_shape"
    value {
      b: true
    }
  }
}
node {
  name: "save/RestoreV2_16/tensor_names"
  op: "Const"
  attr {
    key: "_output_shapes"
    value {
      list {
        shape {
          dim {
            size: 1
          }
        }
      }
    }
  }
  attr {
    key: "dtype"
    value {
      type: DT_STRING
    }
  }
  attr {
    key: "value"
    value {
      tensor {
        dtype: DT_STRING
        tensor_shape {
          dim {
            size: 1
          }
        }
        string_val: "linear/property_type/weights/Adam"
      }
    }
  }
}
node {
  name: "save/RestoreV2_16/shape_and_slices"
  op: "Const"
  attr {
    key: "_output_shapes"
    value {
      list {
        shape {
          dim {
            size: 1
          }
        }
      }
    }
  }
  attr {
    key: "dtype"
    value {
      type: DT_STRING
    }
  }
  attr {
    key: "value"
    value {
      tensor {
        dtype: DT_STRING
        tensor_shape {
          dim {
            size: 1
          }
        }
        string_val: "100 1 0,100:0,1"
      }
    }
  }
}
node {
  name: "save/RestoreV2_16"
  op: "RestoreV2"
  input: "save/Const"
  input: "save/RestoreV2_16/tensor_names"
  input: "save/RestoreV2_16/shape_and_slices"
  attr {
    key: "_output_shapes"
    value {
      list {
        shape {
          unknown_rank: true
        }
      }
    }
  }
  attr {
    key: "dtypes"
    value {
      list {
        type: DT_FLOAT
      }
    }
  }
}
node {
  name: "save/Assign_16"
  op: "Assign"
  input: "linear/property_type/weights/part_0/Adam"
  input: "save/RestoreV2_16"
  attr {
    key: "T"
    value {
      type: DT_FLOAT
    }
  }
  attr {
    key: "_class"
    value {
      list {
        s: "loc:@linear/property_type/weights/part_0"
      }
    }
  }
  attr {
    key: "_output_shapes"
    value {
      list {
        shape {
          dim {
            size: 100
          }
          dim {
            size: 1
          }
        }
      }
    }
  }
  attr {
    key: "use_locking"
    value {
      b: true
    }
  }
  attr {
    key: "validate_shape"
    value {
      b: true
    }
  }
}
node {
  name: "save/RestoreV2_17/tensor_names"
  op: "Const"
  attr {
    key: "_output_shapes"
    value {
      list {
        shape {
          dim {
            size: 1
          }
        }
      }
    }
  }
  attr {
    key: "dtype"
    value {
      type: DT_STRING
    }
  }
  attr {
    key: "value"
    value {
      tensor {
        dtype: DT_STRING
        tensor_shape {
          dim {
            size: 1
          }
        }
        string_val: "linear/property_type/weights/Adam_1"
      }
    }
  }
}
node {
  name: "save/RestoreV2_17/shape_and_slices"
  op: "Const"
  attr {
    key: "_output_shapes"
    value {
      list {
        shape {
          dim {
            size: 1
          }
        }
      }
    }
  }
  attr {
    key: "dtype"
    value {
      type: DT_STRING
    }
  }
  attr {
    key: "value"
    value {
      tensor {
        dtype: DT_STRING
        tensor_shape {
          dim {
            size: 1
          }
        }
        string_val: "100 1 0,100:0,1"
      }
    }
  }
}
node {
  name: "save/RestoreV2_17"
  op: "RestoreV2"
  input: "save/Const"
  input: "save/RestoreV2_17/tensor_names"
  input: "save/RestoreV2_17/shape_and_slices"
  attr {
    key: "_output_shapes"
    value {
      list {
        shape {
          unknown_rank: true
        }
      }
    }
  }
  attr {
    key: "dtypes"
    value {
      list {
        type: DT_FLOAT
      }
    }
  }
}
node {
  name: "save/Assign_17"
  op: "Assign"
  input: "linear/property_type/weights/part_0/Adam_1"
  input: "save/RestoreV2_17"
  attr {
    key: "T"
    value {
      type: DT_FLOAT
    }
  }
  attr {
    key: "_class"
    value {
      list {
        s: "loc:@linear/property_type/weights/part_0"
      }
    }
  }
  attr {
    key: "_output_shapes"
    value {
      list {
        shape {
          dim {
            size: 100
          }
          dim {
            size: 1
          }
        }
      }
    }
  }
  attr {
    key: "use_locking"
    value {
      b: true
    }
  }
  attr {
    key: "validate_shape"
    value {
      b: true
    }
  }
}
node {
  name: "save/RestoreV2_18/tensor_names"
  op: "Const"
  attr {
    key: "_output_shapes"
    value {
      list {
        shape {
          dim {
            size: 1
          }
        }
      }
    }
  }
  attr {
    key: "dtype"
    value {
      type: DT_STRING
    }
  }
  attr {
    key: "value"
    value {
      tensor {
        dtype: DT_STRING
        tensor_shape {
          dim {
            size: 1
          }
        }
        string_val: "linear/school_rating/weight"
      }
    }
  }
}
node {
  name: "save/RestoreV2_18/shape_and_slices"
  op: "Const"
  attr {
    key: "_output_shapes"
    value {
      list {
        shape {
          dim {
            size: 1
          }
        }
      }
    }
  }
  attr {
    key: "dtype"
    value {
      type: DT_STRING
    }
  }
  attr {
    key: "value"
    value {
      tensor {
        dtype: DT_STRING
        tensor_shape {
          dim {
            size: 1
          }
        }
        string_val: "1 1 0,1:0,1"
      }
    }
  }
}
node {
  name: "save/RestoreV2_18"
  op: "RestoreV2"
  input: "save/Const"
  input: "save/RestoreV2_18/tensor_names"
  input: "save/RestoreV2_18/shape_and_slices"
  attr {
    key: "_output_shapes"
    value {
      list {
        shape {
          unknown_rank: true
        }
      }
    }
  }
  attr {
    key: "dtypes"
    value {
      list {
        type: DT_FLOAT
      }
    }
  }
}
node {
  name: "save/Assign_18"
  op: "Assign"
  input: "linear/school_rating/weight/part_0"
  input: "save/RestoreV2_18"
  attr {
    key: "T"
    value {
      type: DT_FLOAT
    }
  }
  attr {
    key: "_class"
    value {
      list {
        s: "loc:@linear/school_rating/weight/part_0"
      }
    }
  }
  attr {
    key: "_output_shapes"
    value {
      list {
        shape {
          dim {
            size: 1
          }
          dim {
            size: 1
          }
        }
      }
    }
  }
  attr {
    key: "use_locking"
    value {
      b: true
    }
  }
  attr {
    key: "validate_shape"
    value {
      b: true
    }
  }
}
node {
  name: "save/RestoreV2_19/tensor_names"
  op: "Const"
  attr {
    key: "_output_shapes"
    value {
      list {
        shape {
          dim {
            size: 1
          }
        }
      }
    }
  }
  attr {
    key: "dtype"
    value {
      type: DT_STRING
    }
  }
  attr {
    key: "value"
    value {
      tensor {
        dtype: DT_STRING
        tensor_shape {
          dim {
            size: 1
          }
        }
        string_val: "linear/school_rating/weight/Adam"
      }
    }
  }
}
node {
  name: "save/RestoreV2_19/shape_and_slices"
  op: "Const"
  attr {
    key: "_output_shapes"
    value {
      list {
        shape {
          dim {
            size: 1
          }
        }
      }
    }
  }
  attr {
    key: "dtype"
    value {
      type: DT_STRING
    }
  }
  attr {
    key: "value"
    value {
      tensor {
        dtype: DT_STRING
        tensor_shape {
          dim {
            size: 1
          }
        }
        string_val: "1 1 0,1:0,1"
      }
    }
  }
}
node {
  name: "save/RestoreV2_19"
  op: "RestoreV2"
  input: "save/Const"
  input: "save/RestoreV2_19/tensor_names"
  input: "save/RestoreV2_19/shape_and_slices"
  attr {
    key: "_output_shapes"
    value {
      list {
        shape {
          unknown_rank: true
        }
      }
    }
  }
  attr {
    key: "dtypes"
    value {
      list {
        type: DT_FLOAT
      }
    }
  }
}
node {
  name: "save/Assign_19"
  op: "Assign"
  input: "linear/school_rating/weight/part_0/Adam"
  input: "save/RestoreV2_19"
  attr {
    key: "T"
    value {
      type: DT_FLOAT
    }
  }
  attr {
    key: "_class"
    value {
      list {
        s: "loc:@linear/school_rating/weight/part_0"
      }
    }
  }
  attr {
    key: "_output_shapes"
    value {
      list {
        shape {
          dim {
            size: 1
          }
          dim {
            size: 1
          }
        }
      }
    }
  }
  attr {
    key: "use_locking"
    value {
      b: true
    }
  }
  attr {
    key: "validate_shape"
    value {
      b: true
    }
  }
}
node {
  name: "save/RestoreV2_20/tensor_names"
  op: "Const"
  attr {
    key: "_output_shapes"
    value {
      list {
        shape {
          dim {
            size: 1
          }
        }
      }
    }
  }
  attr {
    key: "dtype"
    value {
      type: DT_STRING
    }
  }
  attr {
    key: "value"
    value {
      tensor {
        dtype: DT_STRING
        tensor_shape {
          dim {
            size: 1
          }
        }
        string_val: "linear/school_rating/weight/Adam_1"
      }
    }
  }
}
node {
  name: "save/RestoreV2_20/shape_and_slices"
  op: "Const"
  attr {
    key: "_output_shapes"
    value {
      list {
        shape {
          dim {
            size: 1
          }
        }
      }
    }
  }
  attr {
    key: "dtype"
    value {
      type: DT_STRING
    }
  }
  attr {
    key: "value"
    value {
      tensor {
        dtype: DT_STRING
        tensor_shape {
          dim {
            size: 1
          }
        }
        string_val: "1 1 0,1:0,1"
      }
    }
  }
}
node {
  name: "save/RestoreV2_20"
  op: "RestoreV2"
  input: "save/Const"
  input: "save/RestoreV2_20/tensor_names"
  input: "save/RestoreV2_20/shape_and_slices"
  attr {
    key: "_output_shapes"
    value {
      list {
        shape {
          unknown_rank: true
        }
      }
    }
  }
  attr {
    key: "dtypes"
    value {
      list {
        type: DT_FLOAT
      }
    }
  }
}
node {
  name: "save/Assign_20"
  op: "Assign"
  input: "linear/school_rating/weight/part_0/Adam_1"
  input: "save/RestoreV2_20"
  attr {
    key: "T"
    value {
      type: DT_FLOAT
    }
  }
  attr {
    key: "_class"
    value {
      list {
        s: "loc:@linear/school_rating/weight/part_0"
      }
    }
  }
  attr {
    key: "_output_shapes"
    value {
      list {
        shape {
          dim {
            size: 1
          }
          dim {
            size: 1
          }
        }
      }
    }
  }
  attr {
    key: "use_locking"
    value {
      b: true
    }
  }
  attr {
    key: "validate_shape"
    value {
      b: true
    }
  }
}
node {
  name: "save/RestoreV2_21/tensor_names"
  op: "Const"
  attr {
    key: "_output_shapes"
    value {
      list {
        shape {
          dim {
            size: 1
          }
        }
      }
    }
  }
  attr {
    key: "dtype"
    value {
      type: DT_STRING
    }
  }
  attr {
    key: "value"
    value {
      tensor {
        dtype: DT_STRING
        tensor_shape {
          dim {
            size: 1
          }
        }
        string_val: "linear/size_bucketized/weights"
      }
    }
  }
}
node {
  name: "save/RestoreV2_21/shape_and_slices"
  op: "Const"
  attr {
    key: "_output_shapes"
    value {
      list {
        shape {
          dim {
            size: 1
          }
        }
      }
    }
  }
  attr {
    key: "dtype"
    value {
      type: DT_STRING
    }
  }
  attr {
    key: "value"
    value {
      tensor {
        dtype: DT_STRING
        tensor_shape {
          dim {
            size: 1
          }
        }
        string_val: "31 1 0,31:0,1"
      }
    }
  }
}
node {
  name: "save/RestoreV2_21"
  op: "RestoreV2"
  input: "save/Const"
  input: "save/RestoreV2_21/tensor_names"
  input: "save/RestoreV2_21/shape_and_slices"
  attr {
    key: "_output_shapes"
    value {
      list {
        shape {
          unknown_rank: true
        }
      }
    }
  }
  attr {
    key: "dtypes"
    value {
      list {
        type: DT_FLOAT
      }
    }
  }
}
node {
  name: "save/Assign_21"
  op: "Assign"
  input: "linear/size_bucketized/weights/part_0"
  input: "save/RestoreV2_21"
  attr {
    key: "T"
    value {
      type: DT_FLOAT
    }
  }
  attr {
    key: "_class"
    value {
      list {
        s: "loc:@linear/size_bucketized/weights/part_0"
      }
    }
  }
  attr {
    key: "_output_shapes"
    value {
      list {
        shape {
          dim {
            size: 31
          }
          dim {
            size: 1
          }
        }
      }
    }
  }
  attr {
    key: "use_locking"
    value {
      b: true
    }
  }
  attr {
    key: "validate_shape"
    value {
      b: true
    }
  }
}
node {
  name: "save/RestoreV2_22/tensor_names"
  op: "Const"
  attr {
    key: "_output_shapes"
    value {
      list {
        shape {
          dim {
            size: 1
          }
        }
      }
    }
  }
  attr {
    key: "dtype"
    value {
      type: DT_STRING
    }
  }
  attr {
    key: "value"
    value {
      tensor {
        dtype: DT_STRING
        tensor_shape {
          dim {
            size: 1
          }
        }
        string_val: "linear/size_bucketized/weights/Adam"
      }
    }
  }
}
node {
  name: "save/RestoreV2_22/shape_and_slices"
  op: "Const"
  attr {
    key: "_output_shapes"
    value {
      list {
        shape {
          dim {
            size: 1
          }
        }
      }
    }
  }
  attr {
    key: "dtype"
    value {
      type: DT_STRING
    }
  }
  attr {
    key: "value"
    value {
      tensor {
        dtype: DT_STRING
        tensor_shape {
          dim {
            size: 1
          }
        }
        string_val: "31 1 0,31:0,1"
      }
    }
  }
}
node {
  name: "save/RestoreV2_22"
  op: "RestoreV2"
  input: "save/Const"
  input: "save/RestoreV2_22/tensor_names"
  input: "save/RestoreV2_22/shape_and_slices"
  attr {
    key: "_output_shapes"
    value {
      list {
        shape {
          unknown_rank: true
        }
      }
    }
  }
  attr {
    key: "dtypes"
    value {
      list {
        type: DT_FLOAT
      }
    }
  }
}
node {
  name: "save/Assign_22"
  op: "Assign"
  input: "linear/size_bucketized/weights/part_0/Adam"
  input: "save/RestoreV2_22"
  attr {
    key: "T"
    value {
      type: DT_FLOAT
    }
  }
  attr {
    key: "_class"
    value {
      list {
        s: "loc:@linear/size_bucketized/weights/part_0"
      }
    }
  }
  attr {
    key: "_output_shapes"
    value {
      list {
        shape {
          dim {
            size: 31
          }
          dim {
            size: 1
          }
        }
      }
    }
  }
  attr {
    key: "use_locking"
    value {
      b: true
    }
  }
  attr {
    key: "validate_shape"
    value {
      b: true
    }
  }
}
node {
  name: "save/RestoreV2_23/tensor_names"
  op: "Const"
  attr {
    key: "_output_shapes"
    value {
      list {
        shape {
          dim {
            size: 1
          }
        }
      }
    }
  }
  attr {
    key: "dtype"
    value {
      type: DT_STRING
    }
  }
  attr {
    key: "value"
    value {
      tensor {
        dtype: DT_STRING
        tensor_shape {
          dim {
            size: 1
          }
        }
        string_val: "linear/size_bucketized/weights/Adam_1"
      }
    }
  }
}
node {
  name: "save/RestoreV2_23/shape_and_slices"
  op: "Const"
  attr {
    key: "_output_shapes"
    value {
      list {
        shape {
          dim {
            size: 1
          }
        }
      }
    }
  }
  attr {
    key: "dtype"
    value {
      type: DT_STRING
    }
  }
  attr {
    key: "value"
    value {
      tensor {
        dtype: DT_STRING
        tensor_shape {
          dim {
            size: 1
          }
        }
        string_val: "31 1 0,31:0,1"
      }
    }
  }
}
node {
  name: "save/RestoreV2_23"
  op: "RestoreV2"
  input: "save/Const"
  input: "save/RestoreV2_23/tensor_names"
  input: "save/RestoreV2_23/shape_and_slices"
  attr {
    key: "_output_shapes"
    value {
      list {
        shape {
          unknown_rank: true
        }
      }
    }
  }
  attr {
    key: "dtypes"
    value {
      list {
        type: DT_FLOAT
      }
    }
  }
}
node {
  name: "save/Assign_23"
  op: "Assign"
  input: "linear/size_bucketized/weights/part_0/Adam_1"
  input: "save/RestoreV2_23"
  attr {
    key: "T"
    value {
      type: DT_FLOAT
    }
  }
  attr {
    key: "_class"
    value {
      list {
        s: "loc:@linear/size_bucketized/weights/part_0"
      }
    }
  }
  attr {
    key: "_output_shapes"
    value {
      list {
        shape {
          dim {
            size: 31
          }
          dim {
            size: 1
          }
        }
      }
    }
  }
  attr {
    key: "use_locking"
    value {
      b: true
    }
  }
  attr {
    key: "validate_shape"
    value {
      b: true
    }
  }
}
node {
  name: "save/restore_shard"
  op: "NoOp"
  input: "^save/Assign"
  input: "^save/Assign_1"
  input: "^save/Assign_2"
  input: "^save/Assign_3"
  input: "^save/Assign_4"
  input: "^save/Assign_5"
  input: "^save/Assign_6"
  input: "^save/Assign_7"
  input: "^save/Assign_8"
  input: "^save/Assign_9"
  input: "^save/Assign_10"
  input: "^save/Assign_11"
  input: "^save/Assign_12"
  input: "^save/Assign_13"
  input: "^save/Assign_14"
  input: "^save/Assign_15"
  input: "^save/Assign_16"
  input: "^save/Assign_17"
  input: "^save/Assign_18"
  input: "^save/Assign_19"
  input: "^save/Assign_20"
  input: "^save/Assign_21"
  input: "^save/Assign_22"
  input: "^save/Assign_23"
}
node {
  name: "save/restore_all"
  op: "NoOp"
  input: "^save/restore_shard"
}
versions {
  producer: 17
}
