node {
  name: "global_step"
  op: "Variable"
  attr {
    key: "_output_shapes"
    value {
      list {
        shape {
        }
      }
    }
  }
  attr {
    key: "container"
    value {
      s: ""
    }
  }
  attr {
    key: "dtype"
    value {
      type: DT_INT64
    }
  }
  attr {
    key: "shape"
    value {
      shape {
      }
    }
  }
  attr {
    key: "shared_name"
    value {
      s: ""
    }
  }
}
node {
  name: "global_step/Initializer/zeros"
  op: "Const"
  attr {
    key: "_class"
    value {
      list {
        s: "loc:@global_step"
      }
    }
  }
  attr {
    key: "_output_shapes"
    value {
      list {
        shape {
        }
      }
    }
  }
  attr {
    key: "dtype"
    value {
      type: DT_INT64
    }
  }
  attr {
    key: "value"
    value {
      tensor {
        dtype: DT_INT64
        tensor_shape {
        }
        int64_val: 0
      }
    }
  }
}
node {
  name: "global_step/Assign"
  op: "Assign"
  input: "global_step"
  input: "global_step/Initializer/zeros"
  attr {
    key: "T"
    value {
      type: DT_INT64
    }
  }
  attr {
    key: "_class"
    value {
      list {
        s: "loc:@global_step"
      }
    }
  }
  attr {
    key: "_output_shapes"
    value {
      list {
        shape {
        }
      }
    }
  }
  attr {
    key: "use_locking"
    value {
      b: true
    }
  }
  attr {
    key: "validate_shape"
    value {
      b: true
    }
  }
}
node {
  name: "global_step/read"
  op: "Identity"
  input: "global_step"
  attr {
    key: "T"
    value {
      type: DT_INT64
    }
  }
  attr {
    key: "_class"
    value {
      list {
        s: "loc:@global_step"
      }
    }
  }
  attr {
    key: "_output_shapes"
    value {
      list {
        shape {
        }
      }
    }
  }
}
node {
  name: "Const"
  op: "Const"
  attr {
    key: "_output_shapes"
    value {
      list {
        shape {
          dim {
            size: 8832
          }
        }
      }
    }
  }
  attr {
    key: "dtype"
    value {
      type: DT_FLOAT
    }
  }
  attr {
    key: "value"
    value {
      tensor {
        dtype: DT_FLOAT
        tensor_shape {
          dim {
            size: 8832
          }
        }
        tensor_content: "…"
      }
    }
  }
}
node {
  name: "Const_1"
  op: "Const"
  attr {
    key: "_output_shapes"
    value {
      list {
        shape {
          dim {
            size: 8832
          }
        }
      }
    }
  }
  attr {
    key: "dtype"
    value {
      type: DT_FLOAT
    }
  }
  attr {
    key: "value"
    value {
      tensor {
        dtype: DT_FLOAT
        tensor_shape {
          dim {
            size: 8832
          }
        }
        tensor_content: "…"
      }
    }
  }
}
node {
  name: "Const_2"
  op: "Const"
  attr {
    key: "_output_shapes"
    value {
      list {
        shape {
          dim {
            size: 8832
          }
        }
      }
    }
  }
  attr {
    key: "dtype"
    value {
      type: DT_FLOAT
    }
  }
  attr {
    key: "value"
    value {
      tensor {
        dtype: DT_FLOAT
        tensor_shape {
          dim {
            size: 8832
          }
        }
        tensor_content: "…"
      }
    }
  }
}
node {
  name: "Const_3"
  op: "Const"
  attr {
    key: "_output_shapes"
    value {
      list {
        shape {
          dim {
            size: 8832
          }
        }
      }
    }
  }
  attr {
    key: "dtype"
    value {
      type: DT_FLOAT
    }
  }
  attr {
    key: "value"
    value {
      tensor {
        dtype: DT_FLOAT
        tensor_shape {
          dim {
            size: 8832
          }
        }
        tensor_content: "…"
      }
    }
  }
}
node {
  name: "Const_4"
  op: "Const"
  attr {
    key: "_output_shapes"
    value {
      list {
        shape {
          dim {
            size: 8832
          }
        }
      }
    }
  }
  attr {
    key: "dtype"
    value {
      type: DT_FLOAT
    }
  }
  attr {
    key: "value"
    value {
      tensor {
        dtype: DT_FLOAT
        tensor_shape {
          dim {
            size: 8832
          }
        }
        tensor_content: "…"
      }
    }
  }
}
node {
  name: "SparseTensor/indices"
  op: "Const"
  attr {
    key: "_output_shapes"
    value {
      list {
        shape {
          dim {
            size: 8832
          }
          dim {
            size: 2
          }
        }
      }
    }
  }
  attr {
    key: "dtype"
    value {
      type: DT_INT64
    }
  }
  attr {
    key: "value"
    value {
      tensor {
        dtype: DT_INT64
        tensor_shape {
          dim {
            size: 8832
          }
          dim {
            size: 2
          }
        }
        tensor_content: "…"
      }
    }
  }
}
node {
  name: "SparseTensor/values"
  op: "Const"
  attr {
    key: "_output_shapes"
    value {
      list {
        shape {
          dim {
            size: 8832
          }
        }
      }
    }
  }
  attr {
    key: "dtype"
    value {
      type: DT_STRING
    }
  }
  attr {
    key: "value"
    value {
      tensor {
        dtype: DT_STRING
        tensor_shape {
          dim {
            size: 8832
          }
        }
        string_val: "Condo"
        string_val: "Single Family"
        string_val: "Single Family"
        string_val: "Single Family"
        string_val: "Single Family"
        string_val: "Single Family"
        string_val: "Condo"
        string_val: "Condo"
        string_val: "Single Family"
        string_val: "Single Family"
        string_val: "Condo"
        string_val: "Multi Family"
        string_val: "Multi Family"
        string_val: "Single Family"
        string_val: "Single Family"
        string_val: "Single Family"
        string_val: "Condo"
        string_val: "Single Family"
        string_val: "Condo"
        string_val: "Single Family"
        string_val: "Single Family"
        string_val: "Single Family"
        string_val: "Single Family"
        string_val: "Condo"
        string_val: "Single Family"
        string_val: "Condo"
        string_val: "Single Family"
        string_val: "Single Family"
        string_val: "Condo"
        string_val: "Condo"
        string_val: "Single Family"
        string_val: "Single Family"
        string_val: "Mobile / Manufactured"
        string_val: "Single Family"
        string_val: "Condo"
        string_val: "Single Family"
        string_val: "Single Family"
        string_val: "Single Family"
        string_val: "Condo"
        string_val: "Condo"
        string_val: "Condo"
        string_val: "Condo"
        string_val: "Single Family"
        string_val: "Condo"
        string_val: "Condo"
        string_val: "Condo"
        string_val: "Single Family"
        string_val: "Single Family"
        string_val: "Condo"
        string_val: "Single Family"
        string_val: "Multiple Occupancy"
        string_val: "Single Family"
        string_val: "Condo"
        string_val: "Condo"
        string_val: "Single Family"
        string_val: "Multi Family"
        string_val: "Single Family"
        string_val: "Condo"
        string_val: "Single Family"
        string_val: "Single Family"
        string_val: "Multiple Occupancy"
        string_val: "Single Family"
        string_val: "Single Family"
        string_val: "Single Family"
        string_val: "Condo"
        string_val: "Condo"
        string_val: "Single Family"
        string_val: "Condo"
        string_val: "Single Family"
        string_val: "Single Family"
        string_val: "Single Family"
        string_val: "Condo"
        string_val: "Single Family"
        string_val: "Condo"
        string_val: "Single Family"
        string_val: "Single Family"
        string_val: "Condo"
        string_val: "Single Family"
        string_val: "Condo"
        string_val: "Single Family"
        string_val: "Single Family"
        string_val: "Single Family"
        string_val: "Single Family"
        string_val: "Single Family"
        string_val: "Single Family"
        string_val: "Single Family"
        string_val: "Multiple Occupancy"
        string_val: "Single Family"
        string_val: "Single Family"
        string_val: "Single Family"
        string_val: "Condo"
        string_val: "Single Family"
        string_val: "Mobile / Manufactured"
        string_val: "Single Family"
        string_val: "Single Family"
        string_val: "Single Family"
        string_val: "Condo"
        string_val: "Condo"
        string_val: "Multi Family"
        string_val: "Condo"
        string_val: "Condo"
        string_val: "Condo"
        string_val: "Single Family"
        string_val: "Single Family"
        string_val: "Single Family"
        string_val: "Condo"
        string_val: "Single Family"
        string_val: "Multi Family"
        string_val: "Single Family"
        string_val: "Single Family"
        string_val: "Single Family"
        string_val: "Condo"
        string_val: "Condo"
        string_val: "Condo"
        string_val: "Single Family"
        string_val: "Single Family"
        string_val: "Single Family"
        string_val: "Single Family"
        string_val: "Condo"
        string_val: "Multi Family"
        string_val: "Single Family"
        string_val: "Single Family"
        string_val: "Single Family"
        string_val: "Townhouse"
        string_val: "Multi Family"
        string_val: "Condo"
        string_val: "Condo"
        string_val: "Condo"
        string_val: "Single Family"
        string_val: "Condo"
        string_val: "Condo"
        string_val: "Single Family"
        string_val: "Single Family"
        string_val: "Condo"
        string_val: "Condo"
        string_val: "Single Family"
        string_val: "Single Family"
        string_val: "Condo"
        string_val: "Multi Family"
        string_val: "Multi Family"
        string_val: "Condo"
        string_val: "Multi Family"
        string_val: "Single Family"
        string_val: "Multi Family"
        string_val: "Condo"
        string_val: "Single Family"
        string_val: "Single Family"
        string_val: "Single Family"
        string_val: "Single Family"
        string_val: "Single Family"
        string_val: "Condo"
        string_val: "Condo"
        string_val: "Single Family"
        string_val: "Condo"
        string_val: "Condo"
        string_val: "Single Family"
        string_val: "Condo"
        string_val: "Condo"
        string_val: "Single Family"
        string_val: "Condo"
        string_val: "Condo"
        string_val: "Single Family"
        string_val: "Condo"
        string_val: "Single Family"
        string_val: "Multiple Occupancy"
        string_val: "Condo"
        string_val: "Single Family"
        string_val: "Single Family"
        string_val: "Single Family"
        string_val: "Single Family"
        string_val: "Condo"
        string_val: "Single Family"
        string_val: "Single Family"
        string_val: "Condo"
        string_val: "Single Family"
        string_val: "Single Family"
        string_val: "Condo"
        string_val: "Single Family"
        string_val: "Single Family"
        string_val: "Single Family"
        string_val: "Single Family"
        string_val: "Condo"
        string_val: "Single Family"
        string_val: "Condo"
        string_val: "Condo"
        string_val: "Condo"
        string_val: "Single Family"
        string_val: "Condo"
        string_val: "Condo"
        string_val: "Condo"
        string_val: "Condo"
        string_val: "Townhouse"
        string_val: "Single Family"
        string_val: "Single Family"
        string_val: "Condo"
        string_val: "Condo"
        string_val: "Condo"
        string_val: "Condo"
        string_val: "Multi Family"
        string_val: "Condo"
        string_val: "Multi Family"
        string_val: "Single Family"
        string_val: "Condo"
        string_val: "Single Family"
        string_val: "Single Family"
        string_val: "Single Family"
        string_val: "Single Family"
        string_val: "Single Family"
        string_val: "Single Family"
        string_val: "Condo"
        string_val: "Condo"
        string_val: "Single Family"
        string_val: "Single Family"
        string_val: "Condo"
        string_val: "Townhouse"
        string_val: "Single Family"
        string_val: "Condo"
        string_val: "Single Family"
        string_val: "Single Family"
        string_val: "Single Family"
        string_val: "Condo"
        string_val: "Condo"
        string_val: "Single Family"
        string_val: "Condo"
        string_val: "Condo"
        string_val: "Multi Family"
        string_val: "Apartment"
        string_val: "Single Family"
        string_val: "Single Family"
        string_val: "Single Family"
        string_val: "Single Family"
        string_val: "Single Family"
        string_val: "Condo"
        string_val: "Single Family"
        string_val: "Single Family"
        string_val: "Single Family"
        string_val: "Single Family"
        string_val: "Single Family"
        string_val: "Single Family"
        string_val: "Condo"
        string_val: "Condo"
        string_val: "Single Family"
        string_val: "Single Family"
        string_val: "Single Family"
        string_val: "Condo"
        string_val: "Condo"
        string_val: "Condo"
        string_val: "Single Family"
        string_val: "Condo"
        string_val: "Condo"
        string_val: "Condo"
        string_val: "Single Family"
        string_val: "Condo"
        string_val: "Single Family"
        string_val: "Condo"
        string_val: "Multiple Occupancy"
        string_val: "Condo"
        string_val: "Condo"
        string_val: "Condo"
        string_val: "Condo"
        string_val: "Condo"
        string_val: "Condo"
        string_val: "Condo"
        string_val: "Multi Family"
        string_val: "Condo"
        string_val: "Single Family"
        string_val: "Multi Family"
        string_val: "Single Family"
        string_val: "Single Family"
        string_val: "Single Family"
        string_val: "Condo"
        string_val: "Single Family"
        string_val: "Multiple Occupancy"
        string_val: "Single Family"
        string_val: "Single Family"
        string_val: "Single Family"
        string_val: "Single Family"
        string_val: "Single Family"
        string_val: "Condo"
        string_val: "Single Family"
        string_val: "Condo"
        string_val: "Single Family"
        string_val: "Single Family"
        string_val: "Condo"
        string_val: "Multi Family"
        string_val: "Condo"
        string_val: "Single Family"
        string_val: "Condo"
        string_val: "Condo"
        string_val: "Single Family"
        string_val: "Single Family"
        string_val: "Multi Family"
        string_val: "Condo"
        string_val: "Condo"
        string_val: "Condo"
        string_val: "Condo"
        string_val: "Condo"
        string_val: "Multiple Occupancy"
        string_val: "Condo"
        string_val: "Condo"
        string_val: "Condo"
        string_val: "Single Family"
        string_val: "Single Family"
        string_val: "Single Family"
        string_val: "Single Family"
        string_val: "Condo"
        string_val: "Single Family"
        string_val: "Condo"
        string_val: "Condo"
        string_val: "Single Family"
        string_val: "Condo"
        string_val: "Single Family"
        string_val: "Single Family"
        string_val: "Single Family"
        string_val: "Single Family"
        string_val: "Single Family"
        string_val: "Apartment"
        string_val: "Condo"
        string_val: "Single Family"
        string_val: "Single Family"
        string_val: "Condo"
        string_val: "Single Family"
        string_val: "Multi Family"
        string_val: "Condo"
        string_val: "Single Family"
        string_val: "Condo"
        string_val: "Single Family"
        string_val: "Condo"
        string_val: "Single Family"
        string_val: "Condo"
        string_val: "Single Family"
        string_val: "Condo"
        string_val: "Single Family"
        string_val: "Single Family"
        string_val: "Apartment"
        string_val: "Single Family"
        string_val: "Multi Family"
        string_val: "Condo"
        string_val: "Single Family"
        string_val: "Multi Family"
        string_val: "Single Family"
        string_val: "Single Family"
        string_val: "Condo"
        string_val: "Condo"
        string_val: "Single Family"
        string_val: "Single Family"
        string_val: "Apartment"
        string_val: "Single Family"
        string_val: "Single Family"
        string_val: "Single Family"
        string_val: "Single Family"
        string_val: "Multiple Occupancy"
        string_val: "Single Family"
        string_val: "Multi Family"
        string_val: "Condo"
        string_val: "Condo"
        string_val: "Single Family"
        string_val: "Single Family"
        string_val: "Single Family"
        string_val: "Single Family"
        string_val: "Single Family"
        string_val: "Condo"
        string_val: "Single Family"
        string_val: "Single Family"
        string_val: "Single Family"
        string_val: "Single Family"
        string_val: "Single Family"
        string_val: "Condo"
        string_val: "Condo"
        string_val: "Single Family"
        string_val: "Single Family"
        string_val: "Condo"
        string_val: "Condo"
        string_val: "Single Family"
        string_val: "Condo"
        string_val: "Single Family"
        string_val: "Single Family"
        string_val: "Single Family"
        string_val: "Mobile / Manufactured"
        string_val: "Condo"
        string_val: "Condo"
        string_val: "Single Family"
        string_val: "Single Family"
        string_val: "Single Family"
        string_val: "Single Family"
        string_val: "Condo"
        string_val: "Single Family"
        string_val: "Condo"
        string_val: "Condo"
        string_val: "Single Family"
        string_val: "Condo"
        string_val: "Single Family"
        string_val: "Multiple Occupancy"
        string_val: "Condo"
        string_val: "Condo"
        string_val: "Multiple Occupancy"
        string_val: "Single Family"
        string_val: "Condo"
        string_val: "Multi Family"
        string_val: "Multiple Occupancy"
        string_val: "Multi Family"
        string_val: "Condo"
        string_val: "Condo"
        string_val: "Single Family"
        string_val: "Single Family"
        string_val: "Single Family"
        string_val: "Single Family"
        string_val: "Single Family"
        string_val: "Single Family"
        string_val: "Condo"
        string_val: "Condo"
        string_val: "Condo"
        string_val: "Cooperative"
        string_val: "Single Family"
        string_val: "Townhouse"
        string_val: "Condo"
        string_val: "Single Family"
        string_val: "Single Family"
        string_val: "Condo"
        string_val: "Condo"
        string_val: "Condo"
        string_val: "Single Family"
        string_val: "Single Family"
        string_val: "Single Family"
        string_val: "Single Family"
        string_val: "Single Family"
        string_val: "Condo"
        string_val: "Single Family"
        string_val: "Condo"
        string_val: "Multi Family"
        string_val: "Single Family"
        string_val: "Condo"
        string_val: "Condo"
        string_val: "Single Family"
        string_val: "Single Family"
        string_val: "Condo"
        string_val: "Multi Family"
        string_val: "Multi Family"
        string_val: "Single Family"
        string_val: "Single Family"
        string_val: "Multiple Occupancy"
        string_val: "Single Family"
        string_val: "Single Family"
        string_val: "Single Family"
        string_val: "Single Family"
        string_val: "Single Family"
        string_val: "Townhouse"
        string_val: "Condo"
        string_val: "Single Family"
        string_val: "Single Family"
        string_val: "Single Family"
        string_val: "Single Family"
        string_val: "Condo"
        string_val: "Condo"
        string_val: "Condo"
        string_val: "Condo"
        string_val: "Mobile / Manufactured"
        string_val: "Single Family"
        string_val: "Condo"
        string_val: "Multiple Occupancy"
        string_val: "Condo"
        string_val: "Single Family"
        string_val: "Single Family"
        string_val: "Single Family"
        string_val: "Single Family"
        string_val: "Condo"
        string_val: "Condo"
        string_val: "Condo"
        string_val: "Single Family"
        string_val: "Condo"
        string_val: "Townhouse"
        string_val: "Condo"
        string_val: "Single Family"
        string_val: "Single Family"
        string_val: "Single Family"
        string_val: "Condo"
        string_val: "Single Family"
        string_val: "Condo"
        string_val: "Single Family"
        string_val: "Condo"
        string_val: "Condo"
        string_val: "Single Family"
        string_val: "Condo"
        string_val: "Condo"
        string_val: "Condo"
        string_val: "Single Family"
        string_val: "Condo"
        string_val: "Condo"
        string_val: "Single Family"
        string_val: "Single Family"
        string_val: "Multi Family"
        string_val: "Condo"
        string_val: "Condo"
        string_val: "Single Family"
        string_val: "Single Family"
        string_val: "Single Family"
        string_val: "Single Family"
        string_val: "Single Family"
        string_val: "Condo"
        string_val: "Single Family"
        string_val: "Single Family"
        string_val: "Condo"
        string_val: "Multi Family"
        string_val: "Single Family"
        string_val: "Single Family"
        string_val: "Single Family"
        string_val: "Multiple Occupancy"
        string_val: "Single Family"
        string_val: "Condo"
        string_val: "Condo"
        string_val: "Condo"
        string_val: "Single Family"
        string_val: "Condo"
        string_val: "Single Family"
        string_val: "Condo"
        string_val: "Condo"
        string_val: "Single Family"
        string_val: "Single Family"
        string_val: "Condo"
        string_val: "Apartment"
        string_val: "Single Family"
        string_val: "Single Family"
        string_val: "Single Family"
        string_val: "Single Family"
        string_val: "Multi Family"
        string_val: "Single Family"
        string_val: "Condo"
        string_val: "Single Family"
        string_val: "Mobile / Manufactured"
        string_val: "Multi Family"
        string_val: "Single Family"
        string_val: "Single Family"
        string_val: "Single Family"
        string_val: "Condo"
        string_val: "Single Family"
        string_val: "Single Family"
        string_val: "Condo"
        string_val: "Condo"
        string_val: "Condo"
        string_val: "Single Family"
        string_val: "Single Family"
        string_val: "Single Family"
        string_val: "Single Family"
        string_val: "Single Family"
        string_val: "Single Family"
        string_val: "Condo"
        string_val: "Condo"
        string_val: "Condo"
        string_val: "Condo"
        string_val: "Single Family"
        string_val: "Single Family"
        string_val: "Condo"
        string_val: "Single Family"
        string_val: "Single Family"
        string_val: "Multiple Occupancy"
        string_val: "Multi Family"
        string_val: "Multi Family"
        string_val: "Single Family"
        string_val: "Single Family"
        string_val: "Condo"
        string_val: "Condo"
        string_val: "Single Family"
        string_val: "Condo"
        string_val: "Single Family"
        string_val: "Single Family"
        string_val: "Single Family"
        string_val: "Single Family"
        string_val: "Single Family"
        string_val: "Single Family"
        string_val: "Single Family"
        string_val: "Single Family"
        string_val: "Condo"
        string_val: "Condo"
        string_val: "Condo"
        string_val: "Condo"
        string_val: "Condo"
        string_val: "Single Family"
        string_val: "Condo"
        string_val: "Multi Family"
        string_val: "Single Family"
        string_val: "Single Family"
        string_val: "Condo"
        string_val: "Condo"
        string_val: "Condo"
        string_val: "Single Family"
        string_val: "Single Family"
        string_val: "Condo"
        string_val: "Multiple Occupancy"
        string_val: "Condo"
        string_val: "Single Family"
        string_val: "Single Family"
        string_val: "Condo"
        string_val: "Single Family"
        string_val: "Multi Family"
        string_val: "Multiple Occupancy"
        string_val: "Condo"
        string_val: "Condo"
        string_val: "Single Family"
        string_val: "Single Family"
        string_val: "Condo"
        string_val: "Single Family"
        string_val: "Multi Family"
        string_val: "Condo"
        string_val: "Condo"
        string_val: "Single Family"
        string_val: "Single Family"
        string_val: "Single Family"
        string_val: "Single Family"
        string_val: "Condo"
        string_val: "Multi Family"
        string_val: "Condo"
        string_val: "Condo"
        string_val: "Apartment"
        string_val: "Condo"
        string_val: "Single Family"
        string_val: "Single Family"
        string_val: "Single Family"
        string_val: "Condo"
        string_val: "Single Family"
        string_val: "Condo"
        string_val: "Multi Family"
        string_val: "Condo"
        string_val: "Multi Family"
        string_val: "Single Family"
        string_val: "Single Family"
        string_val: "Single Family"
        string_val: "Condo"
        string_val: "Condo"
        string_val: "Single Family"
        string_val: "Single Family"
        string_val: "Condo"
        string_val: "Condo"
        string_val: "Condo"
        string_val: "Single Family"
        string_val: "Multiple Occupancy"
        string_val: "Condo"
        string_val: "Single Family"
        string_val: "Multi Family"
        string_val: "Condo"
        string_val: "Single Family"
        string_val: "Single Family"
        string_val: "Single Family"
        string_val: "Condo"
        string_val: "Single Family"
        string_val: "Single Family"
        string_val: "Single Family"
        string_val: "Condo"
        string_val: "Single Family"
        string_val: "Condo"
        string_val: "Condo"
        string_val: "Single Family"
        string_val: "Single Family"
        string_val: "Condo"
        string_val: "Single Family"
        string_val: "Condo"
        string_val: "Condo"
        string_val: "Single Family"
        string_val: "Single Family"
        string_val: "Single Family"
        string_val: "Single Family"
        string_val: "Single Family"
        string_val: "Condo"
        string_val: "Single Family"
        string_val: "Condo"
        string_val: "Single Family"
        string_val: "Multi Family"
        string_val: "Single Family"
        string_val: "Single Family"
        string_val: "Condo"
        string_val: "Single Family"
        string_val: "Condo"
        string_val: "Condo"
        string_val: "Townhouse"
        string_val: "Single Family"
        string_val: "Single Family"
        string_val: "Single Family"
        string_val: "Condo"
        string_val: "Single Family"
        string_val: "Condo"
        string_val: "Condo"
        string_val: "Condo"
        string_val: "Single Family"
        string_val: "Single Family"
        string_val: "Condo"
        string_val: "Condo"
        string_val: "Single Family"
        string_val: "Condo"
        string_val: "Single Family"
        string_val: "Condo"
        string_val: "Condo"
        string_val: "Condo"
        string_val: "Single Family"
        string_val: "Condo"
        string_val: "Multi Family"
        string_val: "Condo"
        string_val: "Single Family"
        string_val: "Single Family"
        string_val: "Single Family"
        string_val: "Condo"
        string_val: "Condo"
        string_val: "Condo"
        string_val: "Condo"
        string_val: "Single Family"
        string_val: "Multi Family"
        string_val: "Single Family"
        string_val: "Single Family"
        string_val: "Single Family"
        string_val: "Condo"
        string_val: "Condo"
        string_val: "Multiple Occupancy"
        string_val: "Condo"
        string_val: "Condo"
        string_val: "Single Family"
        string_val: "Condo"
        string_val: "Multi Family"
        string_val: "Condo"
        string_val: "Single Family"
        string_val: "Condo"
        string_val: "Condo"
        string_val: "Single Family"
        string_val: "Condo"
        string_val: "Condo"
        string_val: "Single Family"
        string_val: "Condo"
        string_val: "Condo"
        string_val: "Single Family"
        string_val: "Single Family"
        string_val: "Single Family"
        string_val: "Single Family"
        string_val: "Single Family"
        string_val: "Single Family"
        string_val: "Condo"
        string_val: "Single Family"
        string_val: "Condo"
        string_val: "Single Family"
        string_val: "Condo"
        string_val: "Condo"
        string_val: "Single Family"
        string_val: "Single Family"
        string_val: "Condo"
        string_val: "Condo"
        string_val: "Single Family"
        string_val: "Single Family"
        string_val: "Single Family"
        string_val: "Single Family"
        string_val: "Single Family"
        string_val: "Single Family"
        string_val: "Condo"
        string_val: "Single Family"
        string_val: "Single Family"
        string_val: "Single Family"
        string_val: "Condo"
        string_val: "Single Family"
        string_val: "Condo"
        string_val: "Single Family"
        string_val: "Single Family"
        string_val: "Single Family"
        string_val: "Single Family"
        string_val: "Condo"
        string_val: "Condo"
        string_val: "Single Family"
        string_val: "Single Family"
        string_val: "Single Family"
        string_val: "Single Family"
        string_val: "Single Family"
        string_val: "Multi Family"
        string_val: "Apartment"
        string_val: "Single Family"
        string_val: "Single Family"
        string_val: "Single Family"
        string_val: "Condo"
        string_val: "Single Family"
        string_val: "Single Family"
        string_val: "Single Family"
        string_val: "Condo"
        string_val: "Condo"
        string_val: "Single Family"
        string_val: "Single Family"
        string_val: "Multiple Occupancy"
        string_val: "Townhouse"
        string_val: "Single Family"
        string_val: "Condo"
        string_val: "Condo"
        string_val: "Condo"
        string_val: "Condo"
        string_val: "Single Family"
        string_val: "Single Family"
        string_val: "Single Family"
        string_val: "Condo"
        string_val: "Single Family"
        string_val: "Single Family"
        string_val: "Single Family"
        string_val: "Single Family"
        string_val: "Condo"
        string_val: "Single Family"
        string_val: "Multi Family"
        string_val: "Condo"
        string_val: "Multi Family"
        string_val: "Single Family"
        string_val: "Condo"
        string_val: "Single Family"
        string_val: "Single Family"
        string_val: "Condo"
        string_val: "Single Family"
        string_val: "Single Family"
        string_val: "Condo"
        string_val: "Condo"
        string_val: "Condo"
        string_val: "Single Family"
        string_val: "Single Family"
        string_val: "Condo"
        string_val: "Single Family"
        string_val: "Multiple Occupancy"
        string_val: "Condo"
        string_val: "Condo"
        string_val: "Condo"
        string_val: "Single Family"
        string_val: "Single Family"
        string_val: "Condo"
        string_val: "Condo"
        string_val: "Single Family"
        string_val: "Single Family"
        string_val: "Condo"
        string_val: "Single Family"
        string_val: "Single Family"
        string_val: "Condo"
        string_val: "Single Family"
        string_val: "Single Family"
        string_val: "Single Family"
        string_val: "Condo"
        string_val: "Single Family"
        string_val: "Single Family"
        string_val: "Condo"
        string_val: "Multi Family"
        string_val: "Single Family"
        string_val: "Condo"
        string_val: "Single Family"
        string_val: "Condo"
        string_val: "Single Family"
        string_val: "Single Family"
        string_val: "Condo"
        string_val: "Single Family"
        string_val: "Single Family"
        string_val: "Single Family"
        string_val: "Cooperative"
        string_val: "Condo"
        string_val: "Single Family"
        string_val: "Multiple Occupancy"
        string_val: "Condo"
        string_val: "Condo"
        string_val: "Single Family"
        string_val: "Condo"
        string_val: "Condo"
        string_val: "Condo"
        string_val: "Single Family"
        string_val: "Condo"
        string_val: "Single Family"
        string_val: "Single Family"
        string_val: "Single Family"
        string_val: "Condo"
        string_val: "Single Family"
        string_val: "Single Family"
        string_val: "Condo"
        string_val: "Single Family"
        string_val: "Single Family"
        string_val: "Condo"
        string_val: "Single Family"
        string_val: "Condo"
        string_val: "Single Family"
        string_val: "Condo"
        string_val: "Single Family"
        string_val: "Single Family"
        string_val: "Townhouse"
        string_val: "Single Family"
        string_val: "Single Family"
        string_val: "Single Family"
        string_val: "Condo"
        string_val: "Condo"
        string_val: "Single Family"
        string_val: "Condo"
        string_val: "Condo"
        string_val: "Single Family"
        string_val: "Single Family"
        string_val: "Condo"
        string_val: "Single Family"
        string_val: "Single Family"
        string_val: "Single Family"
        string_val: "Condo"
        string_val: "Single Family"
        string_val: "Condo"
        string_val: "Condo"
        string_val: "Apartment"
        string_val: "Single Family"
        string_val: "Condo"
        string_val: "Multi Family"
        string_val: "Single Family"
        string_val: "Multiple Occupancy"
        string_val: "Single Family"
        string_val: "Single Family"
        string_val: "Single Family"
        string_val: "Condo"
        string_val: "Condo"
        string_val: "Single Family"
        string_val: "Condo"
        string_val: "Condo"
        string_val: "Single Family"
        string_val: "Single Family"
        string_val: "Single Family"
        string_val: "Single Family"
        string_val: "Condo"
        string_val: "Condo"
        string_val: "Single Family"
        string_val: "Condo"
        string_val: "Condo"
        string_val: "Condo"
        string_val: "Single Family"
        string_val: "Single Family"
        string_val: "Single Family"
        string_val: "Single Family"
        string_val: "Single Family"
        string_val: "Multi Family"
        string_val: "Single Family"
        string_val: "Single Family"
        string_val: "Single Family"
        string_val: "Single Family"
        string_val: "Condo"
        string_val: "Single Family"
        string_val: "Condo"
        string_val: "Condo"
        string_val: "Apartment"
        string_val: "Condo"
        string_val: "Condo"
        string_val: "Condo"
        string_val: "Condo"
        string_val: "Single Family"
        string_val: "Condo"
        string_val: "Single Family"
        string_val: "Single Family"
        string_val: "Condo"
        string_val: "Single Family"
        string_val: "Condo"
        string_val: "Condo"
        string_val: "Single Family"
        string_val: "Single Family"
        string_val: "Multi Family"
        string_val: "Single Family"
        string_val: "Multiple Occupancy"
        string_val: "Single Family"
        string_val: "Single Family"
        string_val: "Condo"
        string_val: "Multiple Occupancy"
        string_val: "Condo"
        string_val: "Condo"
        string_val: "Single Family"
        string_val: "Single Family"
        string_val: "Condo"
        string_val: "Single Family"
        string_val: "Condo"
        string_val: "Single Family"
        string_val: "Single Family"
        string_val: "Multiple Occupancy"
        string_val: "Condo"
        string_val: "Single Family"
        string_val: "Condo"
        string_val: "Single Family"
        string_val: "Single Family"
        string_val: "Single Family"
        string_val: "Condo"
        string_val: "Single Family"
        string_val: "Condo"
        string_val: "Condo"
        string_val: "Single Family"
        string_val: "Condo"
        string_val: "Single Family"
        string_val: "Condo"
        string_val: "Condo"
        string_val: "Condo"
        string_val: "Single Family"
        string_val: "Multi Family"
        string_val: "Condo"
        string_val: "Condo"
        string_val: "Condo"
        string_val: "Single Family"
        string_val: "Single Family"
        string_val: "Single Family"
        string_val: "Single Family"
        string_val: "Single Family"
        string_val: "Single Family"
        string_val: "Condo"
        string_val: "Condo"
        string_val: "Single Family"
        string_val: "Single Family"
        string_val: "Condo"
        string_val: "Condo"
        string_val: "Single Family"
        string_val: "Single Family"
        string_val: "Condo"
        string_val: "Condo"
        string_val: "Single Family"
        string_val: "Single Family"
        string_val: "Single Family"
        string_val: "Single Family"
        string_val: "Single Family"
        string_val: "Single Family"
        string_val: "Apartment"
        string_val: "Single Family"
        string_val: "Single Family"
        string_val: "Multiple Occupancy"
        string_val: "Condo"
        string_val: "Condo"
        string_val: "Single Family"
        string_val: "Condo"
        string_val: "Single Family"
        string_val: "Condo"
        string_val: "Single Family"
        string_val: "Single Family"
        string_val: "Single Family"
        string_val: "Single Family"
        string_val: "Single Family"
        string_val: "Single Family"
        string_val: "Single Family"
        string_val: "Single Family"
        string_val: "Single Family"
        string_val: "Multi Family"
        string_val: "Condo"
        string_val: "Condo"
        string_val: "Condo"
        string_val: "Single Family"
        string_val: "Single Family"
        string_val: "Single Family"
        string_val: "Single Family"
        string_val: "Single Family"
        string_val: "Multiple Occupancy"
        string_val: "Condo"
        string_val: "Single Family"
        string_val: "Single Family"
        string_val: "Single Family"
        string_val: "Multi Family"
        string_val: "Single Family"
        string_val: "Condo"
        string_val: "Single Family"
        string_val: "Single Family"
        string_val: "Single Family"
        string_val: "Single Family"
        string_val: "Single Family"
        string_val: "Condo"
        string_val: "Single Family"
        string_val: "Condo"
        string_val: "Single Family"
        string_val: "Condo"
        string_val: "Single Family"
        string_val: "Single Family"
        string_val: "Single Family"
        string_val: "Condo"
        string_val: "Condo"
        string_val: "Single Family"
        string_val: "Single Family"
        string_val: "Condo"
        string_val: "Single Family"
        string_val: "Condo"
        string_val: "Single Family"
        string_val: "Condo"
        string_val: "Multiple Occupancy"
        string_val: "Single Family"
        string_val: "Condo"
        string_val: "Single Family"
        string_val: "Single Family"
        string_val: "Condo"
        string_val: "Condo"
        string_val: "Single Family"
        string_val: "Condo"
        string_val: "Condo"
        string_val: "Single Family"
        string_val: "Multi Family"
        string_val: "Single Family"
        string_val: "Condo"
        string_val: "Single Family"
        string_val: "Multiple Occupancy"
        string_val: "Single Family"
        string_val: "Condo"
        string_val: "Single Family"
        string_val: "Single Family"
        string_val: "Multiple Occupancy"
        string_val: "Condo"
        string_val: "Single Family"
        string_val: "Single Family"
        string_val: "Single Family"
        string_val: "Multi Family"
        string_val: "Single Family"
        string_val: "Condo"
        string_val: "Multi Family"
        string_val: "Single Family"
        string_val: "Single Family"
        string_val: "Condo"
        string_val: "Single Family"
        string_val: "Condo"
        string_val: "Condo"
        string_val: "Condo"
        string_val: "Single Family"
        string_val: "Single Family"
        string_val: "Condo"
        string_val: "Condo"
        string_val: "Single Family"
        string_val: "Single Family"
        string_val: "Single Family"
        string_val: "Single Family"
        string_val: "Multiple Occupancy"
        string_val: "Single Family"
        string_val: "Single Family"
        string_val: "Condo"
        string_val: "Condo"
        string_val: "Condo"
        string_val: "Single Family"
        string_val: "Townhouse"
        string_val: "Single Family"
        string_val: "Single Family"
        string_val: "Single Family"
        string_val: "Single Family"
        string_val: "Condo"
        string_val: "Single Family"
        string_val: "Condo"
        string_val: "Single Family"
        string_val: "Single Family"
        string_val: "Condo"
        string_val: "Single Family"
        string_val: "Single Family"
        string_val: "Condo"
        string_val: "Multiple Occupancy"
        string_val: "Single Family"
        string_val: "Condo"
        string_val: "Single Family"
        string_val: "Single Family"
        string_val: "Condo"
        string_val: "Condo"
        string_val: "Single Family"
        string_val: "Single Family"
        string_val: "Condo"
        string_val: "Multiple Occupancy"
        string_val: "Single Family"
        string_val: "Single Family"
        string_val: "Condo"
        string_val: "Condo"
        string_val: "Single Family"
        string_val: "Single Family"
        string_val: "Single Family"
        string_val: "Single Family"
        string_val: "Single Family"
        string_val: "Single Family"
        string_val: "Condo"
        string_val: "Single Family"
        string_val: "Single Family"
        string_val: "Single Family"
        string_val: "Single Family"
        string_val: "Condo"
        string_val: "Condo"
        string_val: "Condo"
        string_val: "Condo"
        string_val: "Single Family"
        string_val: "Condo"
        string_val: "Condo"
        string_val: "Multi Family"
        string_val: "Condo"
        string_val: "Condo"
        string_val: "Multi Family"
        string_val: "Condo"
        string_val: "Single Family"
        string_val: "Single Family"
        string_val: "Condo"
        string_val: "Single Family"
        string_val: "Single Family"
        string_val: "Single Family"
        string_val: "Single Family"
        string_val: "Multi Family"
        string_val: "Single Family"
        string_val: "Condo"
        string_val: "Single Family"
        string_val: "Townhouse"
        string_val: "Single Family"
        string_val: "Condo"
        string_val: "Single Family"
        string_val: "Condo"
        string_val: "Single Family"
        string_val: "Single Family"
        string_val: "Single Family"
        string_val: "Single Family"
        string_val: "Single Family"
        string_val: "Condo"
        string_val: "Multi Family"
        string_val: "Single Family"
        string_val: "Multi Family"
        string_val: "Condo"
        string_val: "Single Family"
        string_val: "Single Family"
        string_val: "Single Family"
        string_val: "Condo"
        string_val: "Condo"
        string_val: "Condo"
        string_val: "Single Family"
        string_val: "Multi Family"
        string_val: "Single Family"
        string_val: "Single Family"
        string_val: "Single Family"
        string_val: "Single Family"
        string_val: "Single Family"
        string_val: "Single Family"
        string_val: "Condo"
        string_val: "Condo"
        string_val: "Multiple Occupancy"
        string_val: "Single Family"
        string_val: "Single Family"
        string_val: "Single Family"
        string_val: "Condo"
        string_val: "Single Family"
        string_val: "Single Family"
        string_val: "Single Family"
        string_val: "Condo"
        string_val: "Single Family"
        string_val: "Condo"
        string_val: "Single Family"
        string_val: "Single Family"
        string_val: "Single Family"
        string_val: "Multi Family"
        string_val: "Condo"
        string_val: "Multi Family"
        string_val: "Multi Family"
        string_val: "Single Family"
        string_val: "Condo"
        string_val: "Single Family"
        string_val: "Condo"
        string_val: "Single Family"
        string_val: "Single Family"
        string_val: "Condo"
        string_val: "Single Family"
        string_val: "Single Family"
        string_val: "Single Family"
        string_val: "Multiple Occupancy"
        string_val: "Single Family"
        string_val: "Condo"
        string_val: "Single Family"
        string_val: "Multiple Occupancy"
        string_val: "Single Family"
        string_val: "Single Family"
        string_val: "Condo"
        string_val: "Multiple Occupancy"
        string_val: "Single Family"
        string_val: "Condo"
        string_val: "Single Family"
        string_val: "Single Family"
        string_val: "Condo"
        string_val: "Condo"
        string_val: "Single Family"
        string_val: "Condo"
        string_val: "Single Family"
        string_val: "Condo"
        string_val: "Single Family"
        string_val: "Condo"
        string_val: "Single Family"
        string_val: "Single Family"
        string_val: "Single Family"
        string_val: "Condo"
        string_val: "Single Family"
        string_val: "Condo"
        string_val: "Single Family"
        string_val: "Condo"
        string_val: "Single Family"
        string_val: "Condo"
        string_val: "Single Family"
        string_val: "Single Family"
        string_val: "Single Family"
        string_val: "Condo"
        string_val: "Single Family"
        string_val: "Multiple Occupancy"
        string_val: "Condo"
        string_val: "Single Family"
        string_val: "Single Family"
        string_val: "Single Family"
        string_val: "Apartment"
        string_val: "Single Family"
        string_val: "Single Family"
        string_val: "Condo"
        string_val: "Condo"
        string_val: "Condo"
        string_val: "Single Family"
        string_val: "Condo"
        string_val: "Apartment"
        string_val: "Condo"
        string_val: "Condo"
        string_val: "Single Family"
        string_val: "Single Family"
        string_val: "Miscellaneous"
        string_val: "Condo"
        string_val: "Condo"
        string_val: "Multi Family"
        string_val: "Multi Family"
        string_val: "Condo"
        string_val: "Single Family"
        string_val: "Multi Family"
        string_val: "Single Family"
        string_val: "Condo"
        string_val: "Condo"
        string_val: "Single Family"
        string_val: "Condo"
        string_val: "Condo"
        string_val: "Single Family"
        string_val: "Single Family"
        string_val: "Single Family"
        string_val: "Single Family"
        string_val: "Condo"
        string_val: "Single Family"
        string_val: "Condo"
        string_val: "Condo"
        string_val: "Multi Family"
        string_val: "Condo"
        string_val: "Single Family"
        string_val: "Single Family"
        string_val: "Single Family"
        string_val: "Condo"
        string_val: "Single Family"
        string_val: "Multi Family"
        string_val: "Single Family"
        string_val: "Condo"
        string_val: "Multi Family"
        string_val: "Single Family"
        string_val: "Condo"
        string_val: "Single Family"
        string_val: "Condo"
        string_val: "Condo"
        string_val: "Single Family"
        string_val: "Single Family"
        string_val: "Single Family"
        string_val: "Condo"
        string_val: "Single Family"
        string_val: "Condo"
        string_val: "Condo"
        string_val: "Single Family"
        string_val: "Single Family"
        string_val: "Condo"
        string_val: "Condo"
        string_val: "Condo"
        string_val: "Condo"
        string_val: "Single Family"
        string_val: "Condo"
        string_val: "Single Family"
        string_val: "Single Family"
        string_val: "Single Family"
        string_val: "Condo"
        string_val: "Single Family"
        string_val: "Condo"
        string_val: "Condo"
        string_val: "Single Family"
        string_val: "Single Family"
        string_val: "Single Family"
        string_val: "Single Family"
        string_val: "Single Family"
        string_val: "Single Family"
        string_val: "Condo"
        string_val: "Townhouse"
        string_val: "Condo"
        string_val: "Single Family"
        string_val: "Single Family"
        string_val: "Condo"
        string_val: "Condo"
        string_val: "Condo"
        string_val: "Single Family"
        string_val: "Single Family"
        string_val: "Single Family"
        string_val: "Single Family"
        string_val: "Single Family"
        string_val: "Condo"
        string_val: "Single Family"
        string_val: "Multiple Occupancy"
        string_val: "Condo"
        string_val: "Condo"
        string_val: "Condo"
        string_val: "Single Family"
        string_val: "Single Family"
        string_val: "Single Family"
        string_val: "Condo"
        string_val: "Condo"
        string_val: "Single Family"
        string_val: "Single Family"
        string_val: "Single Family"
        string_val: "Single Family"
        string_val: "Condo"
        string_val: "Condo"
        string_val: "Single Family"
        string_val: "Single Family"
        string_val: "Single Family"
        string_val: "Single Family"
        string_val: "Condo"
        string_val: "Condo"
        string_val: "Condo"
        string_val: "Single Family"
        string_val: "Condo"
        string_val: "Single Family"
        string_val: "Single Family"
        string_val: "Single Family"
        string_val: "Condo"
        string_val: "Single Family"
        string_val: "Condo"
        string_val: "Condo"
        string_val: "Condo"
        string_val: "Single Family"
        string_val: "Condo"
        string_val: "Single Family"
        string_val: "Condo"
        string_val: "Condo"
        string_val: "Condo"
        string_val: "Condo"
        string_val: "Multiple Occupancy"
        string_val: "Single Family"
        string_val: "Single Family"
        string_val: "Single Family"
        string_val: "Condo"
        string_val: "Other"
        string_val: "Condo"
        string_val: "Condo"
        string_val: "Condo"
        string_val: "Single Family"
        string_val: "Single Family"
        string_val: "Single Family"
        string_val: "Single Family"
        string_val: "Condo"
        string_val: "Single Family"
        string_val: "Single Family"
        string_val: "Single Family"
        string_val: "Single Family"
        string_val: "Condo"
        string_val: "Condo"
        string_val: "Single Family"
        string_val: "Condo"
        string_val: "Condo"
        string_val: "Single Family"
        string_val: "Single Family"
        string_val: "Townhouse"
        string_val: "Townhouse"
        string_val: "Single Family"
        string_val: "Single Family"
        string_val: "Single Family"
        string_val: "Condo"
        string_val: "Single Family"
        string_val: "Single Family"
        string_val: "Single Family"
        string_val: "Single Family"
        string_val: "Multiple Occupancy"
        string_val: "Single Family"
        string_val: "Single Family"
        string_val: "Single Family"
        string_val: "Single Family"
        string_val: "Single Family"
        string_val: "Condo"
        string_val: "Condo"
        string_val: "Single Family"
        string_val: "Condo"
        string_val: "Condo"
        string_val: "Single Family"
        string_val: "Single Family"
        string_val: "Single Family"
        string_val: "Single Family"
        string_val: "Condo"
        string_val: "Multiple Occupancy"
        string_val: "Single Family"
        string_val: "Condo"
        string_val: "Single Family"
        string_val: "Condo"
        string_val: "Condo"
        string_val: "Single Family"
        string_val: "Single Family"
        string_val: "Single Family"
        string_val: "Condo"
        string_val: "Single Family"
        string_val: "Single Family"
        string_val: "Single Family"
        string_val: "Single Family"
        string_val: "Single Family"
        string_val: "Condo"
        string_val: "Single Family"
        string_val: "Single Family"
        string_val: "Condo"
        string_val: "Single Family"
        string_val: "Single Family"
        string_val: "Condo"
        string_val: "Multiple Occupancy"
        string_val: "Multiple Occupancy"
        string_val: "Condo"
        string_val: "Condo"
        string_val: "Multiple Occupancy"
        string_val: "Multi Family"
        string_val: "Single Family"
        string_val: "Multiple Occupancy"
        string_val: "Condo"
        string_val: "Single Family"
        string_val: "Single Family"
        string_val: "Single Family"
        string_val: "Single Family"
        string_val: "Single Family"
        string_val: "Single Family"
        string_val: "Condo"
        string_val: "Single Family"
        string_val: "Single Family"
        string_val: "Multiple Occupancy"
        string_val: "Single Family"
        string_val: "Single Family"
        string_val: "Condo"
        string_val: "Single Family"
        string_val: "Single Family"
        string_val: "Condo"
        string_val: "Single Family"
        string_val: "Single Family"
        string_val: "Single Family"
        string_val: "Single Family"
        string_val: "Condo"
        string_val: "Single Family"
        string_val: "Condo"
        string_val: "Single Family"
        string_val: "Single Family"
        string_val: "Single Family"
        string_val: "Condo"
        string_val: "Condo"
        string_val: "Single Family"
        string_val: "Condo"
        string_val: "Single Family"
        string_val: "Condo"
        string_val: "Single Family"
        string_val: "Single Family"
        string_val: "Condo"
        string_val: "Condo"
        string_val: "Condo"
        string_val: "Single Family"
        string_val: "Condo"
        string_val: "Single Family"
        string_val: "Condo"
        string_val: "Single Family"
        string_val: "Condo"
        string_val: "Single Family"
        string_val: "Single Family"
        string_val: "Condo"
        string_val: "Single Family"
        string_val: "Single Family"
        string_val: "Single Family"
        string_val: "Condo"
        string_val: "Single Family"
        string_val: "Single Family"
        string_val: "Single Family"
        string_val: "Condo"
        string_val: "Single Family"
        string_val: "Condo"
        string_val: "Single Family"
        string_val: "Condo"
        string_val: "Multi Family"
        string_val: "Single Family"
        string_val: "Single Family"
        string_val: "Condo"
        string_val: "Single Family"
        string_val: "Miscellaneous"
        string_val: "Single Family"
        string_val: "Condo"
        string_val: "Single Family"
        string_val: "Single Family"
        string_val: "Condo"
        string_val: "Single Family"
        string_val: "Single Family"
        string_val: "Single Family"
        string_val: "Single Family"
        string_val: "Single Family"
        string_val: "Condo"
        string_val: "Single Family"
        string_val: "Condo"
        string_val: "Condo"
        string_val: "Condo"
        string_val: "Condo"
        string_val: "Single Family"
        string_val: "Single Family"
        string_val: "Single Family"
        string_val: "Condo"
        string_val: "Condo"
        string_val: "Condo"
        string_val: "Multi Family"
        string_val: "Single Family"
        string_val: "Single Family"
        string_val: "Single Family"
        string_val: "Single Family"
        string_val: "Single Family"
        string_val: "Single Family"
        string_val: "Condo"
        string_val: "Single Family"
        string_val: "Apartment"
        string_val: "Single Family"
        string_val: "Single Family"
        string_val: "Condo"
        string_val: "Single Family"
        string_val: "Condo"
        string_val: "Single Family"
        string_val: "Single Family"
        string_val: "Single Family"
        string_val: "Multi Family"
        string_val: "Condo"
        string_val: "Condo"
        string_val: "Single Family"
        string_val: "Single Family"
        string_val: "Single Family"
        string_val: "Single Family"
        string_val: "Condo"
        string_val: "Condo"
        string_val: "Condo"
        string_val: "Single Family"
        string_val: "Single Family"
        string_val: "Condo"
        string_val: "Single Family"
        string_val: "Single Family"
        string_val: "Condo"
        string_val: "Multi Family"
        string_val: "Condo"
        string_val: "Single Family"
        string_val: "Condo"
        string_val: "Condo"
        string_val: "Condo"
        string_val: "Multiple Occupancy"
        string_val: "Condo"
        string_val: "Single Family"
        string_val: "Condo"
        string_val: "Single Family"
        string_val: "Single Family"
        string_val: "Single Family"
        string_val: "Single Family"
        string_val: "Single Family"
        string_val: "Apartment"
        string_val: "Single Family"
        string_val: "Condo"
        string_val: "Single Family"
        string_val: "Townhouse"
        string_val: "Single Family"
        string_val: "Condo"
        string_val: "Single Family"
        string_val: "Single Family"
        string_val: "Condo"
        string_val: "Single Family"
        string_val: "Single Family"
        string_val: "Single Family"
        string_val: "Condo"
        string_val: "Condo"
        string_val: "Single Family"
        string_val: "Single Family"
        string_val: "Multi Family"
        string_val: "Multiple Occupancy"
        string_val: "Single Family"
        string_val: "Condo"
        string_val: "Single Family"
        string_val: "Condo"
        string_val: "Multiple Occupancy"
        string_val: "Single Family"
        string_val: "Single Family"
        string_val: "Condo"
        string_val: "Single Family"
        string_val: "Single Family"
        string_val: "Single Family"
        string_val: "Single Family"
        string_val: "Single Family"
        string_val: "Townhouse"
        string_val: "Condo"
        string_val: "Single Family"
        string_val: "Condo"
        string_val: "Condo"
        string_val: "Multi Family"
        string_val: "Single Family"
        string_val: "Multiple Occupancy"
        string_val: "Single Family"
        string_val: "Condo"
        string_val: "Condo"
        string_val: "Condo"
        string_val: "Condo"
        string_val: "Condo"
        string_val: "Condo"
        string_val: "Condo"
        string_val: "Condo"
        string_val: "Condo"
        string_val: "Condo"
        string_val: "Multi Family"
        string_val: "Condo"
        string_val: "Single Family"
        string_val: "Condo"
        string_val: "Condo"
        string_val: "Condo"
        string_val: "Single Family"
        string_val: "Condo"
        string_val: "Single Family"
        string_val: "Single Family"
        string_val: "Single Family"
        string_val: "Single Family"
        string_val: "Condo"
        string_val: "Single Family"
        string_val: "Single Family"
        string_val: "Cooperative"
        string_val: "Single Family"
        string_val: "Single Family"
        string_val: "Condo"
        string_val: "Single Family"
        string_val: "Condo"
        string_val: "Single Family"
        string_val: "Single Family"
        string_val: "Single Family"
        string_val: "Condo"
        string_val: "Townhouse"
        string_val: "Single Family"
        string_val: "Single Family"
        string_val: "Condo"
        string_val: "Condo"
        string_val: "Multiple Occupancy"
        string_val: "Single Family"
        string_val: "Multi Family"
        string_val: "Single Family"
        string_val: "Condo"
        string_val: "Single Family"
        string_val: "Condo"
        string_val: "Condo"
        string_val: "Single Family"
        string_val: "Condo"
        string_val: "Single Family"
        string_val: "Single Family"
        string_val: "Single Family"
        string_val: "Condo"
        string_val: "Single Family"
        string_val: "Single Family"
        string_val: "Condo"
        string_val: "Single Family"
        string_val: "Condo"
        string_val: "Condo"
        string_val: "Condo"
        string_val: "Single Family"
        string_val: "Single Family"
        string_val: "Single Family"
        string_val: "Condo"
        string_val: "Condo"
        string_val: "Single Family"
        string_val: "Single Family"
        string_val: "Single Family"
        string_val: "Condo"
        string_val: "Multiple Occupancy"
        string_val: "Single Family"
        string_val: "Condo"
        string_val: "Single Family"
        string_val: "Single Family"
        string_val: "Single Family"
        string_val: "Multi Family"
        string_val: "Condo"
        string_val: "Single Family"
        string_val: "Single Family"
        string_val: "Condo"
        string_val: "Single Family"
        string_val: "Condo"
        string_val: "Condo"
        string_val: "Single Family"
        string_val: "Multiple Occupancy"
        string_val: "Multi Family"
        string_val: "Single Family"
        string_val: "Condo"
        string_val: "Single Family"
        string_val: "Single Family"
        string_val: "Single Family"
        string_val: "Single Family"
        string_val: "Single Family"
        string_val: "Single Family"
        string_val: "Single Family"
        string_val: "Single Family"
        string_val: "Condo"
        string_val: "Condo"
        string_val: "Single Family"
        string_val: "Multiple Occupancy"
        string_val: "Single Family"
        string_val: "Multi Family"
        string_val: "Single Family"
        string_val: "Apartment"
        string_val: "Condo"
        string_val: "Condo"
        string_val: "Single Family"
        string_val: "Condo"
        string_val: "Single Family"
        string_val: "Single Family"
        string_val: "Single Family"
        string_val: "Apartment"
        string_val: "Condo"
        string_val: "Condo"
        string_val: "Single Family"
        string_val: "Condo"
        string_val: "Multiple Occupancy"
        string_val: "Single Family"
        string_val: "Condo"
        string_val: "Condo"
        string_val: "Single Family"
        string_val: "Single Family"
        string_val: "Condo"
        string_val: "Single Family"
        string_val: "Townhouse"
        string_val: "Condo"
        string_val: "Single Family"
        string_val: "Condo"
        string_val: "Condo"
        string_val: "Single Family"
        string_val: "Single Family"
        string_val: "Single Family"
        string_val: "Condo"
        string_val: "Condo"
        string_val: "Condo"
        string_val: "Multiple Occupancy"
        string_val: "Single Family"
        string_val: "Single Family"
        string_val: "Condo"
        string_val: "Miscellaneous"
        string_val: "Condo"
        string_val: "Condo"
        string_val: "Single Family"
        string_val: "Condo"
        string_val: "Condo"
        string_val: "Condo"
        string_val: "Single Family"
        string_val: "Condo"
        string_val: "Condo"
        string_val: "Single Family"
        string_val: "Single Family"
        string_val: "Condo"
        string_val: "Single Family"
        string_val: "Single Family"
        string_val: "Single Family"
        string_val: "Single Family"
        string_val: "Condo"
        string_val: "Condo"
        string_val: "Single Family"
        string_val: "Multi Family"
        string_val: "Single Family"
        string_val: "Condo"
        string_val: "Single Family"
        string_val: "Condo"
        string_val: "Single Family"
        string_val: "Single Family"
        string_val: "Single Family"
        string_val: "Condo"
        string_val: "Condo"
        string_val: "Single Family"
        string_val: "Condo"
        string_val: "Single Family"
        string_val: "Multi Family"
        string_val: "Single Family"
        string_val: "Condo"
        string_val: "Single Family"
        string_val: "Single Family"
        string_val: "Condo"
        string_val: "Single Family"
        string_val: "Condo"
        string_val: "Single Family"
        string_val: "Single Family"
        string_val: "Condo"
        string_val: "Condo"
        string_val: "Condo"
        string_val: "Single Family"
        string_val: "Multiple Occupancy"
        string_val: "Single Family"
        string_val: "Condo"
        string_val: "Multi Family"
        string_val: "Single Family"
        string_val: "Condo"
        string_val: "Single Family"
        string_val: "Multiple Occupancy"
        string_val: "Condo"
        string_val: "Condo"
        string_val: "Single Family"
        string_val: "Single Family"
        string_val: "Multi Family"
        string_val: "Single Family"
        string_val: "Condo"
        string_val: "Single Family"
        string_val: "Single Family"
        string_val: "Single Family"
        string_val: "Condo"
        string_val: "Single Family"
        string_val: "Condo"
        string_val: "Condo"
        string_val: "Condo"
        string_val: "Condo"
        string_val: "Condo"
        string_val: "Single Family"
        string_val: "Single Family"
        string_val: "Single Family"
        string_val: "Single Family"
        string_val: "Single Family"
        string_val: "Condo"
        string_val: "Single Family"
        string_val: "Condo"
        string_val: "Condo"
        string_val: "Condo"
        string_val: "Single Family"
        string_val: "Single Family"
        string_val: "Condo"
        string_val: "Condo"
        string_val: "Condo"
        string_val: "Condo"
        string_val: "Multi Family"
        string_val: "Single Family"
        string_val: "Multi Family"
        string_val: "Single Family"
        string_val: "Single Family"
        string_val: "Single Family"
        string_val: "Condo"
        string_val: "Single Family"
        string_val: "Condo"
        string_val: "Single Family"
        string_val: "Single Family"
        string_val: "Multi Family"
        string_val: "Single Family"
        string_val: "Condo"
        string_val: "Single Family"
        string_val: "Multiple Occupancy"
        string_val: "Condo"
        string_val: "Single Family"
        string_val: "Condo"
        string_val: "Condo"
        string_val: "Condo"
        string_val: "Condo"
        string_val: "Single Family"
        string_val: "Multi Family"
        string_val: "Single Family"
        string_val: "Single Family"
        string_val: "Condo"
        string_val: "Condo"
        string_val: "Mobile / Manufactured"
        string_val: "Multi Family"
        string_val: "Condo"
        string_val: "Single Family"
        string_val: "Condo"
        string_val: "Multi Family"
        string_val: "Condo"
        string_val: "Single Family"
        string_val: "Condo"
        string_val: "Single Family"
        string_val: "Condo"
        string_val: "Condo"
        string_val: "Single Family"
        string_val: "Single Family"
        string_val: "Condo"
        string_val: "Single Family"
        string_val: "Single Family"
        string_val: "Condo"
        string_val: "Condo"
        string_val: "Condo"
        string_val: "Single Family"
        string_val: "Single Family"
        string_val: "Condo"
        string_val: "Condo"
        string_val: "Single Family"
        string_val: "Condo"
        string_val: "Single Family"
        string_val: "Single Family"
        string_val: "Single Family"
        string_val: "Multiple Occupancy"
        string_val: "Single Family"
        string_val: "Multi Family"
        string_val: "Single Family"
        string_val: "Single Family"
        string_val: "Condo"
        string_val: "Condo"
        string_val: "Single Family"
        string_val: "Single Family"
        string_val: "Single Family"
        string_val: "Condo"
        string_val: "Single Family"
        string_val: "Single Family"
        string_val: "Single Family"
        string_val: "Condo"
        string_val: "Single Family"
        string_val: "Condo"
        string_val: "Multiple Occupancy"
        string_val: "Condo"
        string_val: "Single Family"
        string_val: "Condo"
        string_val: "Single Family"
        string_val: "Single Family"
        string_val: "Single Family"
        string_val: "Condo"
        string_val: "Multiple Occupancy"
        string_val: "Multiple Occupancy"
        string_val: "Multi Family"
        string_val: "Condo"
        string_val: "Single Family"
        string_val: "Multi Family"
        string_val: "Condo"
        string_val: "Single Family"
        string_val: "Condo"
        string_val: "Condo"
        string_val: "Single Family"
        string_val: "Condo"
        string_val: "Single Family"
        string_val: "Single Family"
        string_val: "Single Family"
        string_val: "Condo"
        string_val: "Single Family"
        string_val: "Condo"
        string_val: "Single Family"
        string_val: "Single Family"
        string_val: "Single Family"
        string_val: "Single Family"
        string_val: "Multiple Occupancy"
        string_val: "Condo"
        string_val: "Multi Family"
        string_val: "Single Family"
        string_val: "Condo"
        string_val: "Multi Family"
        string_val: "Condo"
        string_val: "Condo"
        string_val: "Single Family"
        string_val: "Single Family"
        string_val: "Condo"
        string_val: "Single Family"
        string_val: "Multiple Occupancy"
        string_val: "Condo"
        string_val: "Condo"
        string_val: "Single Family"
        string_val: "Condo"
        string_val: "Condo"
        string_val: "Condo"
        string_val: "Single Family"
        string_val: "Condo"
        string_val: "Single Family"
        string_val: "Single Family"
        string_val: "Single Family"
        string_val: "Condo"
        string_val: "Single Family"
        string_val: "Single Family"
        string_val: "Single Family"
        string_val: "Condo"
        string_val: "Multi Family"
        string_val: "Single Family"
        string_val: "Single Family"
        string_val: "Condo"
        string_val: "Single Family"
        string_val: "Single Family"
        string_val: "Condo"
        string_val: "Condo"
        string_val: "Condo"
        string_val: "Condo"
        string_val: "Single Family"
        string_val: "Condo"
        string_val: "Condo"
        string_val: "Condo"
        string_val: "Condo"
        string_val: "Multi Family"
        string_val: "Condo"
        string_val: "Single Family"
        string_val: "Condo"
        string_val: "Condo"
        string_val: "Condo"
        string_val: "Condo"
        string_val: "Single Family"
        string_val: "Condo"
        string_val: "Condo"
        string_val: "Townhouse"
        string_val: "Condo"
        string_val: "Condo"
        string_val: "Condo"
        string_val: "Condo"
        string_val: "Single Family"
        string_val: "Condo"
        string_val: "Condo"
        string_val: "Single Family"
        string_val: "Condo"
        string_val: "Single Family"
        string_val: "Single Family"
        string_val: "Condo"
        string_val: "Condo"
        string_val: "Single Family"
        string_val: "Single Family"
        string_val: "Single Family"
        string_val: "Single Family"
        string_val: "Condo"
        string_val: "Single Family"
        string_val: "Single Family"
        string_val: "Single Family"
        string_val: "Single Family"
        string_val: "Multi Family"
        string_val: "Single Family"
        string_val: "Single Family"
        string_val: "Condo"
        string_val: "Condo"
        string_val: "Single Family"
        string_val: "Single Family"
        string_val: "Single Family"
        string_val: "Single Family"
        string_val: "Condo"
        string_val: "Single Family"
        string_val: "Single Family"
        string_val: "Condo"
        string_val: "Single Family"
        string_val: "Single Family"
        string_val: "Single Family"
        string_val: "Single Family"
        string_val: "Single Family"
        string_val: "Single Family"
        string_val: "Condo"
        string_val: "Cooperative"
        string_val: "Condo"
        string_val: "Multi Family"
        string_val: "Single Family"
        string_val: "Condo"
        string_val: "Single Family"
        string_val: "Condo"
        string_val: "Single Family"
        string_val: "Single Family"
        string_val: "Multi Family"
        string_val: "Condo"
        string_val: "Single Family"
        string_val: "Condo"
        string_val: "Condo"
        string_val: "Condo"
        string_val: "Single Family"
        string_val: "Single Family"
        string_val: "Condo"
        string_val: "Condo"
        string_val: "Single Family"
        string_val: "Condo"
        string_val: "Condo"
        string_val: "Single Family"
        string_val: "Condo"
        string_val: "Single Family"
        string_val: "Condo"
        string_val: "Single Family"
        string_val: "Condo"
        string_val: "Condo"
        string_val: "Condo"
        string_val: "Single Family"
        string_val: "Condo"
        string_val: "Single Family"
        string_val: "Single Family"
        string_val: "Single Family"
        string_val: "Condo"
        string_val: "Multi Family"
        string_val: "Condo"
        string_val: "Condo"
        string_val: "Single Family"
        string_val: "Single Family"
        string_val: "Single Family"
        string_val: "Single Family"
        string_val: "Single Family"
        string_val: "Single Family"
        string_val: "Apartment"
        string_val: "Apartment"
        string_val: "Condo"
        string_val: "Single Family"
        string_val: "Single Family"
        string_val: "Single Family"
        string_val: "Condo"
        string_val: "Single Family"
        string_val: "Condo"
        string_val: "Single Family"
        string_val: "Single Family"
        string_val: "Condo"
        string_val: "Single Family"
        string_val: "Single Family"
        string_val: "Single Family"
        string_val: "Single Family"
        string_val: "Single Family"
        string_val: "Single Family"
        string_val: "Condo"
        string_val: "Condo"
        string_val: "Multiple Occupancy"
        string_val: "Single Family"
        string_val: "Single Family"
        string_val: "Condo"
        string_val: "Condo"
        string_val: "Condo"
        string_val: "Single Family"
        string_val: "Single Family"
        string_val: "Single Family"
        string_val: "Multi Family"
        string_val: "Single Family"
        string_val: "Single Family"
        string_val: "Single Family"
        string_val: "Condo"
        string_val: "Single Family"
        string_val: "Single Family"
        string_val: "Condo"
        string_val: "Condo"
        string_val: "Single Family"
        string_val: "Multi Family"
        string_val: "Condo"
        string_val: "Single Family"
        string_val: "Condo"
        string_val: "Condo"
        string_val: "Single Family"
        string_val: "Condo"
        string_val: "Condo"
        string_val: "Condo"
        string_val: "Single Family"
        string_val: "Single Family"
        string_val: "Condo"
        string_val: "Single Family"
        string_val: "Single Family"
        string_val: "Multi Family"
        string_val: "Single Family"
        string_val: "Single Family"
        string_val: "Single Family"
        string_val: "Single Family"
        string_val: "Single Family"
        string_val: "Condo"
        string_val: "Condo"
        string_val: "Single Family"
        string_val: "Condo"
        string_val: "Single Family"
        string_val: "Single Family"
        string_val: "Condo"
        string_val: "Condo"
        string_val: "Single Family"
        string_val: "Single Family"
        string_val: "Multi Family"
        string_val: "Single Family"
        string_val: "Multiple Occupancy"
        string_val: "Single Family"
        string_val: "Single Family"
        string_val: "Condo"
        string_val: "Single Family"
        string_val: "Condo"
        string_val: "Condo"
        string_val: "Single Family"
        string_val: "Multiple Occupancy"
        string_val: "Single Family"
        string_val: "Condo"
        string_val: "Single Family"
        string_val: "Multiple Occupancy"
        string_val: "Single Family"
        string_val: "Condo"
        string_val: "Condo"
        string_val: "Multiple Occupancy"
        string_val: "Condo"
        string_val: "Single Family"
        string_val: "Single Family"
        string_val: "Condo"
        string_val: "Single Family"
        string_val: "Single Family"
        string_val: "Single Family"
        string_val: "Multiple Occupancy"
        string_val: "Single Family"
        string_val: "Condo"
        string_val: "Condo"
        string_val: "Multi Family"
        string_val: "Single Family"
        string_val: "Single Family"
        string_val: "Condo"
        string_val: "Condo"
        string_val: "Single Family"
        string_val: "Single Family"
        string_val: "Single Family"
        string_val: "Single Family"
        string_val: "Condo"
        string_val: "Single Family"
        string_val: "Single Family"
        string_val: "Single Family"
        string_val: "Single Family"
        string_val: "Condo"
        string_val: "Single Family"
        string_val: "Single Family"
        string_val: "Condo"
        string_val: "Single Family"
        string_val: "Single Family"
        string_val: "Single Family"
        string_val: "Multiple Occupancy"
        string_val: "Single Family"
        string_val: "Single Family"
        string_val: "Condo"
        string_val: "Condo"
        string_val: "Condo"
        string_val: "Condo"
        string_val: "Single Family"
        string_val: "Single Family"
        string_val: "Single Family"
        string_val: "Single Family"
        string_val: "Single Family"
        string_val: "Single Family"
        string_val: "Condo"
        string_val: "Condo"
        string_val: "Single Family"
        string_val: "Single Family"
        string_val: "Condo"
        string_val: "Multi Family"
        string_val: "Single Family"
        string_val: "Single Family"
        string_val: "Single Family"
        string_val: "Single Family"
        string_val: "Single Family"
        string_val: "Single Family"
        string_val: "Condo"
        string_val: "Multi Family"
        string_val: "Single Family"
        string_val: "Single Family"
        string_val: "Single Family"
        string_val: "Condo"
        string_val: "Condo"
        string_val: "Condo"
        string_val: "Single Family"
        string_val: "Single Family"
        string_val: "Multi Family"
        string_val: "Condo"
        string_val: "Condo"
        string_val: "Condo"
        string_val: "Single Family"
        string_val: "Single Family"
        string_val: "Condo"
        string_val: "Condo"
        string_val: "Single Family"
        string_val: "Condo"
        string_val: "Townhouse"
        string_val: "Condo"
        string_val: "Single Family"
        string_val: "Condo"
        string_val: "Single Family"
        string_val: "Single Family"
        string_val: "Single Family"
        string_val: "Single Family"
        string_val: "Condo"
        string_val: "Condo"
        string_val: "Single Family"
        string_val: "Townhouse"
        string_val: "Multi Family"
        string_val: "Condo"
        string_val: "Multiple Occupancy"
        string_val: "Single Family"
        string_val: "Condo"
        string_val: "Multi Family"
        string_val: "Single Family"
        string_val: "Single Family"
        string_val: "Condo"
        string_val: "Condo"
        string_val: "Single Family"
        string_val: "Condo"
        string_val: "Single Family"
        string_val: "Single Family"
        string_val: "Condo"
        string_val: "Single Family"
        string_val: "Single Family"
        string_val: "Condo"
        string_val: "Condo"
        string_val: "Single Family"
        string_val: "Condo"
        string_val: "Condo"
        string_val: "Single Family"
        string_val: "Single Family"
        string_val: "Condo"
        string_val: "Single Family"
        string_val: "Condo"
        string_val: "Single Family"
        string_val: "Single Family"
        string_val: "Condo"
        string_val: "Multi Family"
        string_val: "Single Family"
        string_val: "Single Family"
        string_val: "Multi Family"
        string_val: "Single Family"
        string_val: "Condo"
        string_val: "Multi Family"
        string_val: "Condo"
        string_val: "Single Family"
        string_val: "Single Family"
        string_val: "Multiple Occupancy"
        string_val: "Condo"
        string_val: "Single Family"
        string_val: "Single Family"
        string_val: "Single Family"
        string_val: "Single Family"
        string_val: "Multi Family"
        string_val: "Multiple Occupancy"
        string_val: "Condo"
        string_val: "Condo"
        string_val: "Condo"
        string_val: "Single Family"
        string_val: "Condo"
        string_val: "Multi Family"
        string_val: "Condo"
        string_val: "Condo"
        string_val: "Condo"
        string_val: "Single Family"
        string_val: "Single Family"
        string_val: "Single Family"
        string_val: "Condo"
        string_val: "Single Family"
        string_val: "Single Family"
        string_val: "Condo"
        string_val: "Single Family"
        string_val: "Single Family"
        string_val: "Single Family"
        string_val: "Condo"
        string_val: "Condo"
        string_val: "Single Family"
        string_val: "Multi Family"
        string_val: "Condo"
        string_val: "Condo"
        string_val: "Condo"
        string_val: "Single Family"
        string_val: "Single Family"
        string_val: "Mobile / Manufactured"
        string_val: "Single Family"
        string_val: "Condo"
        string_val: "Single Family"
        string_val: "Single Family"
        string_val: "Condo"
        string_val: "Single Family"
        string_val: "Single Family"
        string_val: "Single Family"
        string_val: "Single Family"
        string_val: "Single Family"
        string_val: "Single Family"
        string_val: "Condo"
        string_val: "Single Family"
        string_val: "Condo"
        string_val: "Single Family"
        string_val: "Single Family"
        string_val: "Single Family"
        string_val: "Single Family"
        string_val: "Single Family"
        string_val: "Single Family"
        string_val: "Condo"
        string_val: "Single Family"
        string_val: "Condo"
        string_val: "Condo"
        string_val: "Condo"
        string_val: "Single Family"
        string_val: "Condo"
        string_val: "Single Family"
        string_val: "Condo"
        string_val: "Single Family"
        string_val: "Single Family"
        string_val: "Single Family"
        string_val: "Condo"
        string_val: "Condo"
        string_val: "Single Family"
        string_val: "Single Family"
        string_val: "Multiple Occupancy"
        string_val: "Condo"
        string_val: "Single Family"
        string_val: "Single Family"
        string_val: "Condo"
        string_val: "Condo"
        string_val: "Single Family"
        string_val: "Condo"
        string_val: "Condo"
        string_val: "Condo"
        string_val: "Condo"
        string_val: "Condo"
        string_val: "Condo"
        string_val: "Condo"
        string_val: "Multi Family"
        string_val: "Condo"
        string_val: "Condo"
        string_val: "Single Family"
        string_val: "Multi Family"
        string_val: "Single Family"
        string_val: "Townhouse"
        string_val: "Condo"
        string_val: "Single Family"
        string_val: "Multiple Occupancy"
        string_val: "Condo"
        string_val: "Condo"
        string_val: "Single Family"
        string_val: "Condo"
        string_val: "Condo"
        string_val: "Townhouse"
        string_val: "Single Family"
        string_val: "Condo"
        string_val: "Single Family"
        string_val: "Multi Family"
        string_val: "Condo"
        string_val: "Condo"
        string_val: "Condo"
        string_val: "Condo"
        string_val: "Condo"
        string_val: "Single Family"
        string_val: "Condo"
        string_val: "Condo"
        string_val: "Condo"
        string_val: "Single Family"
        string_val: "Single Family"
        string_val: "Single Family"
        string_val: "Single Family"
        string_val: "Condo"
        string_val: "Condo"
        string_val: "Single Family"
        string_val: "Multi Family"
        string_val: "Condo"
        string_val: "Condo"
        string_val: "Single Family"
        string_val: "Condo"
        string_val: "Condo"
        string_val: "Condo"
        string_val: "Condo"
        string_val: "Single Family"
        string_val: "Single Family"
        string_val: "Single Family"
        string_val: "Single Family"
        string_val: "Condo"
        string_val: "Condo"
        string_val: "Single Family"
        string_val: "Condo"
        string_val: "Multi Family"
        string_val: "Single Family"
        string_val: "Single Family"
        string_val: "Single Family"
        string_val: "Condo"
        string_val: "Single Family"
        string_val: "Condo"
        string_val: "Condo"
        string_val: "Single Family"
        string_val: "Single Family"
        string_val: "Condo"
        string_val: "Single Family"
        string_val: "Single Family"
        string_val: "Single Family"
        string_val: "Condo"
        string_val: "Single Family"
        string_val: "Condo"
        string_val: "Townhouse"
        string_val: "Single Family"
        string_val: "Condo"
        string_val: "Single Family"
        string_val: "Single Family"
        string_val: "Single Family"
        string_val: "Condo"
        string_val: "Single Family"
        string_val: "Single Family"
        string_val: "Condo"
        string_val: "Single Family"
        string_val: "Condo"
        string_val: "Single Family"
        string_val: "Condo"
        string_val: "Condo"
        string_val: "Condo"
        string_val: "Apartment"
        string_val: "Single Family"
        string_val: "Condo"
        string_val: "Single Family"
        string_val: "Mobile / Manufactured"
        string_val: "Condo"
        string_val: "Single Family"
        string_val: "Single Family"
        string_val: "Condo"
        string_val: "Condo"
        string_val: "Condo"
        string_val: "Condo"
        string_val: "Condo"
        string_val: "Condo"
        string_val: "Single Family"
        string_val: "Single Family"
        string_val: "Single Family"
        string_val: "Condo"
        string_val: "Condo"
        string_val: "Single Family"
        string_val: "Condo"
        string_val: "Condo"
        string_val: "Condo"
        string_val: "Single Family"
        string_val: "Single Family"
        string_val: "Single Family"
        string_val: "Condo"
        string_val: "Townhouse"
        string_val: "Multi Family"
        string_val: "Single Family"
        string_val: "Single Family"
        string_val: "Multiple Occupancy"
        string_val: "Condo"
        string_val: "Single Family"
        string_val: "Single Family"
        string_val: "Single Family"
        string_val: "Condo"
        string_val: "Condo"
        string_val: "Single Family"
        string_val: "Single Family"
        string_val: "Single Family"
        string_val: "Condo"
        string_val: "Multiple Occupancy"
        string_val: "Single Family"
        string_val: "Single Family"
        string_val: "Multi Family"
        string_val: "Single Family"
        string_val: "Single Family"
        string_val: "Condo"
        string_val: "Single Family"
        string_val: "Single Family"
        string_val: "Condo"
        string_val: "Single Family"
        string_val: "Single Family"
        string_val: "Single Family"
        string_val: "Condo"
        string_val: "Single Family"
        string_val: "Multi Family"
        string_val: "Condo"
        string_val: "Townhouse"
        string_val: "Single Family"
        string_val: "Single Family"
        string_val: "Condo"
        string_val: "Condo"
        string_val: "Single Family"
        string_val: "Single Family"
        string_val: "Single Family"
        string_val: "Condo"
        string_val: "Condo"
        string_val: "Single Family"
        string_val: "Single Family"
        string_val: "Condo"
        string_val: "Condo"
        string_val: "Condo"
        string_val: "Condo"
        string_val: "Single Family"
        string_val: "Single Family"
        string_val: "Single Family"
        string_val: "Single Family"
        string_val: "Single Family"
        string_val: "Single Family"
        string_val: "Single Family"
        string_val: "Condo"
        string_val: "Single Family"
        string_val: "Single Family"
        string_val: "Single Family"
        string_val: "Single Family"
        string_val: "Single Family"
        string_val: "Single Family"
        string_val: "Condo"
        string_val: "Condo"
        string_val: "Single Family"
        string_val: "Condo"
        string_val: "Single Family"
        string_val: "Condo"
        string_val: "Single Family"
        string_val: "Single Family"
        string_val: "Multi Family"
        string_val: "Single Family"
        string_val: "Single Family"
        string_val: "Single Family"
        string_val: "Single Family"
        string_val: "Condo"
        string_val: "Condo"
        string_val: "Condo"
        string_val: "Condo"
        string_val: "Single Family"
        string_val: "Single Family"
        string_val: "Single Family"
        string_val: "Single Family"
        string_val: "Single Family"
        string_val: "Condo"
        string_val: "Condo"
        string_val: "Single Family"
        string_val: "Single Family"
        string_val: "Condo"
        string_val: "Condo"
        string_val: "Condo"
        string_val: "Multiple Occupancy"
        string_val: "Single Family"
        string_val: "Condo"
        string_val: "Condo"
        string_val: "Multiple Occupancy"
        string_val: "Multi Family"
        string_val: "Condo"
        string_val: "Multi Family"
        string_val: "Single Family"
        string_val: "Condo"
        string_val: "Condo"
        string_val: "Single Family"
        string_val: "Condo"
        string_val: "Condo"
        string_val: "Single Family"
        string_val: "Single Family"
        string_val: "Condo"
        string_val: "Single Family"
        string_val: "Condo"
        string_val: "Single Family"
        string_val: "Condo"
        string_val: "Condo"
        string_val: "Single Family"
        string_val: "Condo"
        string_val: "Condo"
        string_val: "Condo"
        string_val: "Single Family"
        string_val: "Single Family"
        string_val: "Multi Family"
        string_val: "Single Family"
        string_val: "Single Family"
        string_val: "Single Family"
        string_val: "Single Family"
        string_val: "Single Family"
        string_val: "Single Family"
        string_val: "Multiple Occupancy"
        string_val: "Single Family"
        string_val: "Single Family"
        string_val: "Single Family"
        string_val: "Townhouse"
        string_val: "Condo"
        string_val: "Single Family"
        string_val: "Condo"
        string_val: "Multi Family"
        string_val: "Condo"
        string_val: "Single Family"
        string_val: "Condo"
        string_val: "Single Family"
        string_val: "Single Family"
        string_val: "Single Family"
        string_val: "Condo"
        string_val: "Condo"
        string_val: "Condo"
        string_val: "Condo"
        string_val: "Single Family"
        string_val: "Condo"
        string_val: "Condo"
        string_val: "Multi Family"
        string_val: "Condo"
        string_val: "Single Family"
        string_val: "Condo"
        string_val: "Single Family"
        string_val: "Condo"
        string_val: "Condo"
        string_val: "Condo"
        string_val: "Condo"
        string_val: "Single Family"
        string_val: "Single Family"
        string_val: "Single Family"
        string_val: "Single Family"
        string_val: "Condo"
        string_val: "Single Family"
        string_val: "Condo"
        string_val: "Multi Family"
        string_val: "Single Family"
        string_val: "Single Family"
        string_val: "Condo"
        string_val: "Single Family"
        string_val: "Single Family"
        string_val: "Single Family"
        string_val: "Condo"
        string_val: "Condo"
        string_val: "Single Family"
        string_val: "Condo"
        string_val: "Single Family"
        string_val: "Single Family"
        string_val: "Single Family"
        string_val: "Condo"
        string_val: "Single Family"
        string_val: "Single Family"
        string_val: "Condo"
        string_val: "Condo"
        string_val: "Single Family"
        string_val: "Single Family"
        string_val: "Single Family"
        string_val: "Single Family"
        string_val: "Condo"
        string_val: "Condo"
        string_val: "Single Family"
        string_val: "Condo"
        string_val: "Single Family"
        string_val: "Single Family"
        string_val: "Single Family"
        string_val: "Condo"
        string_val: "Single Family"
        string_val: "Multi Family"
        string_val: "Condo"
        string_val: "Condo"
        string_val: "Single Family"
        string_val: "Condo"
        string_val: "Condo"
        string_val: "Single Family"
        string_val: "Single Family"
        string_val: "Single Family"
        string_val: "Single Family"
        string_val: "Single Family"
        string_val: "Condo"
        string_val: "Condo"
        string_val: "Condo"
        string_val: "Condo"
        string_val: "Condo"
        string_val: "Single Family"
        string_val: "Condo"
        string_val: "Single Family"
        string_val: "Condo"
        string_val: "Single Family"
        string_val: "Condo"
        string_val: "Condo"
        string_val: "Single Family"
        string_val: "Condo"
        string_val: "Single Family"
        string_val: "Condo"
        string_val: "Condo"
        string_val: "Single Family"
        string_val: "Condo"
        string_val: "Condo"
        string_val: "Condo"
        string_val: "Condo"
        string_val: "Single Family"
        string_val: "Condo"
        string_val: "Single Family"
        string_val: "Single Family"
        string_val: "Single Family"
        string_val: "Single Family"
        string_val: "Condo"
        string_val: "Single Family"
        string_val: "Condo"
        string_val: "Single Family"
        string_val: "Single Family"
        string_val: "Single Family"
        string_val: "Condo"
        string_val: "Condo"
        string_val: "Condo"
        string_val: "Single Family"
        string_val: "Single Family"
        string_val: "Condo"
        string_val: "Single Family"
        string_val: "Single Family"
        string_val: "Townhouse"
        string_val: "Multi Family"
        string_val: "Condo"
        string_val: "Single Family"
        string_val: "Single Family"
        string_val: "Condo"
        string_val: "Single Family"
        string_val: "Single Family"
        string_val: "Multiple Occupancy"
        string_val: "Multiple Occupancy"
        string_val: "Single Family"
        string_val: "Condo"
        string_val: "Condo"
        string_val: "Single Family"
        string_val: "Condo"
        string_val: "Single Family"
        string_val: "Single Family"
        string_val: "Multi Family"
        string_val: "Condo"
        string_val: "Condo"
        string_val: "Condo"
        string_val: "Condo"
        string_val: "Condo"
        string_val: "Condo"
        string_val: "Single Family"
        string_val: "Single Family"
        string_val: "Single Family"
        string_val: "Single Family"
        string_val: "Single Family"
        string_val: "Single Family"
        string_val: "Condo"
        string_val: "Single Family"
        string_val: "Condo"
        string_val: "Single Family"
        string_val: "Multi Family"
        string_val: "Single Family"
        string_val: "Single Family"
        string_val: "Single Family"
        string_val: "Single Family"
        string_val: "Condo"
        string_val: "Condo"
        string_val: "Single Family"
        string_val: "Single Family"
        string_val: "Condo"
        string_val: "Condo"
        string_val: "Multiple Occupancy"
        string_val: "Condo"
        string_val: "Condo"
        string_val: "Condo"
        string_val: "Single Family"
        string_val: "Single Family"
        string_val: "Condo"
        string_val: "Condo"
        string_val: "Condo"
        string_val: "Condo"
        string_val: "Single Family"
        string_val: "Multi Family"
        string_val: "Single Family"
        string_val: "Single Family"
        string_val: "Condo"
        string_val: "Single Family"
        string_val: "Single Family"
        string_val: "Single Family"
        string_val: "Condo"
        string_val: "Single Family"
        string_val: "Condo"
        string_val: "Multi Family"
        string_val: "Condo"
        string_val: "Condo"
        string_val: "Condo"
        string_val: "Single Family"
        string_val: "Single Family"
        string_val: "Single Family"
        string_val: "Condo"
        string_val: "Single Family"
        string_val: "Condo"
        string_val: "Multiple Occupancy"
        string_val: "Multiple Occupancy"
        string_val: "Single Family"
        string_val: "Single Family"
        string_val: "Multi Family"
        string_val: "Multi Family"
        string_val: "Multi Family"
        string_val: "Single Family"
        string_val: "Single Family"
        string_val: "Multi Family"
        string_val: "Condo"
        string_val: "Single Family"
        string_val: "Single Family"
        string_val: "Single Family"
        string_val: "Single Family"
        string_val: "Condo"
        string_val: "Condo"
        string_val: "Condo"
        string_val: "Single Family"
        string_val: "Condo"
        string_val: "Single Family"
        string_val: "Condo"
        string_val: "Single Family"
        string_val: "Condo"
        string_val: "Single Family"
        string_val: "Condo"
        string_val: "Multi Family"
        string_val: "Single Family"
        string_val: "Single Family"
        string_val: "Multiple Occupancy"
        string_val: "Condo"
        string_val: "Condo"
        string_val: "Condo"
        string_val: "Single Family"
        string_val: "Condo"
        string_val: "Single Family"
        string_val: "Single Family"
        string_val: "Miscellaneous"
        string_val: "Multi Family"
        string_val: "Condo"
        string_val: "Multi Family"
        string_val: "Single Family"
        string_val: "Single Family"
        string_val: "Condo"
        string_val: "Single Family"
        string_val: "Single Family"
        string_val: "Single Family"
        string_val: "Condo"
        string_val: "Single Family"
        string_val: "Multi Family"
        string_val: "Single Family"
        string_val: "Condo"
        string_val: "Condo"
        string_val: "Single Family"
        string_val: "Single Family"
        string_val: "Condo"
        string_val: "Multiple Occupancy"
        string_val: "Single Family"
        string_val: "Single Family"
        string_val: "Single Family"
        string_val: "Single Family"
        string_val: "Single Family"
        string_val: "Condo"
        string_val: "Condo"
        string_val: "Single Family"
        string_val: "Single Family"
        string_val: "Single Family"
        string_val: "Single Family"
        string_val: "Miscellaneous"
        string_val: "Condo"
        string_val: "Multi Family"
        string_val: "Single Family"
        string_val: "Single Family"
        string_val: "Single Family"
        string_val: "Multiple Occupancy"
        string_val: "Condo"
        string_val: "Single Family"
        string_val: "Single Family"
        string_val: "Single Family"
        string_val: "Condo"
        string_val: "Single Family"
        string_val: "Condo"
        string_val: "Single Family"
        string_val: "Single Family"
        string_val: "Condo"
        string_val: "Mobile / Manufactured"
        string_val: "Single Family"
        string_val: "Condo"
        string_val: "Condo"
        string_val: "Single Family"
        string_val: "Single Family"
        string_val: "Single Family"
        string_val: "Single Family"
        string_val: "Single Family"
        string_val: "Single Family"
        string_val: "Condo"
        string_val: "Condo"
        string_val: "Single Family"
        string_val: "Single Family"
        string_val: "Single Family"
        string_val: "Condo"
        string_val: "Single Family"
        string_val: "Single Family"
        string_val: "Single Family"
        string_val: "Single Family"
        string_val: "Single Family"
        string_val: "Single Family"
        string_val: "Single Family"
        string_val: "Condo"
        string_val: "Mobile / Manufactured"
        string_val: "Multiple Occupancy"
        string_val: "Single Family"
        string_val: "Single Family"
        string_val: "Single Family"
        string_val: "Condo"
        string_val: "Multiple Occupancy"
        string_val: "Single Family"
        string_val: "Single Family"
        string_val: "Condo"
        string_val: "Condo"
        string_val: "Condo"
        string_val: "Single Family"
        string_val: "Multiple Occupancy"
        string_val: "Single Family"
        string_val: "Condo"
        string_val: "Single Family"
        string_val: "Condo"
        string_val: "Single Family"
        string_val: "Single Family"
        string_val: "Condo"
        string_val: "Single Family"
        string_val: "Single Family"
        string_val: "Condo"
        string_val: "Condo"
        string_val: "Single Family"
        string_val: "Single Family"
        string_val: "Condo"
        string_val: "Single Family"
        string_val: "Single Family"
        string_val: "Multiple Occupancy"
        string_val: "Multi Family"
        string_val: "Condo"
        string_val: "Condo"
        string_val: "Single Family"
        string_val: "Single Family"
        string_val: "Condo"
        string_val: "Single Family"
        string_val: "Single Family"
        string_val: "Multiple Occupancy"
        string_val: "Condo"
        string_val: "Condo"
        string_val: "Condo"
        string_val: "Condo"
        string_val: "Single Family"
        string_val: "Condo"
        string_val: "Single Family"
        string_val: "Single Family"
        string_val: "Single Family"
        string_val: "Single Family"
        string_val: "Condo"
        string_val: "Single Family"
        string_val: "Single Family"
        string_val: "Condo"
        string_val: "Condo"
        string_val: "Single Family"
        string_val: "Multi Family"
        string_val: "Condo"
        string_val: "Single Family"
        string_val: "Single Family"
        string_val: "Single Family"
        string_val: "Single Family"
        string_val: "Multiple Occupancy"
        string_val: "Single Family"
        string_val: "Single Family"
        string_val: "Condo"
        string_val: "Condo"
        string_val: "Single Family"
        string_val: "Single Family"
        string_val: "Condo"
        string_val: "Single Family"
        string_val: "Multiple Occupancy"
        string_val: "Single Family"
        string_val: "Single Family"
        string_val: "Condo"
        string_val: "Single Family"
        string_val: "Condo"
        string_val: "Single Family"
        string_val: "Single Family"
        string_val: "Condo"
        string_val: "Single Family"
        string_val: "Condo"
        string_val: "Single Family"
        string_val: "Single Family"
        string_val: "Condo"
        string_val: "Condo"
        string_val: "Condo"
        string_val: "Single Family"
        string_val: "Condo"
        string_val: "Single Family"
        string_val: "Single Family"
        string_val: "Single Family"
        string_val: "Condo"
        string_val: "Single Family"
        string_val: "Single Family"
        string_val: "Condo"
        string_val: "Single Family"
        string_val: "Multiple Occupancy"
        string_val: "Single Family"
        string_val: "Single Family"
        string_val: "Single Family"
        string_val: "Single Family"
        string_val: "Condo"
        string_val: "Condo"
        string_val: "Condo"
        string_val: "Single Family"
        string_val: "Single Family"
        string_val: "Single Family"
        string_val: "Single Family"
        string_val: "Condo"
        string_val: "Single Family"
        string_val: "Single Family"
        string_val: "Single Family"
        string_val: "Condo"
        string_val: "Condo"
        string_val: "Mobile / Manufactured"
        string_val: "Condo"
        string_val: "Condo"
        string_val: "Single Family"
        string_val: "Condo"
        string_val: "Single Family"
        string_val: "Single Family"
        string_val: "Single Family"
        string_val: "Multi Family"
        string_val: "Single Family"
        string_val: "Single Family"
        string_val: "Condo"
        string_val: "Condo"
        string_val: "Condo"
        string_val: "Single Family"
        string_val: "Condo"
        string_val: "Single Family"
        string_val: "Condo"
        string_val: "Single Family"
        string_val: "Single Family"
        string_val: "Single Family"
        string_val: "Condo"
        string_val: "Single Family"
        string_val: "Condo"
        string_val: "Single Family"
        string_val: "Condo"
        string_val: "Condo"
        string_val: "Condo"
        string_val: "Single Family"
        string_val: "Single Family"
        string_val: "Single Family"
        string_val: "Single Family"
        string_val: "Single Family"
        string_val: "Single Family"
        string_val: "Single Family"
        string_val: "Condo"
        string_val: "Single Family"
        string_val: "Condo"
        string_val: "Single Family"
        string_val: "Multi Family"
        string_val: "Condo"
        string_val: "Single Family"
        string_val: "Single Family"
        string_val: "Single Family"
        string_val: "Condo"
        string_val: "Condo"
        string_val: "Condo"
        string_val: "Condo"
        string_val: "Condo"
        string_val: "Condo"
        string_val: "Single Family"
        string_val: "Single Family"
        string_val: "Single Family"
        string_val: "Condo"
        string_val: "Single Family"
        string_val: "Single Family"
        string_val: "Single Family"
        string_val: "Condo"
        string_val: "Single Family"
        string_val: "Single Family"
        string_val: "Condo"
        string_val: "Condo"
        string_val: "Single Family"
        string_val: "Single Family"
        string_val: "Mobile / Manufactured"
        string_val: "Single Family"
        string_val: "Condo"
        string_val: "Single Family"
        string_val: "Condo"
        string_val: "Condo"
        string_val: "Multi Family"
        string_val: "Multi Family"
        string_val: "Multi Family"
        string_val: "Multi Family"
        string_val: "Condo"
        string_val: "Single Family"
        string_val: "Single Family"
        string_val: "Single Family"
        string_val: "Condo"
        string_val: "Single Family"
        string_val: "Condo"
        string_val: "Single Family"
        string_val: "Condo"
        string_val: "Condo"
        string_val: "Single Family"
        string_val: "Multi Family"
        string_val: "Condo"
        string_val: "Single Family"
        string_val: "Single Family"
        string_val: "Single Family"
        string_val: "Multiple Occupancy"
        string_val: "Condo"
        string_val: "Condo"
        string_val: "Condo"
        string_val: "Single Family"
        string_val: "Single Family"
        string_val: "Single Family"
        string_val: "Single Family"
        string_val: "Single Family"
        string_val: "Single Family"
        string_val: "Single Family"
        string_val: "Single Family"
        string_val: "Single Family"
        string_val: "Single Family"
        string_val: "Single Family"
        string_val: "Multi Family"
        string_val: "Condo"
        string_val: "Single Family"
        string_val: "Condo"
        string_val: "Single Family"
        string_val: "Single Family"
        string_val: "Single Family"
        string_val: "Condo"
        string_val: "Single Family"
        string_val: "Single Family"
        string_val: "Single Family"
        string_val: "Condo"
        string_val: "Single Family"
        string_val: "Condo"
        string_val: "Single Family"
        string_val: "Condo"
        string_val: "Multi Family"
        string_val: "Single Family"
        string_val: "Condo"
        string_val: "Single Family"
        string_val: "Condo"
        string_val: "Single Family"
        string_val: "Single Family"
        string_val: "Multi Family"
        string_val: "Condo"
        string_val: "Condo"
        string_val: "Single Family"
        string_val: "Condo"
        string_val: "Single Family"
        string_val: "Apartment"
        string_val: "Single Family"
        string_val: "Single Family"
        string_val: "Single Family"
        string_val: "Single Family"
        string_val: "Single Family"
        string_val: "Condo"
        string_val: "Single Family"
        string_val: "Condo"
        string_val: "Single Family"
        string_val: "Single Family"
        string_val: "Condo"
        string_val: "Single Family"
        string_val: "Single Family"
        string_val: "Single Family"
        string_val: "Single Family"
        string_val: "Condo"
        string_val: "Single Family"
        string_val: "Single Family"
        string_val: "Single Family"
        string_val: "Condo"
        string_val: "Multi Family"
        string_val: "Multi Family"
        string_val: "Condo"
        string_val: "Single Family"
        string_val: "Single Family"
        string_val: "Single Family"
        string_val: "Single Family"
        string_val: "Condo"
        string_val: "Single Family"
        string_val: "Single Family"
        string_val: "Single Family"
        string_val: "Single Family"
        string_val: "Single Family"
        string_val: "Single Family"
        string_val: "Mobile / Manufactured"
        string_val: "Single Family"
        string_val: "Single Family"
        string_val: "Single Family"
        string_val: "Single Family"
        string_val: "Condo"
        string_val: "Single Family"
        string_val: "Condo"
        string_val: "Single Family"
        string_val: "Single Family"
        string_val: "Condo"
        string_val: "Condo"
        string_val: "Condo"
        string_val: "Single Family"
        string_val: "Single Family"
        string_val: "Single Family"
        string_val: "Condo"
        string_val: "Single Family"
        string_val: "Single Family"
        string_val: "Condo"
        string_val: "Condo"
        string_val: "Single Family"
        string_val: "Condo"
        string_val: "Single Family"
        string_val: "Single Family"
        string_val: "Single Family"
        string_val: "Single Family"
        string_val: "Single Family"
        string_val: "Condo"
        string_val: "Single Family"
        string_val: "Single Family"
        string_val: "Single Family"
        string_val: "Single Family"
        string_val: "Single Family"
        string_val: "Condo"
        string_val: "Single Family"
        string_val: "Single Family"
        string_val: "Condo"
        string_val: "Condo"
        string_val: "Single Family"
        string_val: "Single Family"
        string_val: "Single Family"
        string_val: "Condo"
        string_val: "Single Family"
        string_val: "Single Family"
        string_val: "Condo"
        string_val: "Single Family"
        string_val: "Multi Family"
        string_val: "Townhouse"
        string_val: "Condo"
        string_val: "Condo"
        string_val: "Single Family"
        string_val: "Single Family"
        string_val: "Single Family"
        string_val: "Condo"
        string_val: "Single Family"
        string_val: "Condo"
        string_val: "Single Family"
        string_val: "Condo"
        string_val: "Single Family"
        string_val: "Condo"
        string_val: "Single Family"
        string_val: "Single Family"
        string_val: "Single Family"
        string_val: "Single Family"
        string_val: "Condo"
        string_val: "Single Family"
        string_val: "Single Family"
        string_val: "Condo"
        string_val: "Single Family"
        string_val: "Single Family"
        string_val: "Single Family"
        string_val: "Condo"
        string_val: "Condo"
        string_val: "Condo"
        string_val: "Single Family"
        string_val: "Apartment"
        string_val: "Condo"
        string_val: "Condo"
        string_val: "Single Family"
        string_val: "Condo"
        string_val: "Single Family"
        string_val: "Single Family"
        string_val: "Single Family"
        string_val: "Multi Family"
        string_val: "Condo"
        string_val: "Single Family"
        string_val: "Condo"
        string_val: "Single Family"
        string_val: "Single Family"
        string_val: "Condo"
        string_val: "Multi Family"
        string_val: "Single Family"
        string_val: "Condo"
        string_val: "Single Family"
        string_val: "Condo"
        string_val: "Single Family"
        string_val: "Single Family"
        string_val: "Single Family"
        string_val: "Condo"
        string_val: "Single Family"
        string_val: "Single Family"
        string_val: "Condo"
        string_val: "Single Family"
        string_val: "Single Family"
        string_val: "Single Family"
        string_val: "Multi Family"
        string_val: "Single Family"
        string_val: "Condo"
        string_val: "Condo"
        string_val: "Single Family"
        string_val: "Single Family"
        string_val: "Single Family"
        string_val: "Condo"
        string_val: "Single Family"
        string_val: "Single Family"
        string_val: "Single Family"
        string_val: "Single Family"
        string_val: "Condo"
        string_val: "Multi Family"
        string_val: "Single Family"
        string_val: "Single Family"
        string_val: "Condo"
        string_val: "Single Family"
        string_val: "Single Family"
        string_val: "Single Family"
        string_val: "Single Family"
        string_val: "Single Family"
        string_val: "Single Family"
        string_val: "Single Family"
        string_val: "Condo"
        string_val: "Condo"
        string_val: "Condo"
        string_val: "Single Family"
        string_val: "Single Family"
        string_val: "Single Family"
        string_val: "Multiple Occupancy"
        string_val: "Mobile / Manufactured"
        string_val: "Single Family"
        string_val: "Multiple Occupancy"
        string_val: "Single Family"
        string_val: "Single Family"
        string_val: "Condo"
        string_val: "Condo"
        string_val: "Condo"
        string_val: "Single Family"
        string_val: "Condo"
        string_val: "Multi Family"
        string_val: "Condo"
        string_val: "Single Family"
        string_val: "Condo"
        string_val: "Condo"
        string_val: "Single Family"
        string_val: "Condo"
        string_val: "Single Family"
        string_val: "Condo"
        string_val: "Multiple Occupancy"
        string_val: "Single Family"
        string_val: "Single Family"
        string_val: "Single Family"
        string_val: "Condo"
        string_val: "Single Family"
        string_val: "Single Family"
        string_val: "Single Family"
        string_val: "Single Family"
        string_val: "Condo"
        string_val: "Single Family"
        string_val: "Condo"
        string_val: "Single Family"
        string_val: "Single Family"
        string_val: "Condo"
        string_val: "Single Family"
        string_val: "Multiple Occupancy"
        string_val: "Multiple Occupancy"
        string_val: "Single Family"
        string_val: "Single Family"
        string_val: "Multi Family"
        string_val: "Condo"
        string_val: "Condo"
        string_val: "Condo"
        string_val: "Multi Family"
        string_val: "Single Family"
        string_val: "Condo"
        string_val: "Single Family"
        string_val: "Single Family"
        string_val: "Apartment"
        string_val: "Condo"
        string_val: "Condo"
        string_val: "Single Family"
        string_val: "Condo"
        string_val: "Single Family"
        string_val: "Single Family"
        string_val: "Single Family"
        string_val: "Single Family"
        string_val: "Condo"
        string_val: "Single Family"
        string_val: "Condo"
        string_val: "Single Family"
        string_val: "Single Family"
        string_val: "Single Family"
        string_val: "Single Family"
        string_val: "Single Family"
        string_val: "Condo"
        string_val: "Condo"
        string_val: "Condo"
        string_val: "Single Family"
        string_val: "Single Family"
        string_val: "Multiple Occupancy"
        string_val: "Single Family"
        string_val: "Single Family"
        string_val: "Single Family"
        string_val: "Single Family"
        string_val: "Condo"
        string_val: "Condo"
        string_val: "Condo"
        string_val: "Multiple Occupancy"
        string_val: "Multiple Occupancy"
        string_val: "Single Family"
        string_val: "Single Family"
        string_val: "Condo"
        string_val: "Single Family"
        string_val: "Condo"
        string_val: "Single Family"
        string_val: "Condo"
        string_val: "Multi Family"
        string_val: "Single Family"
        string_val: "Condo"
        string_val: "Condo"
        string_val: "Single Family"
        string_val: "Multiple Occupancy"
        string_val: "Single Family"
        string_val: "Single Family"
        string_val: "Condo"
        string_val: "Single Family"
        string_val: "Condo"
        string_val: "Single Family"
        string_val: "Condo"
        string_val: "Single Family"
        string_val: "Condo"
        string_val: "Condo"
        string_val: "Single Family"
        string_val: "Single Family"
        string_val: "Condo"
        string_val: "Single Family"
        string_val: "Single Family"
        string_val: "Condo"
        string_val: "Single Family"
        string_val: "Multiple Occupancy"
        string_val: "Single Family"
        string_val: "Single Family"
        string_val: "Single Family"
        string_val: "Single Family"
        string_val: "Single Family"
        string_val: "Single Family"
        string_val: "Single Family"
        string_val: "Single Family"
        string_val: "Single Family"
        string_val: "Single Family"
        string_val: "Condo"
        string_val: "Condo"
        string_val: "Single Family"
        string_val: "Single Family"
        string_val: "Single Family"
        string_val: "Condo"
        string_val: "Single Family"
        string_val: "Condo"
        string_val: "Single Family"
        string_val: "Condo"
        string_val: "Condo"
        string_val: "Single Family"
        string_val: "Single Family"
        string_val: "Condo"
        string_val: "Condo"
        string_val: "Condo"
        string_val: "Multiple Occupancy"
        string_val: "Multi Family"
        string_val: "Condo"
        string_val: "Single Family"
        string_val: "Townhouse"
        string_val: "Condo"
        string_val: "Single Family"
        string_val: "Single Family"
        string_val: "Condo"
        string_val: "Single Family"
        string_val: "Single Family"
        string_val: "Single Family"
        string_val: "Single Family"
        string_val: "Single Family"
        string_val: "Condo"
        string_val: "Single Family"
        string_val: "Single Family"
        string_val: "Single Family"
        string_val: "Single Family"
        string_val: "Single Family"
        string_val: "Single Family"
        string_val: "Condo"
        string_val: "Multi Family"
        string_val: "Single Family"
        string_val: "Single Family"
        string_val: "Single Family"
        string_val: "Single Family"
        string_val: "Condo"
        string_val: "Single Family"
        string_val: "Single Family"
        string_val: "Condo"
        string_val: "Condo"
        string_val: "Condo"
        string_val: "Condo"
        string_val: "Multiple Occupancy"
        string_val: "Single Family"
        string_val: "Multi Family"
        string_val: "Single Family"
        string_val: "Single Family"
        string_val: "Single Family"
        string_val: "Condo"
        string_val: "Condo"
        string_val: "Condo"
        string_val: "Single Family"
        string_val: "Condo"
        string_val: "Single Family"
        string_val: "Single Family"
        string_val: "Single Family"
        string_val: "Single Family"
        string_val: "Condo"
        string_val: "Single Family"
        string_val: "Condo"
        string_val: "Single Family"
        string_val: "Single Family"
        string_val: "Condo"
        string_val: "Single Family"
        string_val: "Condo"
        string_val: "Condo"
        string_val: "Condo"
        string_val: "Single Family"
        string_val: "Single Family"
        string_val: "Single Family"
        string_val: "Condo"
        string_val: "Condo"
        string_val: "Condo"
        string_val: "Single Family"
        string_val: "Condo"
        string_val: "Single Family"
        string_val: "Condo"
        string_val: "Condo"
        string_val: "Single Family"
        string_val: "Condo"
        string_val: "Condo"
        string_val: "Condo"
        string_val: "Condo"
        string_val: "Single Family"
        string_val: "Condo"
        string_val: "Condo"
        string_val: "Multiple Occupancy"
        string_val: "Single Family"
        string_val: "Single Family"
        string_val: "Condo"
        string_val: "Single Family"
        string_val: "Condo"
        string_val: "Single Family"
        string_val: "Condo"
        string_val: "Single Family"
        string_val: "Single Family"
        string_val: "Single Family"
        string_val: "Condo"
        string_val: "Condo"
        string_val: "Condo"
        string_val: "Single Family"
        string_val: "Condo"
        string_val: "Condo"
        string_val: "Single Family"
        string_val: "Single Family"
        string_val: "Condo"
        string_val: "Multiple Occupancy"
        string_val: "Condo"
        string_val: "Single Family"
        string_val: "Condo"
        string_val: "Single Family"
        string_val: "Single Family"
        string_val: "Single Family"
        string_val: "Single Family"
        string_val: "Single Family"
        string_val: "Multi Family"
        string_val: "Condo"
        string_val: "Condo"
        string_val: "Single Family"
        string_val: "Condo"
        string_val: "Single Family"
        string_val: "Single Family"
        string_val: "Condo"
        string_val: "Single Family"
        string_val: "Single Family"
        string_val: "Condo"
        string_val: "Condo"
        string_val: "Single Family"
        string_val: "Single Family"
        string_val: "Condo"
        string_val: "Single Family"
        string_val: "Condo"
        string_val: "Single Family"
        string_val: "Single Family"
        string_val: "Multi Family"
        string_val: "Single Family"
        string_val: "Single Family"
        string_val: "Condo"
        string_val: "Single Family"
        string_val: "Condo"
        string_val: "Single Family"
        string_val: "Single Family"
        string_val: "Multiple Occupancy"
        string_val: "Single Family"
        string_val: "Condo"
        string_val: "Single Family"
        string_val: "Single Family"
        string_val: "Single Family"
        string_val: "Condo"
        string_val: "Single Family"
        string_val: "Single Family"
        string_val: "Single Family"
        string_val: "Single Family"
        string_val: "Single Family"
        string_val: "Single Family"
        string_val: "Condo"
        string_val: "Condo"
        string_val: "Single Family"
        string_val: "Single Family"
        string_val: "Single Family"
        string_val: "Single Family"
        string_val: "Single Family"
        string_val: "Single Family"
        string_val: "Single Family"
        string_val: "Single Family"
        string_val: "Multiple Occupancy"
        string_val: "Single Family"
        string_val: "Condo"
        string_val: "Condo"
        string_val: "Single Family"
        string_val: "Apartment"
        string_val: "Single Family"
        string_val: "Single Family"
        string_val: "Condo"
        string_val: "Condo"
        string_val: "Single Family"
        string_val: "Condo"
        string_val: "Single Family"
        string_val: "Condo"
        string_val: "Condo"
        string_val: "Condo"
        string_val: "Single Family"
        string_val: "Single Family"
        string_val: "Single Family"
        string_val: "Condo"
        string_val: "Multiple Occupancy"
        string_val: "Mobile / Manufactured"
        string_val: "Single Family"
        string_val: "Single Family"
        string_val: "Single Family"
        string_val: "Single Family"
        string_val: "Condo"
        string_val: "Single Family"
        string_val: "Single Family"
        string_val: "Single Family"
        string_val: "Condo"
        string_val: "Condo"
        string_val: "Single Family"
        string_val: "Condo"
        string_val: "Single Family"
        string_val: "Condo"
        string_val: "Condo"
        string_val: "Single Family"
        string_val: "Single Family"
        string_val: "Single Family"
        string_val: "Condo"
        string_val: "Single Family"
        string_val: "Single Family"
        string_val: "Condo"
        string_val: "Single Family"
        string_val: "Condo"
        string_val: "Condo"
        string_val: "Single Family"
        string_val: "Single Family"
        string_val: "Single Family"
        string_val: "Condo"
        string_val: "Condo"
        string_val: "Multi Family"
        string_val: "Single Family"
        string_val: "Condo"
        string_val: "Single Family"
        string_val: "Condo"
        string_val: "Single Family"
        string_val: "Condo"
        string_val: "Condo"
        string_val: "Single Family"
        string_val: "Condo"
        string_val: "Single Family"
        string_val: "Multi Family"
        string_val: "Single Family"
        string_val: "Condo"
        string_val: "Single Family"
        string_val: "Single Family"
        string_val: "Single Family"
        string_val: "Single Family"
        string_val: "Single Family"
        string_val: "Condo"
        string_val: "Condo"
        string_val: "Single Family"
        string_val: "Condo"
        string_val: "Single Family"
        string_val: "Single Family"
        string_val: "Single Family"
        string_val: "Single Family"
        string_val: "Condo"
        string_val: "Single Family"
        string_val: "Condo"
        string_val: "Condo"
        string_val: "Condo"
        string_val: "Single Family"
        string_val: "Single Family"
        string_val: "Multiple Occupancy"
        string_val: "Condo"
        string_val: "Condo"
        string_val: "Condo"
        string_val: "Condo"
        string_val: "Single Family"
        string_val: "Condo"
        string_val: "Condo"
        string_val: "Single Family"
        string_val: "Condo"
        string_val: "Condo"
        string_val: "Condo"
        string_val: "Single Family"
        string_val: "Condo"
        string_val: "Single Family"
        string_val: "Single Family"
        string_val: "Condo"
        string_val: "Condo"
        string_val: "Condo"
        string_val: "Condo"
        string_val: "Condo"
        string_val: "Single Family"
        string_val: "Single Family"
        string_val: "Single Family"
        string_val: "Condo"
        string_val: "Condo"
        string_val: "Single Family"
        string_val: "Single Family"
        string_val: "Single Family"
        string_val: "Single Family"
        string_val: "Single Family"
        string_val: "Single Family"
        string_val: "Condo"
        string_val: "Single Family"
        string_val: "Single Family"
        string_val: "Single Family"
        string_val: "Single Family"
        string_val: "Single Family"
        string_val: "Single Family"
        string_val: "Single Family"
        string_val: "Condo"
        string_val: "Condo"
        string_val: "Condo"
        string_val: "Condo"
        string_val: "Condo"
        string_val: "Single Family"
        string_val: "Condo"
        string_val: "Condo"
        string_val: "Condo"
        string_val: "Condo"
        string_val: "Condo"
        string_val: "Single Family"
        string_val: "Single Family"
        string_val: "Single Family"
        string_val: "Condo"
        string_val: "Single Family"
        string_val: "Condo"
        string_val: "Condo"
        string_val: "Single Family"
        string_val: "Condo"
        string_val: "Condo"
        string_val: "Single Family"
        string_val: "Single Family"
        string_val: "Condo"
        string_val: "Condo"
        string_val: "Condo"
        string_val: "Apartment"
        string_val: "Single Family"
        string_val: "Single Family"
        string_val: "Single Family"
        string_val: "Single Family"
        string_val: "Multi Family"
        string_val: "Condo"
        string_val: "Single Family"
        string_val: "Single Family"
        string_val: "Condo"
        string_val: "Condo"
        string_val: "Condo"
        string_val: "Single Family"
        string_val: "Single Family"
        string_val: "Single Family"
        string_val: "Single Family"
        string_val: "Single Family"
        string_val: "Single Family"
        string_val: "Single Family"
        string_val: "Multi Family"
        string_val: "Multi Family"
        string_val: "Single Family"
        string_val: "Single Family"
        string_val: "Condo"
        string_val: "Single Family"
        string_val: "Condo"
        string_val: "Condo"
        string_val: "Single Family"
        string_val: "Single Family"
        string_val: "Condo"
        string_val: "Single Family"
        string_val: "Single Family"
        string_val: "Single Family"
        string_val: "Single Family"
        string_val: "Condo"
        string_val: "Condo"
        string_val: "Single Family"
        string_val: "Single Family"
        string_val: "Single Family"
        string_val: "Multi Family"
        string_val: "Condo"
        string_val: "Condo"
        string_val: "Single Family"
        string_val: "Single Family"
        string_val: "Single Family"
        string_val: "Single Family"
        string_val: "Condo"
        string_val: "Single Family"
        string_val: "Single Family"
        string_val: "Single Family"
        string_val: "Condo"
        string_val: "Single Family"
        string_val: "Single Family"
        string_val: "Condo"
        string_val: "Condo"
        string_val: "Single Family"
        string_val: "Single Family"
        string_val: "Condo"
        string_val: "Multiple Occupancy"
        string_val: "Single Family"
        string_val: "Single Family"
        string_val: "Condo"
        string_val: "Multiple Occupancy"
        string_val: "Condo"
        string_val: "Condo"
        string_val: "Condo"
        string_val: "Condo"
        string_val: "Condo"
        string_val: "Condo"
        string_val: "Single Family"
        string_val: "Single Family"
        string_val: "Single Family"
        string_val: "Single Family"
        string_val: "Multi Family"
        string_val: "Single Family"
        string_val: "Single Family"
        string_val: "Condo"
        string_val: "Single Family"
        string_val: "Multiple Occupancy"
        string_val: "Multi Family"
        string_val: "Condo"
        string_val: "Single Family"
        string_val: "Condo"
        string_val: "Condo"
        string_val: "Single Family"
        string_val: "Single Family"
        string_val: "Condo"
        string_val: "Condo"
        string_val: "Single Family"
        string_val: "Single Family"
        string_val: "Condo"
        string_val: "Multiple Occupancy"
        string_val: "Single Family"
        string_val: "Single Family"
        string_val: "Single Family"
        string_val: "Single Family"
        string_val: "Condo"
        string_val: "Single Family"
        string_val: "Single Family"
        string_val: "Condo"
        string_val: "Single Family"
        string_val: "Condo"
        string_val: "Condo"
        string_val: "Condo"
        string_val: "Condo"
        string_val: "Single Family"
        string_val: "Single Family"
        string_val: "Single Family"
        string_val: "Single Family"
        string_val: "Multi Family"
        string_val: "Single Family"
        string_val: "Single Family"
        string_val: "Condo"
        string_val: "Single Family"
        string_val: "Single Family"
        string_val: "Condo"
        string_val: "Single Family"
        string_val: "Single Family"
        string_val: "Condo"
        string_val: "Single Family"
        string_val: "Single Family"
        string_val: "Multi Family"
        string_val: "Condo"
        string_val: "Single Family"
        string_val: "Single Family"
        string_val: "Single Family"
        string_val: "Single Family"
        string_val: "Miscellaneous"
        string_val: "Condo"
        string_val: "Single Family"
        string_val: "Single Family"
        string_val: "Condo"
        string_val: "Condo"
        string_val: "Condo"
        string_val: "Single Family"
        string_val: "Single Family"
        string_val: "Single Family"
        string_val: "Multi Family"
        string_val: "Condo"
        string_val: "Single Family"
        string_val: "Apartment"
        string_val: "Single Family"
        string_val: "Condo"
        string_val: "Condo"
        string_val: "Single Family"
        string_val: "Townhouse"
        string_val: "Single Family"
        string_val: "Multi Family"
        string_val: "Condo"
        string_val: "Single Family"
        string_val: "Single Family"
        string_val: "Condo"
        string_val: "Single Family"
        string_val: "Condo"
        string_val: "Single Family"
        string_val: "Condo"
        string_val: "Single Family"
        string_val: "Single Family"
        string_val: "Single Family"
        string_val: "Condo"
        string_val: "Single Family"
        string_val: "Condo"
        string_val: "Single Family"
        string_val: "Single Family"
        string_val: "Condo"
        string_val: "Townhouse"
        string_val: "Single Family"
        string_val: "Condo"
        string_val: "Condo"
        string_val: "Single Family"
        string_val: "Condo"
        string_val: "Single Family"
        string_val: "Single Family"
        string_val: "Condo"
        string_val: "Single Family"
        string_val: "Multi Family"
        string_val: "Condo"
        string_val: "Condo"
        string_val: "Single Family"
        string_val: "Condo"
        string_val: "Single Family"
        string_val: "Condo"
        string_val: "Multi Family"
        string_val: "Single Family"
        string_val: "Condo"
        string_val: "Condo"
        string_val: "Condo"
        string_val: "Single Family"
        string_val: "Single Family"
        string_val: "Condo"
        string_val: "Single Family"
        string_val: "Single Family"
        string_val: "Condo"
        string_val: "Condo"
        string_val: "Condo"
        string_val: "Single Family"
        string_val: "Single Family"
        string_val: "Single Family"
        string_val: "Condo"
        string_val: "Single Family"
        string_val: "Multiple Occupancy"
        string_val: "Multiple Occupancy"
        string_val: "Condo"
        string_val: "Single Family"
        string_val: "Single Family"
        string_val: "Condo"
        string_val: "Multi Family"
        string_val: "Single Family"
        string_val: "Townhouse"
        string_val: "Apartment"
        string_val: "Condo"
        string_val: "Single Family"
        string_val: "Single Family"
        string_val: "Condo"
        string_val: "Single Family"
        string_val: "Single Family"
        string_val: "Condo"
        string_val: "Single Family"
        string_val: "Single Family"
        string_val: "Single Family"
        string_val: "Single Family"
        string_val: "Condo"
        string_val: "Condo"
        string_val: "Multiple Occupancy"
        string_val: "Single Family"
        string_val: "Single Family"
        string_val: "Multiple Occupancy"
        string_val: "Single Family"
        string_val: "Condo"
        string_val: "Condo"
        string_val: "Condo"
        string_val: "Multi Family"
        string_val: "Townhouse"
        string_val: "Single Family"
        string_val: "Condo"
        string_val: "Single Family"
        string_val: "Condo"
        string_val: "Single Family"
        string_val: "Condo"
        string_val: "Single Family"
        string_val: "Single Family"
        string_val: "Single Family"
        string_val: "Condo"
        string_val: "Single Family"
        string_val: "Condo"
        string_val: "Single Family"
        string_val: "Single Family"
        string_val: "Single Family"
        string_val: "Single Family"
        string_val: "Condo"
        string_val: "Condo"
        string_val: "Single Family"
        string_val: "Single Family"
        string_val: "Apartment"
        string_val: "Condo"
        string_val: "Condo"
        string_val: "Single Family"
        string_val: "Single Family"
        string_val: "Condo"
        string_val: "Single Family"
        string_val: "Single Family"
        string_val: "Single Family"
        string_val: "Condo"
        string_val: "Condo"
        string_val: "Condo"
        string_val: "Single Family"
        string_val: "Condo"
        string_val: "Single Family"
        string_val: "Condo"
        string_val: "Condo"
        string_val: "Single Family"
        string_val: "Condo"
        string_val: "Condo"
        string_val: "Single Family"
        string_val: "Condo"
        string_val: "Single Family"
        string_val: "Single Family"
        string_val: "Single Family"
        string_val: "Condo"
        string_val: "Condo"
        string_val: "Condo"
        string_val: "Single Family"
        string_val: "Condo"
        string_val: "Single Family"
        string_val: "Condo"
        string_val: "Condo"
        string_val: "Condo"
        string_val: "Condo"
        string_val: "Condo"
        string_val: "Single Family"
        string_val: "Condo"
        string_val: "Condo"
        string_val: "Condo"
        string_val: "Single Family"
        string_val: "Condo"
        string_val: "Condo"
        string_val: "Single Family"
        string_val: "Condo"
        string_val: "Single Family"
        string_val: "Condo"
        string_val: "Multi Family"
        string_val: "Single Family"
        string_val: "Condo"
        string_val: "Condo"
        string_val: "Condo"
        string_val: "Single Family"
        string_val: "Condo"
        string_val: "Single Family"
        string_val: "Condo"
        string_val: "Single Family"
        string_val: "Condo"
        string_val: "Single Family"
        string_val: "Multiple Occupancy"
        string_val: "Single Family"
        string_val: "Single Family"
        string_val: "Multiple Occupancy"
        string_val: "Single Family"
        string_val: "Single Family"
        string_val: "Single Family"
        string_val: "Condo"
        string_val: "Single Family"
        string_val: "Condo"
        string_val: "Single Family"
        string_val: "Condo"
        string_val: "Single Family"
        string_val: "Condo"
        string_val: "Multi Family"
        string_val: "Single Family"
        string_val: "Single Family"
        string_val: "Condo"
        string_val: "Multiple Occupancy"
        string_val: "Single Family"
        string_val: "Single Family"
        string_val: "Single Family"
        string_val: "Condo"
        string_val: "Condo"
        string_val: "Condo"
        string_val: "Single Family"
        string_val: "Single Family"
        string_val: "Single Family"
        string_val: "Single Family"
        string_val: "Single Family"
        string_val: "Single Family"
        string_val: "Single Family"
        string_val: "Mobile / Manufactured"
        string_val: "Single Family"
        string_val: "Single Family"
        string_val: "Single Family"
        string_val: "Condo"
        string_val: "Single Family"
        string_val: "Condo"
        string_val: "Condo"
        string_val: "Condo"
        string_val: "Single Family"
        string_val: "Condo"
        string_val: "Single Family"
        string_val: "Single Family"
        string_val: "Condo"
        string_val: "Condo"
        string_val: "Single Family"
        string_val: "Single Family"
        string_val: "Single Family"
        string_val: "Multiple Occupancy"
        string_val: "Condo"
        string_val: "Condo"
        string_val: "Single Family"
        string_val: "Single Family"
        string_val: "Condo"
        string_val: "Single Family"
        string_val: "Single Family"
        string_val: "Single Family"
        string_val: "Single Family"
        string_val: "Single Family"
        string_val: "Condo"
        string_val: "Condo"
        string_val: "Single Family"
        string_val: "Single Family"
        string_val: "Condo"
        string_val: "Condo"
        string_val: "Condo"
        string_val: "Single Family"
        string_val: "Condo"
        string_val: "Single Family"
        string_val: "Condo"
        string_val: "Condo"
        string_val: "Multiple Occupancy"
        string_val: "Single Family"
        string_val: "Single Family"
        string_val: "Single Family"
        string_val: "Single Family"
        string_val: "Multi Family"
        string_val: "Single Family"
        string_val: "Single Family"
        string_val: "Condo"
        string_val: "Condo"
        string_val: "Single Family"
        string_val: "Single Family"
        string_val: "Single Family"
        string_val: "Single Family"
        string_val: "Condo"
        string_val: "Single Family"
        string_val: "Multi Family"
        string_val: "Single Family"
        string_val: "Condo"
        string_val: "Single Family"
        string_val: "Multiple Occupancy"
        string_val: "Single Family"
        string_val: "Condo"
        string_val: "Single Family"
        string_val: "Condo"
        string_val: "Multi Family"
        string_val: "Condo"
        string_val: "Condo"
        string_val: "Single Family"
        string_val: "Single Family"
        string_val: "Multi Family"
        string_val: "Condo"
        string_val: "Condo"
        string_val: "Condo"
        string_val: "Single Family"
        string_val: "Condo"
        string_val: "Condo"
        string_val: "Single Family"
        string_val: "Single Family"
        string_val: "Condo"
        string_val: "Single Family"
        string_val: "Condo"
        string_val: "Condo"
        string_val: "Condo"
        string_val: "Single Family"
        string_val: "Single Family"
        string_val: "Single Family"
        string_val: "Single Family"
        string_val: "Single Family"
        string_val: "Single Family"
        string_val: "Multi Family"
        string_val: "Condo"
        string_val: "Multiple Occupancy"
        string_val: "Single Family"
        string_val: "Single Family"
        string_val: "Condo"
        string_val: "Single Family"
        string_val: "Single Family"
        string_val: "Condo"
        string_val: "Single Family"
        string_val: "Single Family"
        string_val: "Single Family"
        string_val: "Condo"
        string_val: "Condo"
        string_val: "Single Family"
        string_val: "Condo"
        string_val: "Condo"
        string_val: "Condo"
        string_val: "Condo"
        string_val: "Single Family"
        string_val: "Condo"
        string_val: "Condo"
        string_val: "Single Family"
        string_val: "Single Family"
        string_val: "Condo"
        string_val: "Condo"
        string_val: "Single Family"
        string_val: "Single Family"
        string_val: "Single Family"
        string_val: "Condo"
        string_val: "Condo"
        string_val: "Multi Family"
        string_val: "Condo"
        string_val: "Condo"
        string_val: "Condo"
        string_val: "Condo"
        string_val: "Condo"
        string_val: "Condo"
        string_val: "Single Family"
        string_val: "Condo"
        string_val: "Single Family"
        string_val: "Single Family"
        string_val: "Single Family"
        string_val: "Condo"
        string_val: "Condo"
        string_val: "Condo"
        string_val: "Single Family"
        string_val: "Condo"
        string_val: "Single Family"
        string_val: "Single Family"
        string_val: "Condo"
        string_val: "Condo"
        string_val: "Single Family"
        string_val: "Condo"
        string_val: "Single Family"
        string_val: "Single Family"
        string_val: "Condo"
        string_val: "Condo"
        string_val: "Single Family"
        string_val: "Single Family"
        string_val: "Single Family"
        string_val: "Condo"
        string_val: "Condo"
        string_val: "Condo"
        string_val: "Single Family"
        string_val: "Single Family"
        string_val: "Single Family"
        string_val: "Multiple Occupancy"
        string_val: "Condo"
        string_val: "Single Family"
        string_val: "Condo"
        string_val: "Multi Family"
        string_val: "Condo"
        string_val: "Single Family"
        string_val: "Single Family"
        string_val: "Single Family"
        string_val: "Condo"
        string_val: "Condo"
        string_val: "Single Family"
        string_val: "Condo"
        string_val: "Single Family"
        string_val: "Apartment"
        string_val: "Single Family"
        string_val: "Condo"
        string_val: "Multi Family"
        string_val: "Single Family"
        string_val: "Single Family"
        string_val: "Single Family"
        string_val: "Single Family"
        string_val: "Condo"
        string_val: "Condo"
…
  op: "Identity"
  input: "save/ShardedFilename"
  input: "^save/save"
  attr {
    key: "T"
    value {
      type: DT_STRING
    }
  }
  attr {
    key: "_class"
    value {
      list {
        s: "loc:@save/ShardedFilename"
      }
    }
  }
  attr {
    key: "_output_shapes"
    value {
      list {
        shape {
        }
      }
    }
  }
}
node {
  name: "save/ShardedFilespec"
  op: "ShardedFilespec"
  input: "save/Const"
  input: "save/num_shards"
  input: "^save/control_dependency"
  attr {
    key: "_output_shapes"
    value {
      list {
        shape {
        }
      }
    }
  }
}
node {
  name: "save/RestoreV2/tensor_names"
  op: "Const"
  attr {
    key: "_output_shapes"
    value {
      list {
        shape {
          dim {
            size: 1
          }
        }
      }
    }
  }
  attr {
    key: "dtype"
    value {
      type: DT_STRING
    }
  }
  attr {
    key: "value"
    value {
      tensor {
        dtype: DT_STRING
        tensor_shape {
          dim {
            size: 1
          }
        }
        string_val: "beta1_power"
      }
    }
  }
}
node {
  name: "save/RestoreV2/shape_and_slices"
  op: "Const"
  attr {
    key: "_output_shapes"
    value {
      list {
        shape {
          dim {
            size: 1
          }
        }
      }
    }
  }
  attr {
    key: "dtype"
    value {
      type: DT_STRING
    }
  }
  attr {
    key: "value"
    value {
      tensor {
        dtype: DT_STRING
        tensor_shape {
          dim {
            size: 1
          }
        }
        string_val: ""
      }
    }
  }
}
node {
  name: "save/RestoreV2"
  op: "RestoreV2"
  input: "save/Const"
  input: "save/RestoreV2/tensor_names"
  input: "save/RestoreV2/shape_and_slices"
  attr {
    key: "_output_shapes"
    value {
      list {
        shape {
          unknown_rank: true
        }
      }
    }
  }
  attr {
    key: "dtypes"
    value {
      list {
        type: DT_FLOAT
      }
    }
  }
}
node {
  name: "save/Assign"
  op: "Assign"
  input: "beta1_power"
  input: "save/RestoreV2"
  attr {
    key: "T"
    value {
      type: DT_FLOAT
    }
  }
  attr {
    key: "_class"
    value {
      list {
        s: "loc:@linear/size_bucketized/weights/part_0"
      }
    }
  }
  attr {
    key: "_output_shapes"
    value {
      list {
        shape {
        }
      }
    }
  }
  attr {
    key: "use_locking"
    value {
      b: true
    }
  }
  attr {
    key: "validate_shape"
    value {
      b: true
    }
  }
}
node {
  name: "save/RestoreV2_1/tensor_names"
  op: "Const"
  attr {
    key: "_output_shapes"
    value {
      list {
        shape {
          dim {
            size: 1
          }
        }
      }
    }
  }
  attr {
    key: "dtype"
    value {
      type: DT_STRING
    }
  }
  attr {
    key: "value"
    value {
      tensor {
        dtype: DT_STRING
        tensor_shape {
          dim {
            size: 1
          }
        }
        string_val: "beta2_power"
      }
    }
  }
}
node {
  name: "save/RestoreV2_1/shape_and_slices"
  op: "Const"
  attr {
    key: "_output_shapes"
    value {
      list {
        shape {
          dim {
            size: 1
          }
        }
      }
    }
  }
  attr {
    key: "dtype"
    value {
      type: DT_STRING
    }
  }
  attr {
    key: "value"
    value {
      tensor {
        dtype: DT_STRING
        tensor_shape {
          dim {
            size: 1
          }
        }
        string_val: ""
      }
    }
  }
}
node {
  name: "save/RestoreV2_1"
  op: "RestoreV2"
  input: "save/Const"
  input: "save/RestoreV2_1/tensor_names"
  input: "save/RestoreV2_1/shape_and_slices"
  attr {
    key: "_output_shapes"
    value {
      list {
        shape {
          unknown_rank: true
        }
      }
    }
  }
  attr {
    key: "dtypes"
    value {
      list {
        type: DT_FLOAT
      }
    }
  }
}
node {
  name: "save/Assign_1"
  op: "Assign"
  input: "beta2_power"
  input: "save/RestoreV2_1"
  attr {
    key: "T"
    value {
      type: DT_FLOAT
    }
  }
  attr {
    key: "_class"
    value {
      list {
        s: "loc:@linear/size_bucketized/weights/part_0"
      }
    }
  }
  attr {
    key: "_output_shapes"
    value {
      list {
        shape {
        }
      }
    }
  }
  attr {
    key: "use_locking"
    value {
      b: true
    }
  }
  attr {
    key: "validate_shape"
    value {
      b: true
    }
  }
}
node {
  name: "save/RestoreV2_2/tensor_names"
  op: "Const"
  attr {
    key: "_output_shapes"
    value {
      list {
        shape {
          dim {
            size: 1
          }
        }
      }
    }
  }
  attr {
    key: "dtype"
    value {
      type: DT_STRING
    }
  }
  attr {
    key: "value"
    value {
      tensor {
        dtype: DT_STRING
        tensor_shape {
          dim {
            size: 1
          }
        }
        string_val: "global_step"
      }
    }
  }
}
node {
  name: "save/RestoreV2_2/shape_and_slices"
  op: "Const"
  attr {
    key: "_output_shapes"
    value {
      list {
        shape {
          dim {
            size: 1
          }
        }
      }
    }
  }
  attr {
    key: "dtype"
    value {
      type: DT_STRING
    }
  }
  attr {
    key: "value"
    value {
      tensor {
        dtype: DT_STRING
        tensor_shape {
          dim {
            size: 1
          }
        }
        string_val: ""
      }
    }
  }
}
node {
  name: "save/RestoreV2_2"
  op: "RestoreV2"
  input: "save/Const"
  input: "save/RestoreV2_2/tensor_names"
  input: "save/RestoreV2_2/shape_and_slices"
  attr {
    key: "_output_shapes"
    value {
      list {
        shape {
          unknown_rank: true
        }
      }
    }
  }
  attr {
    key: "dtypes"
    value {
      list {
        type: DT_INT64
      }
    }
  }
}
node {
  name: "save/Assign_2"
  op: "Assign"
  input: "global_step"
  input: "save/RestoreV2_2"
  attr {
    key: "T"
    value {
      type: DT_INT64
    }
  }
  attr {
    key: "_class"
    value {
      list {
        s: "loc:@global_step"
      }
    }
  }
  attr {
    key: "_output_shapes"
    value {
      list {
        shape {
        }
      }
    }
  }
  attr {
    key: "use_locking"
    value {
      b: true
    }
  }
  attr {
    key: "validate_shape"
    value {
      b: true
    }
  }
}
node {
  name: "save/RestoreV2_3/tensor_names"
  op: "Const"
  attr {
    key: "_output_shapes"
    value {
      list {
        shape {
          dim {
            size: 1
          }
        }
      }
    }
  }
  attr {
    key: "dtype"
    value {
      type: DT_STRING
    }
  }
  attr {
    key: "value"
    value {
      tensor {
        dtype: DT_STRING
        tensor_shape {
          dim {
            size: 1
          }
        }
        string_val: "linear/avg/weight"
      }
    }
  }
}
node {
  name: "save/RestoreV2_3/shape_and_slices"
  op: "Const"
  attr {
    key: "_output_shapes"
    value {
      list {
        shape {
          dim {
            size: 1
          }
        }
      }
    }
  }
  attr {
    key: "dtype"
    value {
      type: DT_STRING
    }
  }
  attr {
    key: "value"
    value {
      tensor {
        dtype: DT_STRING
        tensor_shape {
          dim {
            size: 1
          }
        }
        string_val: "1 1 0,1:0,1"
      }
    }
  }
}
node {
  name: "save/RestoreV2_3"
  op: "RestoreV2"
  input: "save/Const"
  input: "save/RestoreV2_3/tensor_names"
  input: "save/RestoreV2_3/shape_and_slices"
  attr {
    key: "_output_shapes"
    value {
      list {
        shape {
          unknown_rank: true
        }
      }
    }
  }
  attr {
    key: "dtypes"
    value {
      list {
        type: DT_FLOAT
      }
    }
  }
}
node {
  name: "save/Assign_3"
  op: "Assign"
  input: "linear/avg/weight/part_0"
  input: "save/RestoreV2_3"
  attr {
    key: "T"
    value {
      type: DT_FLOAT
    }
  }
  attr {
    key: "_class"
    value {
      list {
        s: "loc:@linear/avg/weight/part_0"
      }
    }
  }
  attr {
    key: "_output_shapes"
    value {
      list {
        shape {
          dim {
            size: 1
          }
          dim {
            size: 1
          }
        }
      }
    }
  }
  attr {
    key: "use_locking"
    value {
      b: true
    }
  }
  attr {
    key: "validate_shape"
    value {
      b: true
    }
  }
}
node {
  name: "save/RestoreV2_4/tensor_names"
  op: "Const"
  attr {
    key: "_output_shapes"
    value {
      list {
        shape {
          dim {
            size: 1
          }
        }
      }
    }
  }
  attr {
    key: "dtype"
    value {
      type: DT_STRING
    }
  }
  attr {
    key: "value"
    value {
      tensor {
        dtype: DT_STRING
        tensor_shape {
          dim {
            size: 1
          }
        }
        string_val: "linear/avg/weight/Adam"
      }
    }
  }
}
node {
  name: "save/RestoreV2_4/shape_and_slices"
  op: "Const"
  attr {
    key: "_output_shapes"
    value {
      list {
        shape {
          dim {
            size: 1
          }
        }
      }
    }
  }
  attr {
    key: "dtype"
    value {
      type: DT_STRING
    }
  }
  attr {
    key: "value"
    value {
      tensor {
        dtype: DT_STRING
        tensor_shape {
          dim {
            size: 1
          }
        }
        string_val: "1 1 0,1:0,1"
      }
    }
  }
}
node {
  name: "save/RestoreV2_4"
  op: "RestoreV2"
  input: "save/Const"
  input: "save/RestoreV2_4/tensor_names"
  input: "save/RestoreV2_4/shape_and_slices"
  attr {
    key: "_output_shapes"
    value {
      list {
        shape {
          unknown_rank: true
        }
      }
    }
  }
  attr {
    key: "dtypes"
    value {
      list {
        type: DT_FLOAT
      }
    }
  }
}
node {
  name: "save/Assign_4"
  op: "Assign"
  input: "linear/avg/weight/part_0/Adam"
  input: "save/RestoreV2_4"
  attr {
    key: "T"
    value {
      type: DT_FLOAT
    }
  }
  attr {
    key: "_class"
    value {
      list {
        s: "loc:@linear/avg/weight/part_0"
      }
    }
  }
  attr {
    key: "_output_shapes"
    value {
      list {
        shape {
          dim {
            size: 1
          }
          dim {
            size: 1
          }
        }
      }
    }
  }
  attr {
    key: "use_locking"
    value {
      b: true
    }
  }
  attr {
    key: "validate_shape"
    value {
      b: true
    }
  }
}
node {
  name: "save/RestoreV2_5/tensor_names"
  op: "Const"
  attr {
    key: "_output_shapes"
    value {
      list {
        shape {
          dim {
            size: 1
          }
        }
      }
    }
  }
  attr {
    key: "dtype"
    value {
      type: DT_STRING
    }
  }
  attr {
    key: "value"
    value {
      tensor {
        dtype: DT_STRING
        tensor_shape {
          dim {
            size: 1
          }
        }
        string_val: "linear/avg/weight/Adam_1"
      }
    }
  }
}
node {
  name: "save/RestoreV2_5/shape_and_slices"
  op: "Const"
  attr {
    key: "_output_shapes"
    value {
      list {
        shape {
          dim {
            size: 1
          }
        }
      }
    }
  }
  attr {
    key: "dtype"
    value {
      type: DT_STRING
    }
  }
  attr {
    key: "value"
    value {
      tensor {
        dtype: DT_STRING
        tensor_shape {
          dim {
            size: 1
          }
        }
        string_val: "1 1 0,1:0,1"
      }
    }
  }
}
node {
  name: "save/RestoreV2_5"
  op: "RestoreV2"
  input: "save/Const"
  input: "save/RestoreV2_5/tensor_names"
  input: "save/RestoreV2_5/shape_and_slices"
  attr {
    key: "_output_shapes"
    value {
      list {
        shape {
          unknown_rank: true
        }
      }
    }
  }
  attr {
    key: "dtypes"
    value {
      list {
        type: DT_FLOAT
      }
    }
  }
}
node {
  name: "save/Assign_5"
  op: "Assign"
  input: "linear/avg/weight/part_0/Adam_1"
  input: "save/RestoreV2_5"
  attr {
    key: "T"
    value {
      type: DT_FLOAT
    }
  }
  attr {
    key: "_class"
    value {
      list {
        s: "loc:@linear/avg/weight/part_0"
      }
    }
  }
  attr {
    key: "_output_shapes"
    value {
      list {
        shape {
          dim {
            size: 1
          }
          dim {
            size: 1
          }
        }
      }
    }
  }
  attr {
    key: "use_locking"
    value {
      b: true
    }
  }
  attr {
    key: "validate_shape"
    value {
      b: true
    }
  }
}
node {
  name: "save/RestoreV2_6/tensor_names"
  op: "Const"
  attr {
    key: "_output_shapes"
    value {
      list {
        shape {
          dim {
            size: 1
          }
        }
      }
    }
  }
  attr {
    key: "dtype"
    value {
      type: DT_STRING
    }
  }
  attr {
    key: "value"
    value {
      tensor {
        dtype: DT_STRING
        tensor_shape {
          dim {
            size: 1
          }
        }
        string_val: "linear/bathroom/weight"
      }
    }
  }
}
node {
  name: "save/RestoreV2_6/shape_and_slices"
  op: "Const"
  attr {
    key: "_output_shapes"
    value {
      list {
        shape {
          dim {
            size: 1
          }
        }
      }
    }
  }
  attr {
    key: "dtype"
    value {
      type: DT_STRING
    }
  }
  attr {
    key: "value"
    value {
      tensor {
        dtype: DT_STRING
        tensor_shape {
          dim {
            size: 1
          }
        }
        string_val: "1 1 0,1:0,1"
      }
    }
  }
}
node {
  name: "save/RestoreV2_6"
  op: "RestoreV2"
  input: "save/Const"
  input: "save/RestoreV2_6/tensor_names"
  input: "save/RestoreV2_6/shape_and_slices"
  attr {
    key: "_output_shapes"
    value {
      list {
        shape {
          unknown_rank: true
        }
      }
    }
  }
  attr {
    key: "dtypes"
    value {
      list {
        type: DT_FLOAT
      }
    }
  }
}
node {
  name: "save/Assign_6"
  op: "Assign"
  input: "linear/bathroom/weight/part_0"
  input: "save/RestoreV2_6"
  attr {
    key: "T"
    value {
      type: DT_FLOAT
    }
  }
  attr {
    key: "_class"
    value {
      list {
        s: "loc:@linear/bathroom/weight/part_0"
      }
    }
  }
  attr {
    key: "_output_shapes"
    value {
      list {
        shape {
          dim {
            size: 1
          }
          dim {
            size: 1
          }
        }
      }
    }
  }
  attr {
    key: "use_locking"
    value {
      b: true
    }
  }
  attr {
    key: "validate_shape"
    value {
      b: true
    }
  }
}
node {
  name: "save/RestoreV2_7/tensor_names"
  op: "Const"
  attr {
    key: "_output_shapes"
    value {
      list {
        shape {
          dim {
            size: 1
          }
        }
      }
    }
  }
  attr {
    key: "dtype"
    value {
      type: DT_STRING
    }
  }
  attr {
    key: "value"
    value {
      tensor {
        dtype: DT_STRING
        tensor_shape {
          dim {
            size: 1
          }
        }
        string_val: "linear/bathroom/weight/Adam"
      }
    }
  }
}
node {
  name: "save/RestoreV2_7/shape_and_slices"
  op: "Const"
  attr {
    key: "_output_shapes"
    value {
      list {
        shape {
          dim {
            size: 1
          }
        }
      }
    }
  }
  attr {
    key: "dtype"
    value {
      type: DT_STRING
    }
  }
  attr {
    key: "value"
    value {
      tensor {
        dtype: DT_STRING
        tensor_shape {
          dim {
            size: 1
          }
        }
        string_val: "1 1 0,1:0,1"
      }
    }
  }
}
node {
  name: "save/RestoreV2_7"
  op: "RestoreV2"
  input: "save/Const"
  input: "save/RestoreV2_7/tensor_names"
  input: "save/RestoreV2_7/shape_and_slices"
  attr {
    key: "_output_shapes"
    value {
      list {
        shape {
          unknown_rank: true
        }
      }
    }
  }
  attr {
    key: "dtypes"
    value {
      list {
        type: DT_FLOAT
      }
    }
  }
}
node {
  name: "save/Assign_7"
  op: "Assign"
  input: "linear/bathroom/weight/part_0/Adam"
  input: "save/RestoreV2_7"
  attr {
    key: "T"
    value {
      type: DT_FLOAT
    }
  }
  attr {
    key: "_class"
    value {
      list {
        s: "loc:@linear/bathroom/weight/part_0"
      }
    }
  }
  attr {
    key: "_output_shapes"
    value {
      list {
        shape {
          dim {
            size: 1
          }
          dim {
            size: 1
          }
        }
      }
    }
  }
  attr {
    key: "use_locking"
    value {
      b: true
    }
  }
  attr {
    key: "validate_shape"
    value {
      b: true
    }
  }
}
node {
  name: "save/RestoreV2_8/tensor_names"
  op: "Const"
  attr {
    key: "_output_shapes"
    value {
      list {
        shape {
          dim {
            size: 1
          }
        }
      }
    }
  }
  attr {
    key: "dtype"
    value {
      type: DT_STRING
    }
  }
  attr {
    key: "value"
    value {
      tensor {
        dtype: DT_STRING
        tensor_shape {
          dim {
            size: 1
          }
        }
        string_val: "linear/bathroom/weight/Adam_1"
      }
    }
  }
}
node {
  name: "save/RestoreV2_8/shape_and_slices"
  op: "Const"
  attr {
    key: "_output_shapes"
    value {
      list {
        shape {
          dim {
            size: 1
          }
        }
      }
    }
  }
  attr {
    key: "dtype"
    value {
      type: DT_STRING
    }
  }
  attr {
    key: "value"
    value {
      tensor {
        dtype: DT_STRING
        tensor_shape {
          dim {
            size: 1
          }
        }
        string_val: "1 1 0,1:0,1"
      }
    }
  }
}
node {
  name: "save/RestoreV2_8"
  op: "RestoreV2"
  input: "save/Const"
  input: "save/RestoreV2_8/tensor_names"
  input: "save/RestoreV2_8/shape_and_slices"
  attr {
    key: "_output_shapes"
    value {
      list {
        shape {
          unknown_rank: true
        }
      }
    }
  }
  attr {
    key: "dtypes"
    value {
      list {
        type: DT_FLOAT
      }
    }
  }
}
node {
  name: "save/Assign_8"
  op: "Assign"
  input: "linear/bathroom/weight/part_0/Adam_1"
  input: "save/RestoreV2_8"
  attr {
    key: "T"
    value {
      type: DT_FLOAT
    }
  }
  attr {
    key: "_class"
    value {
      list {
        s: "loc:@linear/bathroom/weight/part_0"
      }
    }
  }
  attr {
    key: "_output_shapes"
    value {
      list {
        shape {
          dim {
            size: 1
          }
          dim {
            size: 1
          }
        }
      }
    }
  }
  attr {
    key: "use_locking"
    value {
      b: true
    }
  }
  attr {
    key: "validate_shape"
    value {
      b: true
    }
  }
}
node {
  name: "save/RestoreV2_9/tensor_names"
  op: "Const"
  attr {
    key: "_output_shapes"
    value {
      list {
        shape {
          dim {
            size: 1
          }
        }
      }
    }
  }
  attr {
    key: "dtype"
    value {
      type: DT_STRING
    }
  }
  attr {
    key: "value"
    value {
      tensor {
        dtype: DT_STRING
        tensor_shape {
          dim {
            size: 1
          }
        }
        string_val: "linear/bedroom/weight"
      }
    }
  }
}
node {
  name: "save/RestoreV2_9/shape_and_slices"
  op: "Const"
  attr {
    key: "_output_shapes"
    value {
      list {
        shape {
          dim {
            size: 1
          }
        }
      }
    }
  }
  attr {
    key: "dtype"
    value {
      type: DT_STRING
    }
  }
  attr {
    key: "value"
    value {
      tensor {
        dtype: DT_STRING
        tensor_shape {
          dim {
            size: 1
          }
        }
        string_val: "1 1 0,1:0,1"
      }
    }
  }
}
node {
  name: "save/RestoreV2_9"
  op: "RestoreV2"
  input: "save/Const"
  input: "save/RestoreV2_9/tensor_names"
  input: "save/RestoreV2_9/shape_and_slices"
  attr {
    key: "_output_shapes"
    value {
      list {
        shape {
          unknown_rank: true
        }
      }
    }
  }
  attr {
    key: "dtypes"
    value {
      list {
        type: DT_FLOAT
      }
    }
  }
}
node {
  name: "save/Assign_9"
  op: "Assign"
  input: "linear/bedroom/weight/part_0"
  input: "save/RestoreV2_9"
  attr {
    key: "T"
    value {
      type: DT_FLOAT
    }
  }
  attr {
    key: "_class"
    value {
      list {
        s: "loc:@linear/bedroom/weight/part_0"
      }
    }
  }
  attr {
    key: "_output_shapes"
    value {
      list {
        shape {
          dim {
            size: 1
          }
          dim {
            size: 1
          }
        }
      }
    }
  }
  attr {
    key: "use_locking"
    value {
      b: true
    }
  }
  attr {
    key: "validate_shape"
    value {
      b: true
    }
  }
}
node {
  name: "save/RestoreV2_10/tensor_names"
  op: "Const"
  attr {
    key: "_output_shapes"
    value {
      list {
        shape {
          dim {
            size: 1
          }
        }
      }
    }
  }
  attr {
    key: "dtype"
    value {
      type: DT_STRING
    }
  }
  attr {
    key: "value"
    value {
      tensor {
        dtype: DT_STRING
        tensor_shape {
          dim {
            size: 1
          }
        }
        string_val: "linear/bedroom/weight/Adam"
      }
    }
  }
}
node {
  name: "save/RestoreV2_10/shape_and_slices"
  op: "Const"
  attr {
    key: "_output_shapes"
    value {
      list {
        shape {
          dim {
            size: 1
          }
        }
      }
    }
  }
  attr {
    key: "dtype"
    value {
      type: DT_STRING
    }
  }
  attr {
    key: "value"
    value {
      tensor {
        dtype: DT_STRING
        tensor_shape {
          dim {
            size: 1
          }
        }
        string_val: "1 1 0,1:0,1"
      }
    }
  }
}
node {
  name: "save/RestoreV2_10"
  op: "RestoreV2"
  input: "save/Const"
  input: "save/RestoreV2_10/tensor_names"
  input: "save/RestoreV2_10/shape_and_slices"
  attr {
    key: "_output_shapes"
    value {
      list {
        shape {
          unknown_rank: true
        }
      }
    }
  }
  attr {
    key: "dtypes"
    value {
      list {
        type: DT_FLOAT
      }
    }
  }
}
node {
  name: "save/Assign_10"
  op: "Assign"
  input: "linear/bedroom/weight/part_0/Adam"
  input: "save/RestoreV2_10"
  attr {
    key: "T"
    value {
      type: DT_FLOAT
    }
  }
  attr {
    key: "_class"
    value {
      list {
        s: "loc:@linear/bedroom/weight/part_0"
      }
    }
  }
  attr {
    key: "_output_shapes"
    value {
      list {
        shape {
          dim {
            size: 1
          }
          dim {
            size: 1
          }
        }
      }
    }
  }
  attr {
    key: "use_locking"
    value {
      b: true
    }
  }
  attr {
    key: "validate_shape"
    value {
      b: true
    }
  }
}
node {
  name: "save/RestoreV2_11/tensor_names"
  op: "Const"
  attr {
    key: "_output_shapes"
    value {
      list {
        shape {
          dim {
            size: 1
          }
        }
      }
    }
  }
  attr {
    key: "dtype"
    value {
      type: DT_STRING
    }
  }
  attr {
    key: "value"
    value {
      tensor {
        dtype: DT_STRING
        tensor_shape {
          dim {
            size: 1
          }
        }
        string_val: "linear/bedroom/weight/Adam_1"
      }
    }
  }
}
node {
  name: "save/RestoreV2_11/shape_and_slices"
  op: "Const"
  attr {
    key: "_output_shapes"
    value {
      list {
        shape {
          dim {
            size: 1
          }
        }
      }
    }
  }
  attr {
    key: "dtype"
    value {
      type: DT_STRING
    }
  }
  attr {
    key: "value"
    value {
      tensor {
        dtype: DT_STRING
        tensor_shape {
          dim {
            size: 1
          }
        }
        string_val: "1 1 0,1:0,1"
      }
    }
  }
}
node {
  name: "save/RestoreV2_11"
  op: "RestoreV2"
  input: "save/Const"
  input: "save/RestoreV2_11/tensor_names"
  input: "save/RestoreV2_11/shape_and_slices"
  attr {
    key: "_output_shapes"
    value {
      list {
        shape {
          unknown_rank: true
        }
      }
    }
  }
  attr {
    key: "dtypes"
    value {
      list {
        type: DT_FLOAT
      }
    }
  }
}
node {
  name: "save/Assign_11"
  op: "Assign"
  input: "linear/bedroom/weight/part_0/Adam_1"
  input: "save/RestoreV2_11"
  attr {
    key: "T"
    value {
      type: DT_FLOAT
    }
  }
  attr {
    key: "_class"
    value {
      list {
        s: "loc:@linear/bedroom/weight/part_0"
      }
    }
  }
  attr {
    key: "_output_shapes"
    value {
      list {
        shape {
          dim {
            size: 1
          }
          dim {
            size: 1
          }
        }
      }
    }
  }
  attr {
    key: "use_locking"
    value {
      b: true
    }
  }
  attr {
    key: "validate_shape"
    value {
      b: true
    }
  }
}
node {
  name: "save/RestoreV2_12/tensor_names"
  op: "Const"
  attr {
    key: "_output_shapes"
    value {
      list {
        shape {
          dim {
            size: 1
          }
        }
      }
    }
  }
  attr {
    key: "dtype"
    value {
      type: DT_STRING
    }
  }
  attr {
    key: "value"
    value {
      tensor {
        dtype: DT_STRING
        tensor_shape {
          dim {
            size: 1
          }
        }
        string_val: "linear/bias_weight"
      }
    }
  }
}
node {
  name: "save/RestoreV2_12/shape_and_slices"
  op: "Const"
  attr {
    key: "_output_shapes"
    value {
      list {
        shape {
          dim {
            size: 1
          }
        }
      }
    }
  }
  attr {
    key: "dtype"
    value {
      type: DT_STRING
    }
  }
  attr {
    key: "value"
    value {
      tensor {
        dtype: DT_STRING
        tensor_shape {
          dim {
            size: 1
          }
        }
        string_val: "1 0,1"
      }
    }
  }
}
node {
  name: "save/RestoreV2_12"
  op: "RestoreV2"
  input: "save/Const"
  input: "save/RestoreV2_12/tensor_names"
  input: "save/RestoreV2_12/shape_and_slices"
  attr {
    key: "_output_shapes"
    value {
      list {
        shape {
          unknown_rank: true
        }
      }
    }
  }
  attr {
    key: "dtypes"
    value {
      list {
        type: DT_FLOAT
      }
    }
  }
}
node {
  name: "save/Assign_12"
  op: "Assign"
  input: "linear/bias_weight/part_0"
  input: "save/RestoreV2_12"
  attr {
    key: "T"
    value {
      type: DT_FLOAT
    }
  }
  attr {
    key: "_class"
    value {
      list {
        s: "loc:@linear/bias_weight/part_0"
      }
    }
  }
  attr {
    key: "_output_shapes"
    value {
      list {
        shape {
          dim {
            size: 1
          }
        }
      }
    }
  }
  attr {
    key: "use_locking"
    value {
      b: true
    }
  }
  attr {
    key: "validate_shape"
    value {
      b: true
    }
  }
}
node {
  name: "save/RestoreV2_13/tensor_names"
  op: "Const"
  attr {
    key: "_output_shapes"
    value {
      list {
        shape {
          dim {
            size: 1
          }
        }
      }
    }
  }
  attr {
    key: "dtype"
    value {
      type: DT_STRING
    }
  }
  attr {
    key: "value"
    value {
      tensor {
        dtype: DT_STRING
        tensor_shape {
          dim {
            size: 1
          }
        }
        string_val: "linear/bias_weight/Adam"
      }
    }
  }
}
node {
  name: "save/RestoreV2_13/shape_and_slices"
  op: "Const"
  attr {
    key: "_output_shapes"
    value {
      list {
        shape {
          dim {
            size: 1
          }
        }
      }
    }
  }
  attr {
    key: "dtype"
    value {
      type: DT_STRING
    }
  }
  attr {
    key: "value"
    value {
      tensor {
        dtype: DT_STRING
        tensor_shape {
          dim {
            size: 1
          }
        }
        string_val: "1 0,1"
      }
    }
  }
}
node {
  name: "save/RestoreV2_13"
  op: "RestoreV2"
  input: "save/Const"
  input: "save/RestoreV2_13/tensor_names"
  input: "save/RestoreV2_13/shape_and_slices"
  attr {
    key: "_output_shapes"
    value {
      list {
        shape {
          unknown_rank: true
        }
      }
    }
  }
  attr {
    key: "dtypes"
    value {
      list {
        type: DT_FLOAT
      }
    }
  }
}
node {
  name: "save/Assign_13"
  op: "Assign"
  input: "linear/bias_weight/part_0/Adam"
  input: "save/RestoreV2_13"
  attr {
    key: "T"
    value {
      type: DT_FLOAT
    }
  }
  attr {
    key: "_class"
    value {
      list {
        s: "loc:@linear/bias_weight/part_0"
      }
    }
  }
  attr {
    key: "_output_shapes"
    value {
      list {
        shape {
          dim {
            size: 1
          }
        }
      }
    }
  }
  attr {
    key: "use_locking"
    value {
      b: true
    }
  }
  attr {
    key: "validate_shape"
    value {
      b: true
    }
  }
}
node {
  name: "save/RestoreV2_14/tensor_names"
  op: "Const"
  attr {
    key: "_output_shapes"
    value {
      list {
        shape {
          dim {
            size: 1
          }
        }
      }
    }
  }
  attr {
    key: "dtype"
    value {
      type: DT_STRING
    }
  }
  attr {
    key: "value"
    value {
      tensor {
        dtype: DT_STRING
        tensor_shape {
          dim {
            size: 1
          }
        }
        string_val: "linear/bias_weight/Adam_1"
      }
    }
  }
}
node {
  name: "save/RestoreV2_14/shape_and_slices"
  op: "Const"
  attr {
    key: "_output_shapes"
    value {
      list {
        shape {
          dim {
            size: 1
          }
        }
      }
    }
  }
  attr {
    key: "dtype"
    value {
      type: DT_STRING
    }
  }
  attr {
    key: "value"
    value {
      tensor {
        dtype: DT_STRING
        tensor_shape {
          dim {
            size: 1
          }
        }
        string_val: "1 0,1"
      }
    }
  }
}
node {
  name: "save/RestoreV2_14"
  op: "RestoreV2"
  input: "save/Const"
  input: "save/RestoreV2_14/tensor_names"
  input: "save/RestoreV2_14/shape_and_slices"
  attr {
    key: "_output_shapes"
    value {
      list {
        shape {
          unknown_rank: true
        }
      }
    }
  }
  attr {
    key: "dtypes"
    value {
      list {
        type: DT_FLOAT
      }
    }
  }
}
node {
  name: "save/Assign_14"
  op: "Assign"
  input: "linear/bias_weight/part_0/Adam_1"
  input: "save/RestoreV2_14"
  attr {
    key: "T"
    value {
      type: DT_FLOAT
    }
  }
  attr {
    key: "_class"
    value {
      list {
        s: "loc:@linear/bias_weight/part_0"
      }
    }
  }
  attr {
    key: "_output_shapes"
    value {
      list {
        shape {
          dim {
            size: 1
          }
        }
      }
    }
  }
  attr {
    key: "use_locking"
    value {
      b: true
    }
  }
  attr {
    key: "validate_shape"
    value {
      b: true
    }
  }
}
node {
  name: "save/RestoreV2_15/tensor_names"
  op: "Const"
  attr {
    key: "_output_shapes"
    value {
      list {
        shape {
          dim {
            size: 1
          }
        }
      }
    }
  }
  attr {
    key: "dtype"
    value {
      type: DT_STRING
    }
  }
  attr {
    key: "value"
    value {
      tensor {
        dtype: DT_STRING
        tensor_shape {
          dim {
            size: 1
          }
        }
        string_val: "linear/property_type/weights"
      }
    }
  }
}
node {
  name: "save/RestoreV2_15/shape_and_slices"
  op: "Const"
  attr {
    key: "_output_shapes"
    value {
      list {
        shape {
          dim {
            size: 1
          }
        }
      }
    }
  }
  attr {
    key: "dtype"
    value {
      type: DT_STRING
    }
  }
  attr {
    key: "value"
    value {
      tensor {
        dtype: DT_STRING
        tensor_shape {
          dim {
            size: 1
          }
        }
        string_val: "100 1 0,100:0,1"
      }
    }
  }
}
node {
  name: "save/RestoreV2_15"
  op: "RestoreV2"
  input: "save/Const"
  input: "save/RestoreV2_15/tensor_names"
  input: "save/RestoreV2_15/shape_and_slices"
  attr {
    key: "_output_shapes"
    value {
      list {
        shape {
          unknown_rank: true
        }
      }
    }
  }
  attr {
    key: "dtypes"
    value {
      list {
        type: DT_FLOAT
      }
    }
  }
}
node {
  name: "save/Assign_15"
  op: "Assign"
  input: "linear/property_type/weights/part_0"
  input: "save/RestoreV2_15"
  attr {
    key: "T"
    value {
      type: DT_FLOAT
    }
  }
  attr {
    key: "_class"
    value {
      list {
        s: "loc:@linear/property_type/weights/part_0"
      }
    }
  }
  attr {
    key: "_output_shapes"
    value {
      list {
        shape {
          dim {
            size: 100
          }
          dim {
            size: 1
          }
        }
      }
    }
  }
  attr {
    key: "use_locking"
    value {
      b: true
    }
  }
  attr {
    key: "validate_shape"
    value {
      b: true
    }
  }
}
node {
  name: "save/RestoreV2_16/tensor_names"
  op: "Const"
  attr {
    key: "_output_shapes"
    value {
      list {
        shape {
          dim {
            size: 1
          }
        }
      }
    }
  }
  attr {
    key: "dtype"
    value {
      type: DT_STRING
    }
  }
  attr {
    key: "value"
    value {
      tensor {
        dtype: DT_STRING
        tensor_shape {
          dim {
            size: 1
          }
        }
        string_val: "linear/property_type/weights/Adam"
      }
    }
  }
}
node {
  name: "save/RestoreV2_16/shape_and_slices"
  op: "Const"
  attr {
    key: "_output_shapes"
    value {
      list {
        shape {
          dim {
            size: 1
          }
        }
      }
    }
  }
  attr {
    key: "dtype"
    value {
      type: DT_STRING
    }
  }
  attr {
    key: "value"
    value {
      tensor {
        dtype: DT_STRING
        tensor_shape {
          dim {
            size: 1
          }
        }
        string_val: "100 1 0,100:0,1"
      }
    }
  }
}
node {
  name: "save/RestoreV2_16"
  op: "RestoreV2"
  input: "save/Const"
  input: "save/RestoreV2_16/tensor_names"
  input: "save/RestoreV2_16/shape_and_slices"
  attr {
    key: "_output_shapes"
    value {
      list {
        shape {
          unknown_rank: true
        }
      }
    }
  }
  attr {
    key: "dtypes"
    value {
      list {
        type: DT_FLOAT
      }
    }
  }
}
node {
  name: "save/Assign_16"
  op: "Assign"
  input: "linear/property_type/weights/part_0/Adam"
  input: "save/RestoreV2_16"
  attr {
    key: "T"
    value {
      type: DT_FLOAT
    }
  }
  attr {
    key: "_class"
    value {
      list {
        s: "loc:@linear/property_type/weights/part_0"
      }
    }
  }
  attr {
    key: "_output_shapes"
    value {
      list {
        shape {
          dim {
            size: 100
          }
          dim {
            size: 1
          }
        }
      }
    }
  }
  attr {
    key: "use_locking"
    value {
      b: true
    }
  }
  attr {
    key: "validate_shape"
    value {
      b: true
    }
  }
}
node {
  name: "save/RestoreV2_17/tensor_names"
  op: "Const"
  attr {
    key: "_output_shapes"
    value {
      list {
        shape {
          dim {
            size: 1
          }
        }
      }
    }
  }
  attr {
    key: "dtype"
    value {
      type: DT_STRING
    }
  }
  attr {
    key: "value"
    value {
      tensor {
        dtype: DT_STRING
        tensor_shape {
          dim {
            size: 1
          }
        }
        string_val: "linear/property_type/weights/Adam_1"
      }
    }
  }
}
node {
  name: "save/RestoreV2_17/shape_and_slices"
  op: "Const"
  attr {
    key: "_output_shapes"
    value {
      list {
        shape {
          dim {
            size: 1
          }
        }
      }
    }
  }
  attr {
    key: "dtype"
    value {
      type: DT_STRING
    }
  }
  attr {
    key: "value"
    value {
      tensor {
        dtype: DT_STRING
        tensor_shape {
          dim {
            size: 1
          }
        }
        string_val: "100 1 0,100:0,1"
      }
    }
  }
}
node {
  name: "save/RestoreV2_17"
  op: "RestoreV2"
  input: "save/Const"
  input: "save/RestoreV2_17/tensor_names"
  input: "save/RestoreV2_17/shape_and_slices"
  attr {
    key: "_output_shapes"
    value {
      list {
        shape {
          unknown_rank: true
        }
      }
    }
  }
  attr {
    key: "dtypes"
    value {
      list {
        type: DT_FLOAT
      }
    }
  }
}
node {
  name: "save/Assign_17"
  op: "Assign"
  input: "linear/property_type/weights/part_0/Adam_1"
  input: "save/RestoreV2_17"
  attr {
    key: "T"
    value {
      type: DT_FLOAT
    }
  }
  attr {
    key: "_class"
    value {
      list {
        s: "loc:@linear/property_type/weights/part_0"
      }
    }
  }
  attr {
    key: "_output_shapes"
    value {
      list {
        shape {
          dim {
            size: 100
          }
          dim {
            size: 1
          }
        }
      }
    }
  }
  attr {
    key: "use_locking"
    value {
      b: true
    }
  }
  attr {
    key: "validate_shape"
    value {
      b: true
    }
  }
}
node {
  name: "save/RestoreV2_18/tensor_names"
  op: "Const"
  attr {
    key: "_output_shapes"
    value {
      list {
        shape {
          dim {
            size: 1
          }
        }
      }
    }
  }
  attr {
    key: "dtype"
    value {
      type: DT_STRING
    }
  }
  attr {
    key: "value"
    value {
      tensor {
        dtype: DT_STRING
        tensor_shape {
          dim {
            size: 1
          }
        }
        string_val: "linear/school_rating/weight"
      }
    }
  }
}
node {
  name: "save/RestoreV2_18/shape_and_slices"
  op: "Const"
  attr {
    key: "_output_shapes"
    value {
      list {
        shape {
          dim {
            size: 1
          }
        }
      }
    }
  }
  attr {
    key: "dtype"
    value {
      type: DT_STRING
    }
  }
  attr {
    key: "value"
    value {
      tensor {
        dtype: DT_STRING
        tensor_shape {
          dim {
            size: 1
          }
        }
        string_val: "1 1 0,1:0,1"
      }
    }
  }
}
node {
  name: "save/RestoreV2_18"
  op: "RestoreV2"
  input: "save/Const"
  input: "save/RestoreV2_18/tensor_names"
  input: "save/RestoreV2_18/shape_and_slices"
  attr {
    key: "_output_shapes"
    value {
      list {
        shape {
          unknown_rank: true
        }
      }
    }
  }
  attr {
    key: "dtypes"
    value {
      list {
        type: DT_FLOAT
      }
    }
  }
}
node {
  name: "save/Assign_18"
  op: "Assign"
  input: "linear/school_rating/weight/part_0"
  input: "save/RestoreV2_18"
  attr {
    key: "T"
    value {
      type: DT_FLOAT
    }
  }
  attr {
    key: "_class"
    value {
      list {
        s: "loc:@linear/school_rating/weight/part_0"
      }
    }
  }
  attr {
    key: "_output_shapes"
    value {
      list {
        shape {
          dim {
            size: 1
          }
          dim {
            size: 1
          }
        }
      }
    }
  }
  attr {
    key: "use_locking"
    value {
      b: true
    }
  }
  attr {
    key: "validate_shape"
    value {
      b: true
    }
  }
}
node {
  name: "save/RestoreV2_19/tensor_names"
  op: "Const"
  attr {
    key: "_output_shapes"
    value {
      list {
        shape {
          dim {
            size: 1
          }
        }
      }
    }
  }
  attr {
    key: "dtype"
    value {
      type: DT_STRING
    }
  }
  attr {
    key: "value"
    value {
      tensor {
        dtype: DT_STRING
        tensor_shape {
          dim {
            size: 1
          }
        }
        string_val: "linear/school_rating/weight/Adam"
      }
    }
  }
}
node {
  name: "save/RestoreV2_19/shape_and_slices"
  op: "Const"
  attr {
    key: "_output_shapes"
    value {
      list {
        shape {
          dim {
            size: 1
          }
        }
      }
    }
  }
  attr {
    key: "dtype"
    value {
      type: DT_STRING
    }
  }
  attr {
    key: "value"
    value {
      tensor {
        dtype: DT_STRING
        tensor_shape {
          dim {
            size: 1
          }
        }
        string_val: "1 1 0,1:0,1"
      }
    }
  }
}
node {
  name: "save/RestoreV2_19"
  op: "RestoreV2"
  input: "save/Const"
  input: "save/RestoreV2_19/tensor_names"
  input: "save/RestoreV2_19/shape_and_slices"
  attr {
    key: "_output_shapes"
    value {
      list {
        shape {
          unknown_rank: true
        }
      }
    }
  }
  attr {
    key: "dtypes"
    value {
      list {
        type: DT_FLOAT
      }
    }
  }
}
node {
  name: "save/Assign_19"
  op: "Assign"
  input: "linear/school_rating/weight/part_0/Adam"
  input: "save/RestoreV2_19"
  attr {
    key: "T"
    value {
      type: DT_FLOAT
    }
  }
  attr {
    key: "_class"
    value {
      list {
        s: "loc:@linear/school_rating/weight/part_0"
      }
    }
  }
  attr {
    key: "_output_shapes"
    value {
      list {
        shape {
          dim {
            size: 1
          }
          dim {
            size: 1
          }
        }
      }
    }
  }
  attr {
    key: "use_locking"
    value {
      b: true
    }
  }
  attr {
    key: "validate_shape"
    value {
      b: true
    }
  }
}
node {
  name: "save/RestoreV2_20/tensor_names"
  op: "Const"
  attr {
    key: "_output_shapes"
    value {
      list {
        shape {
          dim {
            size: 1
          }
        }
      }
    }
  }
  attr {
    key: "dtype"
    value {
      type: DT_STRING
    }
  }
  attr {
    key: "value"
    value {
      tensor {
        dtype: DT_STRING
        tensor_shape {
          dim {
            size: 1
          }
        }
        string_val: "linear/school_rating/weight/Adam_1"
      }
    }
  }
}
node {
  name: "save/RestoreV2_20/shape_and_slices"
  op: "Const"
  attr {
    key: "_output_shapes"
    value {
      list {
        shape {
          dim {
            size: 1
          }
        }
      }
    }
  }
  attr {
    key: "dtype"
    value {
      type: DT_STRING
    }
  }
  attr {
    key: "value"
    value {
      tensor {
        dtype: DT_STRING
        tensor_shape {
          dim {
            size: 1
          }
        }
        string_val: "1 1 0,1:0,1"
      }
    }
  }
}
node {
  name: "save/RestoreV2_20"
  op: "RestoreV2"
  input: "save/Const"
  input: "save/RestoreV2_20/tensor_names"
  input: "save/RestoreV2_20/shape_and_slices"
  attr {
    key: "_output_shapes"
    value {
      list {
        shape {
          unknown_rank: true
        }
      }
    }
  }
  attr {
    key: "dtypes"
    value {
      list {
        type: DT_FLOAT
      }
    }
  }
}
node {
  name: "save/Assign_20"
  op: "Assign"
  input: "linear/school_rating/weight/part_0/Adam_1"
  input: "save/RestoreV2_20"
  attr {
    key: "T"
    value {
      type: DT_FLOAT
    }
  }
  attr {
    key: "_class"
    value {
      list {
        s: "loc:@linear/school_rating/weight/part_0"
      }
    }
  }
  attr {
    key: "_output_shapes"
    value {
      list {
        shape {
          dim {
            size: 1
          }
          dim {
            size: 1
          }
        }
      }
    }
  }
  attr {
    key: "use_locking"
    value {
      b: true
    }
  }
  attr {
    key: "validate_shape"
    value {
      b: true
    }
  }
}
node {
  name: "save/RestoreV2_21/tensor_names"
  op: "Const"
  attr {
    key: "_output_shapes"
    value {
      list {
        shape {
          dim {
            size: 1
          }
        }
      }
    }
  }
  attr {
    key: "dtype"
    value {
      type: DT_STRING
    }
  }
  attr {
    key: "value"
    value {
      tensor {
        dtype: DT_STRING
        tensor_shape {
          dim {
            size: 1
          }
        }
        string_val: "linear/size_bucketized/weights"
      }
    }
  }
}
node {
  name: "save/RestoreV2_21/shape_and_slices"
  op: "Const"
  attr {
    key: "_output_shapes"
    value {
      list {
        shape {
          dim {
            size: 1
          }
        }
      }
    }
  }
  attr {
    key: "dtype"
    value {
      type: DT_STRING
    }
  }
  attr {
    key: "value"
    value {
      tensor {
        dtype: DT_STRING
        tensor_shape {
          dim {
            size: 1
          }
        }
        string_val: "31 1 0,31:0,1"
      }
    }
  }
}
node {
  name: "save/RestoreV2_21"
  op: "RestoreV2"
  input: "save/Const"
  input: "save/RestoreV2_21/tensor_names"
  input: "save/RestoreV2_21/shape_and_slices"
  attr {
    key: "_output_shapes"
    value {
      list {
        shape {
          unknown_rank: true
        }
      }
    }
  }
  attr {
    key: "dtypes"
    value {
      list {
        type: DT_FLOAT
      }
    }
  }
}
node {
  name: "save/Assign_21"
  op: "Assign"
  input: "linear/size_bucketized/weights/part_0"
  input: "save/RestoreV2_21"
  attr {
    key: "T"
    value {
      type: DT_FLOAT
    }
  }
  attr {
    key: "_class"
    value {
      list {
        s: "loc:@linear/size_bucketized/weights/part_0"
      }
    }
  }
  attr {
    key: "_output_shapes"
    value {
      list {
        shape {
          dim {
            size: 31
          }
          dim {
            size: 1
          }
        }
      }
    }
  }
  attr {
    key: "use_locking"
    value {
      b: true
    }
  }
  attr {
    key: "validate_shape"
    value {
      b: true
    }
  }
}
node {
  name: "save/RestoreV2_22/tensor_names"
  op: "Const"
  attr {
    key: "_output_shapes"
    value {
      list {
        shape {
          dim {
            size: 1
          }
        }
      }
    }
  }
  attr {
    key: "dtype"
    value {
      type: DT_STRING
    }
  }
  attr {
    key: "value"
    value {
      tensor {
        dtype: DT_STRING
        tensor_shape {
          dim {
            size: 1
          }
        }
        string_val: "linear/size_bucketized/weights/Adam"
      }
    }
  }
}
node {
  name: "save/RestoreV2_22/shape_and_slices"
  op: "Const"
  attr {
    key: "_output_shapes"
    value {
      list {
        shape {
          dim {
            size: 1
          }
        }
      }
    }
  }
  attr {
    key: "dtype"
    value {
      type: DT_STRING
    }
  }
  attr {
    key: "value"
    value {
      tensor {
        dtype: DT_STRING
        tensor_shape {
          dim {
            size: 1
          }
        }
        string_val: "31 1 0,31:0,1"
      }
    }
  }
}
node {
  name: "save/RestoreV2_22"
  op: "RestoreV2"
  input: "save/Const"
  input: "save/RestoreV2_22/tensor_names"
  input: "save/RestoreV2_22/shape_and_slices"
  attr {
    key: "_output_shapes"
    value {
      list {
        shape {
          unknown_rank: true
        }
      }
    }
  }
  attr {
    key: "dtypes"
    value {
      list {
        type: DT_FLOAT
      }
    }
  }
}
node {
  name: "save/Assign_22"
  op: "Assign"
  input: "linear/size_bucketized/weights/part_0/Adam"
  input: "save/RestoreV2_22"
  attr {
    key: "T"
    value {
      type: DT_FLOAT
    }
  }
  attr {
    key: "_class"
    value {
      list {
        s: "loc:@linear/size_bucketized/weights/part_0"
      }
    }
  }
  attr {
    key: "_output_shapes"
    value {
      list {
        shape {
          dim {
            size: 31
          }
          dim {
            size: 1
          }
        }
      }
    }
  }
  attr {
    key: "use_locking"
    value {
      b: true
    }
  }
  attr {
    key: "validate_shape"
    value {
      b: true
    }
  }
}
node {
  name: "save/RestoreV2_23/tensor_names"
  op: "Const"
  attr {
    key: "_output_shapes"
    value {
      list {
        shape {
          dim {
            size: 1
          }
        }
      }
    }
  }
  attr {
    key: "dtype"
    value {
      type: DT_STRING
    }
  }
  attr {
    key: "value"
    value {
      tensor {
        dtype: DT_STRING
        tensor_shape {
          dim {
            size: 1
          }
        }
        string_val: "linear/size_bucketized/weights/Adam_1"
      }
    }
  }
}
node {
  name: "save/RestoreV2_23/shape_and_slices"
  op: "Const"
  attr {
    key: "_output_shapes"
    value {
      list {
        shape {
          dim {
            size: 1
          }
        }
      }
    }
  }
  attr {
    key: "dtype"
    value {
      type: DT_STRING
    }
  }
  attr {
    key: "value"
    value {
      tensor {
        dtype: DT_STRING
        tensor_shape {
          dim {
            size: 1
          }
        }
        string_val: "31 1 0,31:0,1"
      }
    }
  }
}
node {
  name: "save/RestoreV2_23"
  op: "RestoreV2"
  input: "save/Const"
  input: "save/RestoreV2_23/tensor_names"
  input: "save/RestoreV2_23/shape_and_slices"
  attr {
    key: "_output_shapes"
    value {
      list {
        shape {
          unknown_rank: true
        }
      }
    }
  }
  attr {
    key: "dtypes"
    value {
      list {
        type: DT_FLOAT
      }
    }
  }
}
node {
  name: "save/Assign_23"
  op: "Assign"
  input: "linear/size_bucketized/weights/part_0/Adam_1"
  input: "save/RestoreV2_23"
  attr {
    key: "T"
    value {
      type: DT_FLOAT
    }
  }
  attr {
    key: "_class"
    value {
      list {
        s: "loc:@linear/size_bucketized/weights/part_0"
      }
    }
  }
  attr {
    key: "_output_shapes"
    value {
      list {
        shape {
          dim {
            size: 31
          }
          dim {
            size: 1
          }
        }
      }
    }
  }
  attr {
    key: "use_locking"
    value {
      b: true
    }
  }
  attr {
    key: "validate_shape"
    value {
      b: true
    }
  }
}
node {
  name: "save/restore_shard"
  op: "NoOp"
  input: "^save/Assign"
  input: "^save/Assign_1"
  input: "^save/Assign_2"
  input: "^save/Assign_3"
  input: "^save/Assign_4"
  input: "^save/Assign_5"
  input: "^save/Assign_6"
  input: "^save/Assign_7"
  input: "^save/Assign_8"
  input: "^save/Assign_9"
  input: "^save/Assign_10"
  input: "^save/Assign_11"
  input: "^save/Assign_12"
  input: "^save/Assign_13"
  input: "^save/Assign_14"
  input: "^save/Assign_15"
  input: "^save/Assign_16"
  input: "^save/Assign_17"
  input: "^save/Assign_18"
  input: "^save/Assign_19"
  input: "^save/Assign_20"
  input: "^save/Assign_21"
  input: "^save/Assign_22"
  input: "^save/Assign_23"
}
node {
  name: "save/restore_all"
  op: "NoOp"
  input: "^save/restore_shard"
}
versions {
  producer: 17
}
